data/processed/converted_model.tflite (tflite, 978324 bytes, 10 tensors)

sequential/conv2d/BiasAdd/ReadVariableOp f4 [32]
000000 23 69 94 bd 8b c7 b2 bc e9 ff 69 3c d8 2f 2f bd
       -0.07246616 -0.021823665 0.014282205 -0.042770237
000010 83 5f 68 bc 8c 0f c1 bb c5 f3 1f 3d 5b 09 6b bc
       -0.014182928 -0.005891746 0.039050836 -0.014345492
000020 2f e0 98 bd 14 df 6a b9 b9 f5 6a bd 0c 4b b2 3c
       -0.074646346 -0.00022399082 -0.057363246 0.0217643
000030 58 4f ea bc 8a 25 f3 3c bb d4 d7 bd b9 1a 64 3c
       -0.028602287 0.029680986 -0.10538622 0.013922387
000040 9a 6d 7c bd 5c 43 df bb 53 00 c4 bc 87 95 8c bc
       -0.06162796 -0.00681345 -0.023925936 -0.017161144
000050 0c 77 e1 ba 6c 4b f3 bb d2 ba 5b bd ca 44 bb bb
       -0.0017201616 -0.0074247625 -0.053644963 -0.0057149874
000060 b8 b8 42 bc 1d 1d ce bd a8 cd 0b 3d 2b 32 12 bc
       -0.011884861 -0.10064147 0.034131676 -0.008923094
000070 a2 b3 cd bd 9a a5 8a bb 81 18 37 bc 85 1d 35 bb
       -0.10044028 -0.004231167 -0.011175276 -0.0027636003

sequential/conv2d_1/BiasAdd/ReadVariableOp f4 [64]
000000 9f 22 c8 bc f0 11 8a 3d e1 d5 64 be 4b 40 51 be
       -0.024430571 0.067417026 -0.22347213 -0.20434682
000010 f6 3c 53 bd 1b fd 81 bd 60 25 6a bd 54 e0 da 3b
       -0.05157181 -0.06347104 -0.05716455 0.006679574
000020 3b 05 30 be 5b 8c 3e bc ee 9d 8c 3d 18 d4 0f 3d
       -0.17189495 -0.011630143 0.0686606 0.035114378
000030 48 d6 0b be 7b 18 cb bc ab 28 1e be 98 a2 62 be
       -0.1365596 -0.024791947 -0.15445201 -0.22132337
000040 d6 ca c3 bd c3 c7 c9 bd e3 a2 f5 3c 3d 06 23 bd
       -0.09560172 -0.09852555 0.029984897 -0.03980087
000050 36 0f e1 bd cb b1 f0 bd ef 0a 9b bd 8c c5 04 3e
       -0.109892294 -0.11752661 -0.07570445 0.12965983
000060 1b d5 41 be 87 ae e8 3b 62 38 77 bc ba 0b e4 bd
       -0.1892895 0.0071008834 -0.015089126 -0.11135049
000070 ac 96 26 bc 3e 67 44 be 22 8a 84 be 6c 6f c8 3d
       -0.010167759 -0.19180009 -0.25886637 0.09786877
000080 45 24 a1 3d 41 0b 59 be d9 cb 36 3d 2f 09 58 bd
       0.07868246 -0.211957 0.044627998 -0.052743133
000090 1f f4 bf bd 3a 3f ba 3d 53 98 4a be de 44 4d be
       -0.09372734 0.09094091 -0.1978467 -0.20045802
0000a0 e3 7c 8f 3b f0 0b 91 3a bc 9d 1b bd c6 fd 66 be
       0.0043789013 0.001106618 -0.037992224 -0.22557744
0000b0 f5 0f 3a be bc 00 61 bd 59 fa bd bd 4e e2 70 bb
       -0.1817015 -0.05493234 -0.09276266 -0.0036755982
0000c0 f7 3d 19 bc 0d be 94 bd aa c1 de bd a8 4c 5e 3d
       -0.0093531525 -0.07262812 -0.10876782 0.054272324
0000d0 08 e9 a6 bd 90 9b 66 be 77 f4 ec bc 89 0d 8f bc
       -0.08149916 -0.2252028 -0.028925164 -0.017462509
0000e0 97 bb f1 bd 49 32 d9 bd 6f d4 19 be 66 a3 19 3d
       -0.11803358 -0.10605294 -0.15022443 0.037509345
0000f0 01 10 62 be 51 3a 99 bd 05 39 fa 3d 18 80 89 3d
       -0.22076418 -0.07481826 0.12217907 0.06713885

sequential/conv2d_2/BiasAdd/ReadVariableOp f4 [128]
000000 ee d8 5d bd 81 87 f6 bc b3 03 68 ba ab 23 75 bc
       -0.05416196 -0.03009391 -0.0008850649 -0.014962117
000010 0c 0a b5 bd 18 03 4f bc 8e f0 64 bd cb a2 42 bd
       -0.08839807 -0.012635015 -0.055893473 -0.047518533
000020 b8 f1 82 bc b5 7a 3b bd 4f 8a 05 bd 01 59 88 bc
       -0.015984401 -0.04577132 -0.032602604 -0.016644003
000030 8d ae 31 3d 0f 61 0b 3d 6b 36 0d 3d 46 a8 a6 bd
       0.043379355 0.03402811 0.034475725 -0.08137564
000040 b0 85 02 bc b2 d6 64 bb 5c 98 9e ba d9 36 58 bd
       -0.007966444 -0.0034918007 -0.001209985 -0.05278668
000050 13 40 0f be 49 e4 6a 3c a3 d4 a0 bd 60 e3 18 bd
       -0.13989286 0.014336654 -0.07853057 -0.037326217
000060 30 ab 22 bd b6 53 39 3d 86 d3 ca 3c 52 87 05 bd
       -0.03971404 0.04524585 0.024759065 -0.032599755
000070 13 49 8e bd 12 3a c6 bc 30 c4 0e bc 18 61 60 bd
       -0.069475316 -0.024197612 -0.008713767 -0.054780096
000080 bb 27 46 bd 4d 6e 76 3c 6d a0 bd bd e6 f4 c5 bd
       -0.048377734 0.015040946 -0.092591144 -0.09665851
000090 05 62 7d bd be 18 54 3c d8 a5 ef bb 4b 25 9a ba
       -0.061861057 0.012945352 -0.0073134713 -0.0011760382
0000a0 ac e1 49 bd fb 92 4e bd b4 11 0c be 0c 72 0b bd
       -0.049287483 -0.05043314 -0.13678628 -0.03404431
0000b0 84 1a 03 be a4 67 6c bd e3 1d 97 bc 13 6f a9 bb
       -0.12803084 -0.057716027 -0.018446868 -0.005170712
0000c0 ec 4c 47 ba 63 12 1b ba 52 0e 28 bd 41 5b 13 be
       -0.000760271 -0.00059155206 -0.041029282 -0.1439028
0000d0 2a 1b 59 3d 80 4a 1c bd d9 47 a0 bd e1 eb 38 3d
       0.05300442 -0.038156986 -0.07826204 0.045146827
0000e0 b5 cd a9 bd 83 67 75 bc 44 5e 05 bd a7 d9 58 bc
       -0.08291189 -0.014978292 -0.0325606 -0.013235486
0000f0 fa 5e ff bd 5d 79 ed 3c 22 bb 57 bb 13 ce 01 be
       -0.12469287 0.028988535 -0.0032917936 -0.12676267
000100 ec ac 88 bd 14 6f 45 3d e1 21 11 be e5 12 bb bc
       -0.06673607 0.048201635 -0.1417308 -0.022836158
000110 4a 2a 02 3c fa b3 03 be 7a 74 97 bc f6 a0 c3 3d
       0.007944653 -0.12861624 -0.018488158 0.09552185
000120 22 c0 3b bc 6a be 43 bd 6d 33 af bc ec 73 43 bd
       -0.011459382 -0.047789015 -0.021386826 -0.047717974
000130 ee 17 12 3e 88 ba fc bb 1d ef 84 3d f2 06 3d be
       0.14266941 -0.007712666 0.0649092 -0.1845968
000140 c9 cb ec bd 8f 54 8b 3c 24 28 d4 bc 2d 98 aa bd
       -0.115623064 0.017008094 -0.025898047 -0.083298065
000150 3c b5 de 3c 5c 8e 9f 3d 5c 07 73 bc 49 bb 11 3d
       0.027186029 0.07790825 -0.014833298 0.035579
000160 3b f2 a8 bd 8e cc 31 bd 41 43 52 bd c6 40 ee bb
       -0.08249327 -0.04340797 -0.05133367 -0.007270905
000170 2e 8b 58 bd 44 46 57 3d 7f c4 c9 bc b3 50 29 be
       -0.052867107 0.052557245 -0.02462983 -0.1653469
000180 25 41 8b 3c d2 25 0a bd 14 79 60 3d 5d a9 f3 bc
       0.016998837 -0.033727475 0.05480297 -0.029743845
000190 7a c2 58 bd fe 93 9b bc 23 be bd 3d 6d 37 c1 bb
       -0.052919842 -0.018991467 0.09264781 -0.0058965
0001a0 ca 87 e0 3a 52 ae bb 3d 66 dd ce bd f3 99 08 3e
       0.0017130312 0.09164108 -0.10100822 0.13339977
0001b0 91 c2 56 bd 5e 6c 44 bc c7 d8 5e ba 1b 1d 82 bc
       -0.052431647 -0.011988727 -0.000850093 -0.01588302
0001c0 36 19 9a 3c 81 62 aa bd ad 4e c5 bd 15 a3 a0 3d
       0.01881085 -0.083195694 -0.09634147 0.078436054
0001d0 ba 85 27 bd 8f e8 12 be 2f 34 f4 bc d9 6c fa 3d
       -0.040899016 -0.14346527 -0.02981004 0.12227792
0001e0 f3 d9 be bb 89 ba ac 3d da 02 46 bd 25 0e 2c bc
       -0.0058243214 0.08434016 -0.048342563 -0.010501419
0001f0 8c 9e b0 bd ba 45 bc bd 0d 24 01 bd 88 0d 93 3d
       -0.086239904 -0.09192987 -0.03152852 0.07180315

sequential/conv2d/Conv2D f4 [32, 3, 3, 1]
000000 90 8a 85 be 34 5a 0e 3e 67 0b 20 3e d2 d3 6c be
       -0.26082277 0.13901597 0.1562935 -0.23127678
000010 47 a9 cc bb 0e c2 18 3e cc cb f7 3d 98 0b 69 3e
       -0.0062457654 0.14917776 0.12099418 0.22758329
000020 cf a1 30 be 34 3b e9 3d 8b 02 80 bc ad 95 4c bc
       -0.17249225 0.11388245 -0.015626213 -0.012486857
000030 aa 84 97 3d ef 91 a5 3d 3d a3 20 3e 5b 67 c9 3d
       0.073983505 0.08084475 0.1568727 0.098341666
000040 1e 4c 0b be cd 33 19 3e 29 fa 22 be aa 06 03 be
       -0.13603255 0.14961167 -0.15915741 -0.12795511
000050 e7 b2 0c 3e 87 e4 88 be eb 6c 90 3c 98 ae a8 3e
       0.13740121 -0.26736853 0.017630061 0.32945704
000060 3e 4e 23 be 30 a8 76 3d 21 98 1e 3e a2 1d e5 3d
       -0.15947816 0.06021899 0.1548772 0.11187293
000070 65 79 2b be 81 5c a1 be b2 b3 e4 3a be 9f 86 3d
       -0.16745527 -0.31515887 0.0017448573 0.06573437
000080 dc 90 bd bd 23 c2 df 3c 07 5b 6a 3e 7e 79 4e 3e
       -0.09256145 0.027314251 0.22886287 0.20163533
000090 a5 94 6a be db 75 74 3d 53 c4 f9 bd 81 f6 86 3d
       -0.22908266 0.05968271 -0.12195649 0.06589986
0000a0 d2 3e c9 3e de 56 f1 bd 9d 96 42 be 8f 1a 45 bc
       0.3930574 -0.11784147 -0.19002767 -0.012030258
0000b0 c7 5c 93 bd 07 c4 d8 bd d8 cd a9 be 8b 95 36 be
       -0.0719543 -0.10584264 -0.3316486 -0.17830484
0000c0 0b 8e 96 3d ad 75 9e 3d 21 e3 28 3d 7e df 07 3e
       0.07351311 0.077372886 0.041232232 0.13268849
0000d0 40 a5 67 3e f2 49 93 3d 30 59 73 3e a4 8a bf bd
       0.22621632 0.07191838 0.23764491 -0.093526155
0000e0 53 da 34 be 58 59 93 3e 45 e4 a1 3c 35 ed a4 be
       -0.17661409 0.287791 0.019762168 -0.32212225
0000f0 51 69 04 3e f2 f7 1e be 7f 51 43 bb c6 e9 94 3d
       0.129308 -0.15524271 -0.0029803214 0.07271151
000100 10 93 7e be 33 39 1c be 30 94 af 3c ee d5 39 3c
       -0.24860787 -0.15256195 0.021432966 0.011342509
000110 d4 91 59 be 0e 33 43 3e 3c ce 1f 3e 6c 85 14 be
       -0.21247035 0.19062445 0.15606016 -0.14504021
000120 2c fa d3 bc da 7d 23 3e 0b f6 e5 bd ba b5 2b 3d
       -0.025876127 0.15965977 -0.112285696 0.041921355
000130 6d 8a c3 3c 98 37 12 bd 09 a7 2c be 0e 6a 8a 3d
       0.023869717 -0.03569755 -0.16860594 0.067585096
000140 a9 9a 75 3d 14 a1 2e bc e5 91 7f be a6 b6 01 be
       0.05996195 -0.010658521 -0.24957998 -0.12667331
000150 7b ad 4f be cd 68 ee bd 84 58 c3 3d f3 5b 38 3e
       -0.20281021 -0.11641083 0.095383674 0.18003826
000160 b0 28 1f 3e fb 2c 88 3e db 0a d7 bd 6f 0e 1a 3e
       0.15542865 0.26596817 -0.105001174 0.15044568
000170 d6 8c bd 3d b0 3e 33 3d 01 3c 8d bd cb fd 00 be
       0.09255378 0.043760955 -0.068962105 -0.12596814
000180 aa 14 38 bd a6 39 bb 3d 73 ca f1 3d 63 d9 0d be
       -0.04494158 0.09141855 0.11806192 -0.13852458
000190 9d e5 d3 bd ad 40 ab 3e 26 96 80 be 1f ff 1f 3d
       -0.1034653 0.3344778 -0.25114554 0.03906166
0001a0 8e cd d9 3d 7b e2 2b be c4 d5 c1 3c b8 9c d2 3d
       0.106349096 -0.16785614 0.023661502 0.10283798
0001b0 b6 68 5a bd a6 45 4d 3d e1 ef 32 bd 21 bb 8c 3d
       -0.053322516 0.05011525 -0.043685798 0.068716295
0001c0 82 f1 10 3d 20 2e e5 3d a0 28 15 be 0b 06 c5 bd
       0.03538657 0.11190438 -0.14566278 -0.09620293
0001d0 9c 30 3e 3e 78 de 0f be 1a a0 92 be 16 a4 b4 be
       0.1857323 -0.14049709 -0.28637773 -0.35281438
0001e0 92 4e 91 3c 5f 99 01 be 3a 93 55 be 43 e0 45 3e
       0.01773766 -0.12656163 -0.20856944 0.1932383
0001f0 2b ce 5a 3e 89 9e 4c 3e 3a 5e 36 3e e9 5d 62 3d
       0.2136771 0.19982351 0.17809382 0.05526534
000200 54 a4 c8 be 4c 3b 4b 3d fe 0a d9 3d 0e 1e 56 be
       -0.39187872 0.049617097 0.105978 -0.20909902
000210 98 52 12 3e 3a fb f8 3d 96 41 56 3e c0 7c ab be
       0.1428932 0.12157293 0.20923457 -0.33493614
000220 20 13 6b bd 86 c6 17 bd 70 3d 2f be 72 68 c6 3d
       -0.057391286 -0.03705456 -0.1711328 0.0968789
000230 ba dc 3d 3d 22 b1 52 3e 3d 52 45 3e 5a 4c 9d bc
       0.04635308 0.20575383 0.19269653 -0.019201446
000240 6f e8 df 3d 5b 3f 66 be 73 17 75 bd 6e 14 9d bd
       0.10933005 -0.22485106 -0.059836816 -0.07669912
000250 8f 53 3e 3e 48 be 8c 3e 04 3d 5d bd a6 e2 c4 3d
       0.18586563 0.27488923 -0.054013267 0.09613542
000260 df 31 5a be 71 e9 84 3e 63 b1 6e 3e bf c1 10 bd
       -0.21308087 0.25959352 0.23309855 -0.03534102
000270 55 d4 50 3e c0 67 2b 3e 9f 20 b0 be 9c 86 0b 3d
       0.20393498 0.16738796 -0.34399888 0.03406392
000280 8b a6 bf be 10 ea a9 be c7 25 3e 3d 47 44 8e bd
       -0.3743175 -0.33186388 0.046422746 -0.069466166
000290 80 7a e4 bc 58 47 47 3e e4 17 1c 3e b9 be 4e 3e
       -0.027890444 0.19460809 0.15243489 0.20189942
0002a0 fe 01 45 be 9f 2d 3f bd bf fc 3f be f9 72 24 3d
       -0.19239041 -0.046674367 -0.18748759 0.04014871
0002b0 e6 5a 3e 3c ee 5a 92 3d 22 59 1e 3c f5 27 8e bc
       0.011618352 0.0714625 0.009664806 -0.017353037
0002c0 0a 0a 6c 3d 0f e7 5f 3d bf 1c f4 bc 0e b5 b7 3d
       0.05762676 0.054663714 -0.029798863 0.0897008
0002d0 36 b8 f6 3d bb 53 f6 3d c8 4f 94 3e 10 ea 65 3c
       0.12046854 0.12027689 0.28967118 0.014032856
0002e0 c3 5e c2 3d 16 e7 1f 3c 36 8b 50 be 8c 83 a0 be
       0.094907306 0.009759685 -0.20365605 -0.31350362
0002f0 6f 76 9b be d6 c3 c6 3d 45 e8 7e 3e 81 89 17 3e
       -0.30363795 0.097053215 0.24893291 0.14798547
000300 f1 ea 45 bd 15 f9 f2 3d 11 53 27 3e b9 f7 dd bd
       -0.04831976 0.11863915 0.16340281 -0.10838265
000310 3d 28 bb be 7d 4f 81 be 56 36 a6 bd 8e d7 2f 3e
       -0.36554137 -0.25255957 -0.081158325 0.17172071
000320 de a6 8c be 2a f5 b7 3c f0 18 b0 3d bf 31 37 3e
       -0.2747106 0.02245577 0.085985065 0.1789007
000330 3e 7b 34 be 8e 23 cc bd c7 1d b0 3d 40 39 7b be
       -0.17625138 -0.09967719 0.085994296 -0.24533558
000340 fa 04 b0 be f2 97 c2 3d 16 5e 8d be ff 88 20 3e
       -0.34378797 0.095016375 -0.27610844 0.1567726
000350 05 59 51 3e 04 92 aa bd 9e 37 26 3e 27 0e da 3d
       0.20444115 -0.083286315 0.16232154 0.106472306
000360 19 1a 89 be 1e 0b 3c be 49 53 81 be 0a d6 7a 3e
       -0.26777723 -0.18363616 -0.25258854 0.24495712
000370 de 79 23 3e 86 1c b3 3d c9 d1 1e 3e 4f 43 20 3d
       0.15964457 0.08745675 0.15509714 0.03912669
000380 f6 b3 f3 bd 0d cb c1 3d 06 e1 8a bd 75 6c cd 3d
       -0.11899559 0.09462557 -0.06781201 0.10030452
000390 b1 88 d5 bc 15 68 4c ba b1 a4 3b be 0c 44 ae 3d
       -0.026066156 -0.0007797492 -0.18324544 0.08509073
0003a0 03 de 9f 3d cf 53 8e bc fc 9c 10 3e b3 ea 15 be
       0.07806017 -0.017373947 0.14122385 -0.14640312
0003b0 8d e8 33 be 60 d4 40 3e 46 41 ca 3c 92 f5 8c be
       -0.1756918 0.18831015 0.024689328 -0.27531105
0003c0 35 0e 53 3e d2 7d ce 3d c9 3d 43 be 07 c8 e4 b9
       0.20610888 0.10082592 -0.19066538 -0.0004363658
0003d0 60 35 4e 3e dc b0 50 3e d6 57 93 be 94 50 f8 3c
       0.20137548 0.20379966 -0.2877795 0.03031186
0003e0 6f 37 a1 3e 6f 7b d2 be aa 78 95 bd a3 c9 6a 3d
       0.31487605 -0.41109797 -0.072984055 0.057321202
0003f0 f1 21 60 be 43 07 5e 3e 07 8e b1 bd aa c9 21 be
       -0.21887948 0.21682458 -0.08669668 -0.15799585

sequential/conv2d_1/Conv2D f4 [64, 3, 3, 32]
000000 82 0d da 3c 31 b2 b5 3d 7f 0a 06 be c0 7a 87 3d
       0.02661777 0.08871878 -0.13089941 0.066152096
000010 ab d8 cf 3d c1 99 0a bc a6 a0 81 be ab f3 2d bd
       0.10148748 -0.008459509 -0.25317878 -0.042468708
000020 bc 9d d4 3d 9a a9 82 3d ce e9 79 3b 0a 6a 99 bd
       0.10381648 0.06380005 0.0038133743 -0.074909285
000030 bd 95 99 3d 3b 97 34 3d b9 38 66 3d 36 f4 f2 3c
       0.074992634 0.044089537 0.05620644 0.029657464
000040 19 aa 19 3d 0e 79 98 bd cb 28 ed 3d 8e 34 f1 3c
       0.037515733 -0.07444964 0.11580046 0.029444005
000050 10 04 ac bd fe de 93 3d 45 20 c2 3d 93 d8 3f bb
       -0.08399212 0.07220267 0.09478811 -0.0029273375
000060 e0 94 61 bc ed aa b6 3d b7 4d 2e be 06 a6 a1 3d
       -0.013768405 0.0891932 -0.17021833 0.078929946
000070 8d 08 0d bd bf bf f5 bd 21 54 10 3e 77 3e aa 3a
       -0.034431983 -0.11999463 0.14094593 0.0012988587
000080 45 d4 e7 bc 49 de 50 3d 35 5c 4b be 56 a5 00 bc
       -0.02829946 0.050993238 -0.19859393 -0.007851919
000090 15 5f 86 3e 40 44 a1 bd 4d 25 ee 3d 34 3d 21 3e
       0.26244417 -0.07874346 0.11628208 0.15746003
0000a0 77 85 c6 3d ec dc 9a be 39 d9 b8 3d f6 9d 73 be
       0.09693425 -0.30246675 0.09025807 -0.23790726
0000b0 6e 01 81 3d a3 d2 c3 bd 92 c8 2c 3e 66 c3 1f be
       0.06299101 -0.0956166 0.16873387 -0.15601882
0000c0 73 3f 8d 3d 39 6a 08 3e 26 41 5b 3d a9 a6 de 3d
       0.068968676 0.1332177 0.053528927 0.10871632
0000d0 d3 41 3e be 2d ad 89 bd 0f bd dd bc f4 5d 2f be
       -0.18579797 -0.06722484 -0.02706769 -0.17125684
0000e0 f7 f0 0a 3c dc 1d 70 3d 68 4c 18 3e 10 76 0e bd
       0.008480302 0.058622226 0.14872897 -0.034780562
0000f0 6c 08 8f bd fe 4a 2b 3e b9 2b 45 bd 2e 48 3a be
       -0.06984028 0.16727826 -0.0481374 -0.18191597
000100 94 31 60 be f0 8b ff bd ed 7f 5e bc 7f 96 3a bb
       -0.21893913 -0.12477863 -0.013580305 -0.002847105
000110 07 0a 0d be b2 92 e8 bd 45 df 0f 3e 0f e7 ec 3d
       -0.13773356 -0.11356105 0.14050014 0.115675084
000120 60 11 02 be 56 66 ce bd c7 5a 54 be 41 8c ae 3c
       -0.1270194 -0.10078113 -0.20737754 0.021307113
000130 8f 36 ee bd 8f 96 00 3d 25 07 88 bd 81 6e 47 be
       -0.116315 0.031393584 -0.06641988 -0.19475748
000140 9f 24 fd bc db d5 d4 bc 3d 6a 0a bd 30 fc 1b be
       -0.030901251 -0.02598088 -0.033792723 -0.1523292
000150 4a 9d f6 3c 60 9f cb bd 68 4e 2b be 4e fb a5 bd
       0.030104298 -0.09942508 -0.16729128 -0.08104573
000160 da 3e 88 3d ee ec 4b bc fd fe c7 3d 64 80 9f 3c
       0.06652613 -0.012446625 0.09765432 0.019470401
000170 e2 3c 3f be b8 61 49 3d 2d a0 b3 bd 60 1d 15 3d
       -0.18675569 0.049165457 -0.087707855 0.036404967
000180 d5 2a 80 3c 7a 49 9a 3b 39 e8 59 3d 13 f7 73 bc
       0.015645424 0.004708466 0.05319998 -0.01489045
000190 99 5c bd 3d 2f d0 52 be b4 91 3b be 05 06 08 be
       0.09246177 -0.20587228 -0.183173 -0.13283546
0001a0 3a 1d 33 bd 50 ac 0b be 39 6b 92 3d 40 a9 4f bc
       -0.043729044 -0.13639951 0.07149357 -0.01267463
0001b0 71 35 e7 3c 39 21 9c be 48 c1 c8 bd da 35 66 be
       0.028223725 -0.30494097 -0.098024905 -0.2248148
0001c0 c1 b3 d3 3b 75 9f 6e bd c4 02 e1 3c 09 35 27 3d
       0.0064606373 -0.05825754 0.027467139 0.040822063
0001d0 db 41 96 3d 6b fa 82 3d 72 e2 b4 3d 0e 50 96 bd
       0.0733678 0.0639542 0.088322535 -0.07339488
0001e0 79 4d f7 bd e8 17 ff bc 18 7e db bd b5 a9 07 3e
       -0.120753236 -0.03113933 -0.1071741 0.13248332
0001f0 f1 29 8f bd b0 eb 83 bd a6 c2 61 3c 29 bc e6 3c
       -0.069904216 -0.06441438 0.013779318 0.028165894
000200 f9 33 d6 3c fb c9 90 3d d8 7e 83 bd 19 c1 30 3c
       0.02614783 0.07069775 -0.06420678 0.010788226
000210 12 1e f5 3e cd 38 21 be 48 9c 3f 3e 31 2b 37 3d
       0.47874504 -0.15744324 0.1871196 0.044718925
000220 cd 63 0d 3c 9e 8b 57 be b1 c1 31 3d 00 a3 a0 bd
       0.008629751 -0.21049353 0.04339761 -0.0784359
000230 2d e5 aa bd 42 41 6c be 07 2e ef 3d df a7 3e bd
       -0.08344493 -0.23071769 0.11678701 -0.046546813
000240 54 a0 e4 bb e8 6f a1 3d 54 09 cd 3c c1 22 d6 3d
       -0.0069771204 0.078826725 0.025028862 0.104558475
000250 04 58 0f be b0 e8 91 3b d1 21 ab 3d b7 ec 4f bd
       -0.13998419 0.0044527873 0.08356059 -0.05076286
000260 83 2e 3e 3d dc 04 d2 3d 7f 45 94 3d 79 73 56 3b
       0.046431076 0.10254833 0.07239818 0.0032722636
000270 b6 48 d4 3d 66 14 ff 3d d5 76 e6 3c 6f 66 60 bd
       0.10365431 0.124550626 0.028132835 -0.05478519
000280 b2 dd 3c be e8 37 e0 bd dc fa 2f 3e 2f cb 0f 3d
       -0.18443945 -0.10948163 0.17185539 0.03510588
000290 56 8c 6e be 5d 08 cd bd d9 9e f9 3d a7 c3 51 bc
       -0.23295721 -0.10011361 0.12188501 -0.012802995
0002a0 b7 89 2a bd 93 dd 7b 3d ae f1 3a bd 3a ad 12 3e
       -0.04163524 0.061490607 -0.04564064 0.14323893
0002b0 fb 98 92 bd 86 1a 03 3c f4 65 8c 3b 7d 60 ad bd
       -0.07158085 0.008001929 0.0042846147 -0.08465669
0002c0 38 2c 5f bd b6 b0 e1 3c 60 58 92 bd 56 6c e4 bd
       -0.05448553 0.027550083 -0.071457624 -0.11153476
0002d0 8c 1e 96 bd 18 3b a7 bd ef 81 2f be 84 f2 ed 3d
       -0.07330045 -0.08165568 -0.1713941 0.11618522
0002e0 5e 8f e3 3c 94 76 20 3a 1c 79 41 3d 0e 6d e7 3d
       0.027778324 0.0006121185 0.04723464 0.113000974
0002f0 71 07 18 be 40 38 e4 3c 0b e8 ab bd a0 ff b0 3d
       -0.14846589 0.027858853 -0.08393868 0.086425066
000300 c7 ef be 3d 14 10 3f bc d7 79 f4 3d 02 86 dc 3d
       0.09323078 -0.011661548 0.119373016 0.107677475
000310 9e 1c 7e 3e 8c 5a b7 3d da e5 c9 be e0 83 cd bc
       0.24815604 0.08952817 -0.39433175 -0.025087297
000320 83 fe 96 3d e6 6e e7 3d aa 68 4c 3d 89 42 52 3e
       0.07372763 0.11300449 0.049904503 0.20533194
000330 20 45 ce 3d 2a 4a a3 bd d0 78 9c bd d7 69 15 3e
       0.10071778 -0.0797313 -0.07640231 0.14591156
000340 bf e1 4c 3d 7a 3d 6e be 9f 03 52 3d cd ac 4e 3d
       0.050019976 -0.23265639 0.051272985 0.050457764
000350 e6 30 06 be 2e c8 8f bd 82 cc 74 bc e2 2c a2 3d
       -0.13104591 -0.07020603 -0.014941337 0.07918717
000360 20 1c 46 bd 2b 32 a5 3c ca b8 92 be e5 1a 34 3e
       -0.048366666 0.020165524 -0.28656608 0.17588384
000370 50 83 74 3b bb 55 69 be 15 bb d7 3d 4d 3b a8 3d
       0.0037309714 -0.2278661 0.1053373 0.08214436
000380 9f b7 d6 bc 4a 4e 53 bd 3d 3b d0 be 9c 7c 95 bd
       -0.026210604 -0.051588334 -0.40670195 -0.07299158
000390 de 18 de 3e 4e a3 95 bd 16 c5 70 3e cf 5b 7c bc
       0.43378347 -0.073065385 0.23512682 -0.015402748
0003a0 5b fc 2b 3d 58 61 5f bd 28 d9 4f 3d 6a 3e ba be
       0.04198871 -0.054536194 0.050744206 -0.36375743
0003b0 ac dc 1b be 2b 66 0a be 8d 62 5e 3d 33 91 aa 3c
       -0.15220898 -0.13515536 0.054293204 0.02082119
0003c0 7f 32 cb 3d e0 e3 d3 3d 67 79 80 3d ac ad b7 ba
       0.09921741 0.10346198 0.06273156 -0.001401355
0003d0 24 38 62 3a 20 ff c7 bc 94 5e 9f bd 0a da f8 bd
       0.00086295814 -0.024413645 -0.07781711 -0.12150963
0003e0 11 82 0d 3d e2 70 9d 3c f8 04 25 3e a9 57 a1 be
       0.03454787 0.019218866 0.16115177 -0.31512192
0003f0 85 e2 cb 3d 2b 89 03 3e d2 8a 22 bd 84 f2 73 be
       0.099553145 0.12845294 -0.03968317 -0.23822981

sequential/conv2d_2/Conv2D f4 [128, 3, 3, 64]
000000 eb 7b 02 be 3d 58 d5 3d 7d b8 2f bd c2 44 dd bd
       -0.12742583 0.10417221 -0.04290055 -0.1080413
000010 d9 e2 15 bd ea fd 3a be 54 c6 3a bc bc 01 15 3d
       -0.036593292 -0.18260923 -0.011399824 0.036378607
000020 95 82 24 bd 5c 37 b5 bd 65 4d 02 be 3b 37 14 3e
       -0.040163595 -0.088484496 -0.12724836 0.14474194
000030 ae 8e 8e bd 94 d2 16 3d 6d 7c 15 3d 7a 71 05 bc
       -0.06960808 0.036821917 0.036495615 -0.008144731
000040 1a 05 99 bd 44 00 ab bd 38 66 81 bc 70 a4 17 3a
       -0.07471676 -0.0834966 -0.015795812 0.0005784696
000050 89 cf 15 3d 88 ca 19 3c 2f 6f c7 bc 42 93 90 be
       0.036574874 0.009386666 -0.024345009 -0.2823735
000060 bb 25 b7 bd 44 e6 83 bd d0 b5 d6 3b 0d 03 34 be
       -0.089427434 -0.06440404 0.0065524355 -0.17579289
000070 bc 71 c6 3d ce ff 58 bd fc b9 86 3b 01 c0 dc 3d
       0.09689662 -0.05297833 0.0041115265 0.10778809
000080 42 97 4f be 3d 65 dc bd 52 af b9 bd 6f 8e 0d be
       -0.20272544 -0.10761497 -0.09066643 -0.13823865
000090 50 11 7f bd 77 87 18 3d 58 94 b7 3b 78 22 94 3c
       -0.06227237 0.037238564 0.0056024007 0.018082842
0000a0 ab 7e 26 be 62 b3 df 3d 13 7e ac 3c 90 60 3b 3d
       -0.16259257 0.109228864 0.02105621 0.045746386
0000b0 a6 83 61 bd f8 fd d7 3d 79 40 43 bd bd 04 ed bd
       -0.05505719 0.105464876 -0.047668908 -0.115731694
0000c0 7e 8e 6a 3d 8b 95 fc bc 96 5d c2 bd 1a 9a 20 be
       0.057264797 -0.030833026 -0.09490506 -0.15683785
0000d0 68 c8 78 bc a9 aa d7 bd 7d a1 d2 3d 71 8c fd 3d
       -0.015184499 -0.10530598 0.10284708 0.12380303
0000e0 6b af bf bd 00 cb 86 3d f1 dd f6 bc 63 01 0a be
       -0.0935963 0.06581688 -0.030135127 -0.13477091
0000f0 0e 32 10 bd 68 04 66 3d a7 e0 bd 3c 6f 12 30 be
       -0.035203986 0.056156546 0.023178412 -0.17194532
000100 a0 14 e3 bd 3a 06 bd 3d 7d 40 94 3c 41 b0 d0 3c
       -0.11087918 0.09229703 0.018097157 0.02547467
000110 57 b1 8b bd 9f fa c8 bd d4 8f b6 3d da 32 fa 3d
       -0.06820934 -0.09813427 0.08914152 0.122167304
000120 7c 05 f8 bc 46 c2 2a be 76 79 e2 b9 fb db 90 3d
       -0.030276053 -0.16675672 -0.00043196575 0.07073208
000130 0f 7a d9 3c e6 c4 c3 bd 61 bf 3a be ab 42 ff bd
       0.02654746 -0.0955904 -0.18237068 -0.12463888
000140 0f d9 28 3d 0e 19 36 be 05 41 a0 3d df 15 08 3e
       0.04122263 -0.17782995 0.078249015 0.13289593
000150 26 0e 19 3e 7c 12 fe 3d f4 aa 30 be 36 f1 a3 3d
       0.14946803 0.12405869 -0.17252713 0.08004992
000160 a6 74 a2 3d 1b cf 85 bd bf c2 a5 bc 9a 01 4e bb
       0.07932405 -0.06533643 -0.020234464 -0.003143406
000170 04 97 95 3d 27 74 16 bd e9 4b bb 3c b9 a5 29 3d
       0.073041946 -0.036731865 0.022863345 0.04141781
000180 14 8b 03 bd 20 e3 cc bd 69 c9 0d 3d 3a 79 4c 3e
       -0.032115057 -0.10004258 0.034615908 0.1996812
000190 d8 cc ec bd eb 64 f0 3d 5f 85 b1 3d 87 42 b7 3d
       -0.11562508 0.117379986 0.08668017 0.08948236
0001a0 74 8d 27 3d 5f 30 7f 3d e4 d1 37 bd db 0d 07 3e
       0.040906385 0.06230199 -0.0448779 0.13188879
0001b0 50 20 35 3d 7b 8c 02 bd 26 3d 78 bd 0f ce 55 be
       0.04422027 -0.031872254 -0.06060519 -0.20879386
0001c0 ea 43 1b 3e 77 2a 3c bd 86 ef 73 bc 04 d6 37 bd
       0.15162626 -0.045938935 -0.01488865 -0.044881836
0001d0 45 00 b3 3c 95 2a e0 bd d4 92 a7 3c 9c ff bf bc
       0.021850714 -0.10945622 0.020455755 -0.023437314
0001e0 06 c7 47 bd 0e de 3b bc fb b7 93 3d 4f cd de bd
       -0.048773788 -0.011466516 0.07212826 -0.10879003
0001f0 3a 48 f5 3c 5c 7a af 3c 06 13 ab 3d 3d 9e 6f 3d
       0.029941667 0.02142065 0.08353238 0.058500517
000200 dc 97 d6 3d 5a 6d c9 3d 47 60 04 bd af b1 0e bd
       0.104781836 0.0983531 -0.03231838 -0.03483742
000210 d2 25 97 3d 0c 7a 02 3d 87 73 0e be f3 86 3b bd
       0.073802605 0.031854674 -0.13911258 -0.045782994
000220 25 8a b8 bc ed 4d 92 bc 00 4d fc bc e3 30 e1 bc
       -0.02252681 -0.017859424 -0.030798435 -0.027489131
000230 62 b6 a7 3d b9 8c 57 bd 7d bc 66 3d 78 3c ff bb
       0.08189084 -0.052624438 0.0563321 -0.007789191
000240 70 3a 37 3e cc 0f 44 3e 8e 97 97 bd bb 99 88 bc
       0.17893386 0.19146651 -0.07401954 -0.016674867
000250 4f ba 07 bd 2b 50 5b 3c 6e 47 e9 3d 73 75 af bc
       -0.033136662 0.013385813 0.11390577 -0.021418309
000260 8f 40 b0 3d d8 81 dd bd 9a 28 46 3d 02 bf cc 3c
       0.086060636 -0.10815781 0.048378564 0.024993423
000270 b6 9f 3a bd 74 eb 63 bd 8b 04 92 3d ce 99 0a 3d
       -0.04556247 -0.055644467 0.07129773 0.033838086
000280 58 c1 4f 3d 4f 90 51 bd 2d ee 38 3b 59 d5 0b be
       0.050721496 -0.051163014 0.0028218136 -0.13655604
000290 26 a0 1e 3e f3 61 4e 3d f7 d8 a7 bc a7 8a 3c bd
       0.1549078 0.05038638 -0.0204892 -0.046030667
0002a0 19 a8 9b bd 96 ed cb 3d b1 14 17 bd 69 e9 b6 bc
       -0.076004215 0.09957425 -0.036884967 -0.022328096
0002b0 b2 5c 65 bc d6 43 a0 bd fe 61 f2 bc dd 95 21 3e
       -0.013999151 -0.07825439 -0.029587742 0.15779825
0002c0 9d 18 90 3c 97 2a d0 bd 9b e4 42 be 95 29 9c bd
       0.017589862 -0.10164373 -0.19032519 -0.07625119
0002d0 d5 0c 28 be 38 dc 2e be 08 88 d9 bd 47 65 66 3d
       -0.16411145 -0.17076194 -0.10621649 0.05624893
0002e0 7b ea 6c 3d ec 30 2d be 3d a2 03 3e 0a 17 9b 3d
       0.057840806 -0.16913193 0.12854858 0.07572754
0002f0 a5 d0 ed bd d1 ec 35 bd 1a bb 5d bd f6 a7 af bd
       -0.116120614 -0.0444153 -0.054133512 -0.08576958
000300 3d 95 58 be ff b7 d0 3d 57 0d c7 3d a8 cc b9 bd
       -0.2115068 0.101913445 0.09719341 -0.09072238
000310 cd 08 8b 3d f5 57 20 bc ba e7 09 be bb 0c 98 bc
       0.06788788 -0.009786596 -0.13467303 -0.018560758
000320 0e c0 92 3b f0 63 c8 3d e8 53 12 3c de 8f e2 bd
       0.004478461 0.097846866 0.008931138 -0.11062597
000330 eb e3 8a 3c 91 fa 8f 3d 21 2a 9c bc c5 97 49 3d
       0.016954383 0.070302136 -0.019063057 0.049217004
000340 df 77 df 39 36 d3 a0 3d 60 8c d3 3c d4 6e 6c bb
       0.00042623185 0.07852785 0.025823772 -0.00360768
000350 18 71 9e bd 79 35 70 bc 68 3c a3 3d 63 8e 7f bd
       -0.07736415 -0.014661186 0.07970506 -0.06239165
000360 47 3b bb bd 4c b0 e7 3c 8a 6a 57 3d 5d 42 dc bc
       -0.09142166 0.028282307 0.052591838 -0.026887113
000370 f8 06 26 3d 7e 68 09 be 57 5a 15 3c f5 c8 b2 3d
       0.04053399 -0.13418767 0.009115777 0.08729736
000380 84 2f d4 bd 9b a5 95 bd de 7c cf bd d4 b2 20 3c
       -0.103606254 -0.07306977 -0.101312384 0.009808261
000390 b4 6d 11 bd 30 53 73 3d c4 31 9d 3d 44 51 ec bd
       -0.03550501 0.059405506 0.07675508 -0.11538938
0003a0 10 84 a2 bc 2b 19 19 3d 6e f1 7a bd 24 f0 e9 3c
       -0.019838363 0.037377518 -0.0612654 0.02855689
0003b0 46 08 d7 bd c1 b3 8a 3b 8c af 47 bd a2 4d b9 bc
       -0.10499625 0.004232854 -0.0487514 -0.022620026
0003c0 84 a6 84 3d a4 8f d4 bd 6d a4 14 3b e5 42 35 3d
       0.06477073 -0.1037896 0.0022681013 0.04425325
0003d0 3d dd a7 bd 7c 88 82 bd b9 6b 93 3d 25 01 13 bc
       -0.08196495 -0.063736886 0.07198281 -0.008972441
0003e0 04 7a 13 3d 8b 91 2f bc 7e 0d 39 bd f7 d1 bd bd
       0.036005035 -0.0107158525 -0.045178883 -0.09268563
0003f0 0c 3c 87 ba 23 d1 cd 3c e9 15 0f 3e 8f 5f 21 bd
       -0.0010317578 0.025124138 0.13973202 -0.039397772

sequential/dense/BiasAdd/ReadVariableOp f4 [128]
000000 bb ae b3 bb a4 24 de bb 60 53 67 bd 88 36 f7 bd
       -0.005483476 -0.0067792702 -0.056475997 -0.12070948
000010 5f dd 44 bd 5e 96 5e bc 72 6b 2b bd e1 37 9b bb
       -0.04806268 -0.013585655 -0.041850515 -0.004736886
000020 f9 fb ca 3d cc 56 ae bc 4b 9e 10 bd 39 64 09 bd
       0.09911341 -0.021281622 -0.03530721 -0.033542845
000030 31 06 64 bd 1e cc a6 bd b2 f8 58 bc 27 bd 14 bd
       -0.055669967 -0.08144401 -0.013242887 -0.036313202
000040 e4 6f 95 3c 14 4b 3c 3c 64 4a e5 bc 58 29 d4 bc
       0.01824183 0.011492509 -0.027989574 -0.02589862
000050 c7 d5 a7 3c 34 b5 4c bd 8c 92 48 bd bb 84 50 3d
       0.02048768 -0.049977496 -0.048967883 0.05090783
000060 72 3a 7a 3d b8 4f 62 3d f2 1d e4 3c 3c 22 f6 3c
       0.061090894 0.055251807 0.02784631 0.030045621
000070 8d 13 b4 3b 53 c0 5e bd a8 b8 27 bd f6 61 65 bd
       0.0054954947 -0.054382633 -0.040947586 -0.056001626
000080 c9 a7 89 bd a4 99 b5 3c f7 9f 34 3c ba 3a 5e bd
       -0.067214556 0.022167988 0.011024467 -0.054255225
000090 27 83 59 3d d7 a9 aa bc 94 74 5f bd 14 3d 60 3d
       0.053103592 -0.02083294 -0.054554537 0.05474575
0000a0 75 52 3c 3d a6 6a c7 3b 62 38 06 3c ca 1f 65 3d
       0.045977075 0.0060857115 0.008192154 0.05593852
0000b0 22 2a b1 3a 3b 23 3f 3c 50 05 2f 3d 0f 89 1d be
       0.0013516585 0.011666114 0.042729676 -0.15384315
0000c0 cd 34 33 3d 42 a6 f9 3c e0 91 16 bd 6a 08 3b 3d
       0.043751527 0.030474786 -0.03676021 0.04566232
0000d0 79 4a 19 bd 99 c9 28 3d 3a 07 af 3c 7d 04 c1 bd
       -0.03742454 0.041207884 0.02136575 -0.09424684
0000e0 d4 4b bc bd d1 3e 24 3d 01 8d 89 3b be b0 12 bd
       -0.091941506 0.04009897 0.004197717 -0.035813086
0000f0 b4 ec 89 bd 63 79 1c ba c1 b1 a8 3c 8f 3f ed bc
       -0.06734601 -0.0005969016 0.020592572 -0.028960971
000100 ab cd ff 3c 27 f5 3e 3d 18 5e cc 3c 5a 65 95 bd
       0.031226 0.046620514 0.024947211 -0.07294722
000110 42 2d bc bc 3f f5 eb bc 9e 87 21 3d 85 31 51 bd
       -0.0229708 -0.028803466 0.039435975 -0.051072616
000120 45 ca 88 3d fc 58 37 bd 3d c6 18 bd 88 74 6a bb
       0.06679205 -0.044762596 -0.03729843 -0.0035775024
000130 18 a0 61 bd 79 cf 39 bd 95 df ae bc 48 e2 1e 3c
       -0.055084318 -0.045363877 -0.021346847 0.009697504
000140 a4 88 fe bc 5e b4 88 3d 3b 62 1f 3c b0 e6 9b bb
       -0.031071015 0.06675027 0.00972801 -0.0047577247
000150 28 85 d9 bd 2c fd 32 bd 76 59 e1 3c d6 ee 1c bd
       -0.10621101 -0.043698475 0.027508479 -0.03831371
000160 8e a6 9a 3b b8 76 bb 3c 7a 8c 32 be 0b 37 97 bc
       0.004719562 0.022883758 -0.174364 -0.018458864
000170 0b 20 b8 bc f5 79 ff ba 71 a1 b0 3c 16 60 3e bc
       -0.022476217 -0.0019491302 0.021561356 -0.011619588
000180 3b bf 53 bb 28 9a b1 bd d6 b8 c5 3b 6b f6 e3 3c
       -0.0032310027 -0.08671981 0.006033997 0.027827462
000190 36 e7 14 bc 1a ac c4 3c 2e d2 d1 bc 7d ae d7 3c
       -0.009088328 0.024007846 -0.025612917 0.02632832
0001a0 da 4f 18 bc fd 51 1e 3c 01 d7 ad bc 12 fb 16 bc
       -0.009296382 0.009663102 -0.021220686 -0.009215133
0001b0 0c 99 ba bc 20 bb a3 bc eb 81 f0 3c 1f 37 c4 3c
       -0.022778057 -0.01998669 0.029358825 0.023952065
0001c0 21 70 04 bc be cb 5f bb cd 0a 70 bd e0 ae f4 bc
       -0.008083374 -0.003414854 -0.05860405 -0.029868543
0001d0 b4 42 d9 bc 6e ff 6f bd 6b 28 5b 3d e7 6e b1 bb
       -0.026521064 -0.058593206 0.053505342 -0.005414832
0001e0 e6 b6 e7 bd c2 5e 35 bd 0e e8 90 bc ea 2a 1e bd
       -0.11314182 -0.04427982 -0.017688777 -0.038615145
0001f0 2b 7f cd 3c 6b 3e ad 3c 5d 06 c3 bc 11 3d 93 3c
       0.025085052 0.021147927 -0.023806745 0.017973455

sequential/dense_1/BiasAdd/ReadVariableOp f4 [26]
000000 b9 7d 81 3e 28 de a5 3c 02 b0 0b bd fc f4 8f 3d
       0.2529123 0.020247534 -0.0341034 0.07029149
000010 07 1f 50 3d f6 4a b0 3d 6a 43 6a be 85 cc f2 3d
       0.05081084 0.08608048 -0.22877279 0.11855415
000020 ad 5e f3 3d 95 c6 fd 3c 02 08 13 be 2d 67 0f 3d
       0.11883292 0.03097848 -0.14358523 0.035010505
000030 ef 81 71 be ec 5a 00 3d 2c 53 4a 3b d9 79 e9 bc
       -0.23584722 0.03133671 0.0030872328 -0.028500484
000040 01 c9 67 3c 31 4c 82 be 67 28 9e 3d 06 ae d5 bc
       0.014147044 -0.25448754 0.0772255 -0.026083957
000050 ce 2c 46 3e a5 45 6c bd bb 12 5f be f6 ca 92 3e
       0.19353029 -0.057683606 -0.21784489 0.28670472
000060 03 22 88 be c8 cb d9 3d
       -0.2658845 0.10634571

sequential/dense/MatMul f4 [128, 1152]
000000 ce 23 3c bb a2 79 83 bd cf 9a f0 3d 53 48 91 3d
       -0.0028707865 -0.06419684 0.117482774 0.07093873
000010 19 3c 82 3d a8 17 03 be 2f e0 7a 3e 08 6a 17 3e
       0.06359119 -0.12801993 0.24499582 0.14786541
000020 6a 13 f5 bc 26 e0 d1 3d ec 55 30 be 84 17 1a bd
       -0.029916484 0.10247831 -0.17220277 -0.037620082
000030 b1 5d 68 bd a4 a9 22 bd 0e fa ce bd 33 6b 7f bd
       -0.056729976 -0.039712563 -0.10106288 -0.062358093
000040 22 aa 24 3e b1 7d 9d 3d ec e1 f6 bd f3 de 1b 3d
       0.16080526 0.07689989 -0.1205481 0.038054418
000050 27 3e 4d be 22 13 7f bd e4 00 15 3e 38 52 6c bd
       -0.2004324 -0.062274106 0.14551121 -0.057695597
000060 f6 dc 3c bc d5 a1 21 bd 28 de 15 be 47 9a a9 3d
       -0.011527291 -0.039460976 -0.14635527 0.08281379
000070 95 95 e9 3d 37 fe b0 3c 44 e5 44 3c 8f 76 7b be
       0.11405484 0.021605594 0.012017552 -0.24556945
000080 38 29 9f bb bc 35 aa bc 65 ae af bd 88 b9 95 3d
       -0.0048572086 -0.020777576 -0.08578185 0.07310778
000090 41 10 02 bd 27 da 86 bd 5c 48 bd 3c 5c a5 d9 3d
       -0.031753782 -0.06584578 0.023105793 0.10627243
0000a0 ee 3b f8 3d 18 df a8 bb 7c 84 8c bd da 32 35 be
       0.12120806 -0.005153548 -0.06861207 -0.1769518
0000b0 13 15 e6 bd 1b 39 28 3d dd eb c6 bc 05 55 35 3d
       -0.11234488 0.041070085 -0.02428239 0.044270534
0000c0 9d 31 16 be 47 d8 89 be 29 9c b2 3b 0e 2e 7f bd
       -0.14667363 -0.2692282 0.0054507446 -0.06229978
0000d0 2c 7e 8c 3d 31 3f 20 be 8d 34 4d 3e fb 91 a2 bd
       0.06860003 -0.15649106 0.20039578 -0.07938
0000e0 31 72 4f 3d b0 64 1f be 46 8b ce bd f9 9b 92 bc
       0.05064601 -0.15565753 -0.10085158 -0.01789664
0000f0 34 85 05 3d 59 88 14 3e 1f 03 02 3d cc 04 41 3d
       0.032597736 0.14505138 0.031741258 0.047123715
000100 19 1e 87 3d da 77 2d 3c 2b 92 c3 ba 2b a7 a7 bc
       0.065975375 0.010587657 -0.0014920881 -0.020465454
000110 7e 46 ae bd 4c d3 51 bc 45 16 6f bc ba 64 55 bd
       -0.08509539 -0.012806725 -0.014592712 -0.052098013
000120 0b 0a 7d 3d 98 b0 1b bd 0d 69 b2 ba 6f 62 40 bd
       0.061777156 -0.03801021 -0.001361163 -0.046968874
000130 33 a6 36 bd 91 be 35 3d 19 6d 96 ba f0 b5 f6 3d
       -0.044592094 0.04437119 -0.0011476605 0.120464206
000140 12 87 2d 3e b4 5a 0c be ba aa f8 bd 1b 4e 6f 3d
       0.16946056 -0.13706475 -0.121419385 0.058424097
000150 ad b4 ad 3d 63 06 b1 3d a1 4c e1 3d 3b d9 dc 3d
       0.08481727 0.08643796 0.11000944 0.10783621
000160 ca 9d 21 be 5a 48 2d 3e 0e 20 79 3d 00 4b 3f bc
       -0.15782848 0.16922131 0.060821585 -0.011675596
000170 e6 5d 2b 3e e8 db 92 bd df af 31 3e b3 93 32 3d
       0.16735038 -0.0717085 0.17352246 0.04359789
000180 ab 54 18 3d 1e 38 2d 3e 18 64 30 3e e4 d4 17 3d
       0.03719012 0.16915938 0.17225683 0.037068263
000190 5a ac c0 3c 6b 2a 1f 3c dd 39 64 bd df 60 88 3c
       0.023519684 0.009714703 -0.055719245 0.016647754
0001a0 33 65 13 3e 17 44 54 bd d2 48 71 3b 6c fb 82 bd
       0.14394073 -0.051822748 0.0036817086 -0.06395611
0001b0 97 27 cc 3d fc 2d 3f be 77 d8 98 3b 73 2d f6 bd
       0.09968489 -0.18669885 0.0046644765 -0.120203875
0001c0 e4 3d f9 bd 6f f9 40 3d de 7c 4c bd f0 dc 33 be
       -0.12170008 0.04711288 -0.04992377 -0.1756475
0001d0 6c 30 a2 3d b0 7c 0b 3e 82 15 34 be df 1a 74 bd
       0.07919392 0.13621783 -0.1758633 -0.05959594
0001e0 6b d7 57 3e 63 9c da 3c e5 4a 05 be c8 76 60 3d
       0.21078269 0.0266859 -0.13016851 0.05480078
0001f0 c7 e3 fb bb 82 ae 54 bd 1c 2b 1f 3e b9 ce 62 be
       -0.0076870653 -0.051924236 0.15543789 -0.22149171
000200 67 61 f3 bc 23 f1 8e bd 74 b3 4f 3e 49 6d c4 3d
       -0.029709531 -0.06979587 0.202833 0.09591157
000210 93 3e 45 3e 1b ff 6f bc 82 72 2f 3e 09 f9 53 3d
       0.19262151 -0.014648224 0.17133525 0.05175117
000220 7c 79 8e bc e0 f0 19 bd 3a 32 07 be e3 03 a8 bd
       -0.017391913 -0.037583232 -0.13202754 -0.08203866
000230 eb 56 ba ba 1b 8d 65 be 96 e8 55 bc 86 70 5c bd
       -0.0014216577 -0.22417109 -0.013055941 -0.05381825
000240 cd ed a4 3d 50 41 b6 bd d0 1e b8 bd 97 6c 13 3e
       0.080531694 -0.08899176 -0.08990252 0.14396892
000250 03 c8 fd bc 8a e4 b7 b9 9f 3c f9 3d 90 81 22 bd
       -0.030979162 -0.00035074755 0.12169766 -0.03967434
000260 26 75 7d bd 4d 52 fa bc e4 5f 21 bd c3 41 89 bb
       -0.0618793 -0.030556822 -0.03939809 -0.0041887476
000270 4e 64 71 3e b7 5a 38 3d 79 56 06 3d 6d 45 53 3d
       0.2357342 0.045008387 0.03279731 0.05157988
000280 a6 b6 5a 3d b8 a0 92 bd ae 1e cd 3d 51 ee 4c bb
       0.053396843 -0.07159561 0.10015617 -0.0031269977
000290 0f 7a 9d 3d 15 ac cd 3b 05 7a 86 bd f0 3a 74 3d
       0.076892965 0.0062766173 -0.06566242 0.05962652
0002a0 29 84 b5 bd 83 3a 85 3d 56 44 ee ba 71 21 a7 bc
       -0.08863098 0.06505301 -0.0018178325 -0.020401688
0002b0 5d 6d 54 bd c4 9b 54 3b f2 2e 1e bd 6d fe a8 3d
       -0.05186211 0.0032441476 -0.03861899 0.08251653
0002c0 df 90 90 bc 2c db 80 bd 1f 24 19 bd c7 00 b9 bd
       -0.017647205 -0.06291804 -0.037387963 -0.090333514
0002d0 c7 fb ad bc 55 31 00 3d 0c 56 eb 3c 4c e6 a7 3c
       -0.02123822 0.031297047 0.028727554 0.020495556
0002e0 58 d4 5f 3d 85 87 35 be b2 90 b9 bd 81 ab b9 ba
       0.054645866 -0.17727478 -0.090608016 -0.0014165492
0002f0 1e 6f e5 bc 07 a2 3a bd b3 6c fa bd 4f c6 68 3c
       -0.028007086 -0.045564678 -0.12227764 0.014207437
000300 52 d7 34 bd 34 96 d7 bc e4 c5 ea bd 84 3a 79 bc
       -0.044150658 -0.02631674 -0.11463526 -0.015211705
000310 40 1c e6 bd 8f 95 b8 3c 14 ab 21 3d b4 fc 69 bd
       -0.11235857 0.022532253 0.039469793 -0.057125762
000320 c2 f1 a2 bc 0d 91 08 be 9b 24 da bc 7c a0 81 bd
       -0.01989067 -0.13336582 -0.026628783 -0.06329438
000330 bc 74 48 be 39 52 41 bc c8 07 41 bd b2 9c c7 3d
       -0.1957578 -0.011799389 -0.04712656 0.09746684
000340 67 5f 47 bc 58 b7 98 bd a4 47 51 be 0b 6f 0a be
       -0.012168742 -0.07456845 -0.20437485 -0.13518922
000350 1f 16 d7 3d c1 dd 87 3c e5 17 a2 bd 72 ad b9 3b
       0.10502266 0.016585233 -0.07914714 0.0056664282
000360 dd 49 1d bc 8d 08 10 3e b2 8a 54 3d 21 80 0f 3d
       -0.00960013 0.14065762 0.051890083 0.035034303
000370 22 85 8b bd ad 63 1e 3d 44 6d 7a 3d 5c 97 b1 3d
       -0.068125024 0.038669277 0.06113936 0.08671448
000380 a5 4f 8f 3d 65 38 0b 3e 61 27 88 3c 54 cc d8 3c
       0.06997613 0.13595732 0.01662034 0.026464619
000390 b7 95 12 3d fd e8 0b bd 02 02 dd bc 54 14 40 3d
       0.03578731 -0.03415774 -0.026978496 0.046894386
0003a0 c9 58 ba 3d 58 50 99 bd e4 22 ac 3d c4 bd f7 3d
       0.09098966 -0.074860275 0.08405092 0.12096742
0003b0 cf 08 62 bd 9b 4c 24 be 10 10 a9 bd 17 92 5d bd
       -0.05518418 -0.16044848 -0.08255017 -0.0540944
0003c0 06 8c 20 be 58 11 a3 3d 25 12 15 bd 76 ce 12 3d
       -0.15678415 0.079622924 -0.036394257 0.035841428
0003d0 86 a9 e1 3d b6 a2 3e 3d b3 46 52 bd c1 07 cc 3d
       0.11018662 0.046541892 -0.051336955 0.099624164
0003e0 bb 3f 84 bc e4 bb db bd 41 d5 43 3d cd 2f 9b ba
       -0.01614367 -0.10729197 0.047810797 -0.0011839807
0003f0 51 6e 13 be 0e 84 ed 3c 3d a4 e2 ba 0d 31 fb bd
       -0.14397551 0.028993633 -0.0017291378 -0.12265215

sequential/dense_1/MatMul f4 [26, 128]
000000 4a 44 d2 bd 95 df d7 3d 04 fc 64 be 7d 00 2e be
       -0.10266931 0.10540692 -0.22361761 -0.16992374
000010 50 02 b3 bd 75 e5 37 3e 18 30 52 be fe fc ad bd
       -0.087406754 0.17958625 -0.20526159 -0.0849552
000020 17 2f 9c be 1c e0 8e be 50 eb 4a be 85 23 d1 be
       -0.30504677 -0.27905357 -0.19816327 -0.40847412
000030 de 80 26 be 36 12 8e be 9c f4 9b be 2d 17 97 be
       -0.16260096 -0.2774827 -0.3046006 -0.2950987
000040 f2 83 5a 3e 81 2f 02 3e 3d c5 08 3d 3a 4b 1c 3e
       0.21339396 0.12713434 0.033391226 0.15263072
000050 d5 de 16 3e 84 41 63 3e 96 b3 9a 3d f7 89 c1 3d
       0.14733441 0.22192961 0.075537845 0.09450143
000060 e2 70 d6 3d e0 09 a7 3d b9 10 ab 3d 10 36 3c be
       0.104707494 0.081561804 0.08352799 -0.18379998
000070 13 f1 3f 3e 5f a4 9f 3d 57 95 a5 3b ea 78 81 be
       0.18744306 0.07795023 0.005053203 -0.25287563
000080 ad 2a a0 be 76 c7 3d 3e fe 14 2a ba 5b d5 7a be
       -0.3128256 0.1853312 -0.00064881134 -0.24495451
000090 78 28 dc 3d a1 d2 54 be 68 4d c3 3d 3c 07 c6 3d
       0.10749906 -0.20783474 0.095362484 0.096693486
0000a0 a6 56 92 be d5 80 4f 3e e3 34 4c 3e 2b d4 16 3d
       -0.28581733 0.2026399 0.1994205 0.036823433
0000b0 fb eb 39 3e fc b0 37 be c3 86 ff bd a3 3c d8 3c
       0.18156426 -0.17938608 -0.12476876 0.026396101
0000c0 b5 05 30 3e 72 11 05 3e 7a b7 94 bd fe bf 21 be
       0.17189677 0.12994936 -0.07261558 -0.15795895
0000d0 3a 8b 85 be f2 90 57 be c0 70 86 be cd 65 c6 bc
       -0.26082784 -0.21051386 -0.26257896 -0.024218464
0000e0 98 00 1b be 5f d2 f4 be f4 c1 8e bd 68 91 54 be
       -0.15136945 -0.4781675 -0.069705874 -0.20758593
0000f0 e3 62 a6 be 20 e4 c9 3d ef 1f a7 be 26 ea 7f be
       -0.3249732 0.098579645 -0.3264155 -0.24991664
000100 d3 4d 73 be 5f 62 e9 3d f9 56 7c 3e 76 bb 0e 3e
       -0.23760156 0.11395716 0.24642552 0.13938698
000110 c4 57 a3 be a2 52 35 be 05 30 92 be 15 56 9c 3d
       -0.31902897 -0.17707303 -0.2855226 0.07633606
000120 1b 46 23 3e ae 91 3c be 2b f8 0b be 46 72 e8 3d
       0.15944712 -0.18414947 -0.13668887 0.11349921
000130 be 23 6c be e3 20 03 be 4b e7 66 be e1 d5 71 3e
       -0.2306051 -0.12805514 -0.22549169 0.23616745
000140 9f a7 84 bd 0a 63 45 be 3d 9b 25 bb a7 ee 3c be
       -0.06477284 -0.19276062 -0.0025269531 -0.18450414
000150 2d 10 5a be 63 93 94 bd 4c 8f bf 3d 9f b7 5e be
       -0.21295233 -0.07254674 0.093535036 -0.21749733
000160 6d 16 3c 3e 2c cd 70 be 12 53 ed be 08 8b 59 be
       0.1836793 -0.23515767 -0.4635244 -0.21244442
000170 f3 4b 82 be c8 60 ba 3d f2 05 9e 3d 47 34 a9 bd
       -0.2544857 0.09100491 0.07715978 -0.08261924
000180 ef 8a 9e be 68 8e a9 bd 76 4e b2 3d d0 ef 15 3e
       -0.30965373 -0.08279115 0.087063715 0.14642262
000190 53 d0 01 be 0e 09 40 3e 6c 5a e7 bd f2 8d 01 3e
       -0.12677126 0.18753454 -0.112965435 0.12651804
0001a0 e6 19 ab be 3f 6c 2f 3e 1d fc e5 bd c1 1c 1e be
       -0.33418196 0.17131136 -0.112297274 -0.15440656
0001b0 23 6a 30 3e e4 42 bb be 32 0c 31 3e 74 a6 b3 be
       0.17227988 -0.3657447 0.17289808 -0.3508793
0001c0 50 17 d6 bc 7d c2 09 3e 0e 4d 04 3d 5f fa 32 3e
       -0.026134163 0.13453098 0.032300048 0.17478321
0001d0 ca 16 62 be 62 88 c0 3c cd b7 86 be c4 68 45 be
       -0.22079006 0.023502532 -0.26312104 -0.19278246
0001e0 7a e8 84 bc d6 69 3a 3e fd c6 ab be 43 87 ea 3d
       -0.016224135 0.18204436 -0.33550254 0.114515804
0001f0 7b d2 3f 3c 09 79 9e be 75 29 26 3e c8 42 25 3d
       0.011707897 -0.30951717 0.16226752 0.04034689
000200 f8 3d d8 bd 2d d9 42 3e 96 37 c0 be a3 37 a3 be
       -0.105586946 0.19028158 -0.3754241 -0.31878385
000210 23 05 f5 bd 63 1d 9a be 33 db b0 3d 92 94 1b 3e
       -0.119638704 -0.30100545 0.08635559 0.15193394
000220 ad 1b 25 3e 80 70 ba be e9 ae bd be 24 85 ec bd
       0.16123839 -0.36413956 -0.37047508 -0.11548832
000230 12 7f d4 be 2a fa 6b 3d dc 5c 7b be 78 6a d0 3d
       -0.41503197 0.057611622 -0.24547142 0.10176557
000240 e3 a6 62 be 24 52 2f be ef 18 07 be 1a b6 02 bd
       -0.22133975 -0.17121178 -0.13193105 -0.031911947
000250 a5 14 1c be d9 24 92 be 6d 93 01 be 06 52 d0 3d
       -0.1524225 -0.28543738 -0.12653895 0.10171895
000260 34 eb c6 3d 6c c5 14 3e e0 41 01 3e ee 62 51 bd
       0.0971283 0.14528435 0.12622786 -0.051119737
000270 2c 87 76 be 5f a3 90 bd 78 7c 9c 3c 1f 4e 62 be
       -0.24075001 -0.070624106 0.01910232 -0.22100113
000280 f1 55 a0 be a2 51 80 be 81 85 15 3e 91 ea d3 3d
       -0.31315568 -0.2506228 0.14601709 0.10347474
000290 ef 4f ff 3c dc 10 fb bd e4 66 ab be 9c d4 9c 3d
       0.031166045 -0.12259075 -0.33476937 0.076577395
0002a0 77 bd df be 2a 1c 0a 3e 8d c6 15 be 7a 19 2d be
       -0.43699238 0.13487306 -0.14626522 -0.1690425
0002b0 5a 07 1f 3e 2e 61 45 bd 08 e7 20 bd d0 0c 44 be
       0.15530148 -0.04818838 -0.03928283 -0.19145513
0002c0 4a 43 85 be fb d1 a9 3c 9f a9 a3 be 09 bc 39 3e
       -0.260279 0.02073001 -0.31965348 0.18138136
0002d0 71 ea d2 be 43 d0 3c 3e e4 32 3c be 05 3b ba bd
       -0.4119449 0.1843882 -0.18378788 -0.09093288
0002e0 79 d9 c8 be 69 11 a7 bd 8b 41 1f 3e 0f 5b ab be
       -0.39228418 -0.081576176 0.15552346 -0.3346791
0002f0 35 8f 7c be 3f 8f d5 bd ff 29 0c 3e 09 0b 6d 3d
       -0.24664004 -0.10427713 0.13687895 0.057871852
000300 79 1f 98 be 1e 20 2e 3d d6 cb 7f be 89 28 4a be
       -0.29711512 0.042511098 -0.24980101 -0.19742025
000310 eb 2c 81 3d ab be 95 3b 02 b5 32 3e e3 ce 2b be
       0.063073955 0.0045698485 0.17451862 -0.1677814
000320 2f c3 6c 3e e7 ef ad be 26 88 73 be da bd cb be
       0.23121332 -0.33972093 -0.23782405 -0.39793283
000330 8f 96 44 be d7 74 1d be 9d 40 14 3e d3 3d 07 be
       -0.19198059 -0.15376602 0.14477773 -0.13207178
000340 0b eb 34 be 92 77 34 3e e2 77 6b be e7 d9 6d be
       -0.17667787 0.17623737 -0.2299495 -0.23227654
000350 07 72 4f be b0 8c 46 be e9 c0 01 3e d1 bb ee bd
       -0.20258342 -0.19389606 0.12671246 -0.11656917
000360 36 df 93 be e8 ef 18 3e f9 2c 1a 3d 3e 4d cb bb
       -0.28881234 0.14935267 0.037640546 -0.0062042763
000370 ef c6 17 be 17 5f 10 be c8 05 02 3e fd 31 2a be
       -0.14821981 -0.14098774 0.12697518 -0.16620632
000380 ea 17 d5 3d 0f 37 c1 be d1 9d 59 be 6c 62 97 3d
       0.10404952 -0.3773732 -0.21251608 0.07391819
000390 ed 89 20 3e ca 2d 33 3e 3d 55 41 3d d6 5c 46 3d
       0.15677615 0.17497936 0.04720043 0.04842838
0003a0 01 6b 01 3e 9b 31 8a bd f7 55 8c be 92 65 86 3c
       0.12638475 -0.06747743 -0.27409336 0.016405854
0003b0 ac 26 3c be a8 02 38 3e fc 78 23 3e 5d f6 c2 3d
       -0.18374127 0.17969763 0.1596412 0.09519646
0003c0 f5 35 00 be 9f ce e6 3d af c6 62 3d 3d 34 22 be
       -0.12520583 0.112698786 0.05536526 -0.1584024
0003d0 30 85 11 3e 45 3d 8d bd 50 c9 76 bd 7f 58 25 3e
       0.14210963 -0.06896452 -0.06025058 0.1614704
0003e0 fe 65 5d be 48 a8 de bc 1a 65 f9 3d 34 8d 99 be
       -0.21620938 -0.027179852 0.12177487 -0.29990542
0003f0 fe d2 36 3e a9 75 a8 3d 12 72 cd 3a 8b 60 03 bc
       0.17853925 0.08225567 0.0015674254 -0.008018623
