data/processed/converted_model.tflite (tflite, 978324 bytes, 10 tensors)

sequential/conv2d/BiasAdd/ReadVariableOp f4 [32]
00000000: 3955 acbb d96b 9dbc 96d0 8ebc 90f7 f2bb
00000010: 27bb 80bd 85be 5dbd c22e 4b3e da8e c9bb
00000020: d4fd a2bd dbf7 033e cd0c f5bb d7a6 24bd
00000030: db99 7bbc 8d73 da3d c4ec 10bc 6a22 82bc
00000040: 8454 0cbd d777 8abd 9f19 f3bc 6e05 8bbb
00000050: 560c 30bd 5aa1 68bd 08e5 78ba 97f4 41bb
00000060: 997e 92bb b260 14bc 541e c13b 8e7b d2bc
00000070: 844b c1bb 4598 4cbc f476 7ebd 8b0a a03d
-0.005259183 -0.019216465 -0.017433446 -0.0074147657 -0.062856965 -0.05413677 0.19842055 -0.0061510624
-0.0795857 0.12887518 -0.0074783326 -0.040198173 -0.015356506 0.10666571 -0.008845512 -0.01588555
-0.034260288 -0.06761139 -0.029675303 -0.0042425906 -0.042980514 -0.0567945 -0.00094945775 -0.002959525
-0.004470658 -0.009056257 0.005893508 -0.025693681 -0.0058988947 -0.012487476 -0.06212516 0.07814511

sequential/conv2d_1/BiasAdd/ReadVariableOp f4 [64]
00000000: 47b6 663d a387 c6bd 23b9 8b3d df4f a3bd
00000010: 0656 813a 230f 87bd 7a3b 7f3d 5607 abbd
00000020: cd7d 06bd d9ec 88bd 2b51 813d 5e08 893c
00000030: 2e8e 233c 4f91 103d f790 21be c9ef febc
00000040: c8dc b4bd f36e 1ebe 76c7 65ba 63d8 f13c
00000050: 2302 bdbc 04dc c7bc 62a7 b6bd a7f5 ba3b
00000060: 6703 9bbd 2f2d 16be 8932 45bb 2814 e3bd
00000070: d9a8 03be 172f 0fbc b35a 44bb cda9 cc3c
00000080: 8955 1f3d eb7d 29be 84fc 673d e430 9d3c
00000090: 8888 d1bc 9887 19bd 78bf ebbd b949 bebd
000000a0: d387 a0bd 9cbf f0bc d8b0 0b3d 3677 3fbd
000000b0: 53ad 76bc cc45 c33a f2f9 273e d64d c7bd
000000c0: ccbe 083d 5d06 3cbe 1e94 523c 8623 0dbd
000000d0: 17c7 d8bd 6168 23bd 1076 83bd 8c6c 80bd
000000e0: 40ab d3bd 3c7a 2fbd 06eb 0abe a89c 82bc
000000f0: d275 1cbe a3e6 db3d 71fa 80bc db8c 0bbe
0.056326177 -0.096938394 0.068224214 -0.079742186 0.0009867556 -0.06594684 0.06231258 -0.083510086
-0.032834817 -0.066858 0.0631431 0.016727623 0.009982629 0.035294827 -0.15777956 -0.031120198
-0.08831173 -0.15472011 -0.0008765379 0.029522127 -0.023072308 -0.024396904 -0.089186445 0.0057055536
-0.07569008 -0.14665674 -0.0030089936 -0.11087829 -0.12857379 -0.008739254 -0.0029961288 0.024983311
0.038899932 -0.1655194 0.056637302 0.019188352 -0.025577798 -0.037482828 -0.11511129 -0.09291405
-0.078384064 -0.029388241 0.0341042 -0.046744548 -0.015055972 0.001489812 0.1640394 -0.09731643
0.033385083 -0.18361802 0.012852697 -0.034457706 -0.105848484 -0.039894465 -0.06419003 -0.06270704
-0.10335398 -0.04284118 -0.13566217 -0.01594384 -0.1527932 0.1073735 -0.01574442 -0.13627951

sequential/conv2d_2/BiasAdd/ReadVariableOp f4 [128]
00000000: 279f bfbd 214e 46bd d26e 48bd 01b3 9bbc
00000010: ffa1 ccbd 555d e6bc 4d4b 8fbd 8bba 88bc
00000020: c17f 8cbd d33e 45bd 3b22 6ebd ce65 9f3b
00000030: 99ee abbd 1068 223d 4b1b 37bd 0916 f03b
00000040: d092 7e3c 6c41 52bc c9c0 aabc b528 ef3c
00000050: 913d 6ebc 4980 cbbd 1294 9fbd 7dcc 11bc
00000060: 9ca1 66bd 2cd3 90bd 0936 a53c df82 a5bd
00000070: c5f2 8bbd b671 fbbc f49f 9d3b d1f8 d3bc
00000080: 6d65 8abd eab1 11bd 7f1f 27bd c4bf eb3c
00000090: e74a 05bd 1c1b cabd 1b95 e5bc 9712 56bc
000000a0: e583 1abd 8979 10bc 33d9 99bd 53d5 1f3b
000000b0: 9c73 9dbd 97ec 0fbd 4c33 633c e9c3 a7bc
000000c0: 0704 47bd 7c4a 153c 0ce6 cfbd b459 bf3a
000000d0: 09c6 89bd ac55 3ebc 344c fdbc a39f 34bd
000000e0: 9c8a 22bd 609a 18bd 90c4 9ebb 0e27 1e3d
000000f0: 563a c3bd 9862 27bd b8ce 7c3c c1f0 76bc
00000100: bd5a e1bb 084a 34bd ba2e 5cbd 640c c2bc
00000110: a620 023c 781b 35bc f904 563d 2630 fb37
00000120: 999b 683c c7f7 31bd 2419 89bd aa1e 01bd
00000130: 5214 1dbd bcbd a8bc 0a28 72bd d2fd 10bc
00000140: 11fc a4bd c15a 6ebd c2dd 1bbb c9a3 02be
00000150: 9749 d23c fb9b 32bc 4b34 513d 5561 12bd
00000160: 6f4c 813c 7942 50bd d932 a9bc 2b22 38bd
00000170: 17d8 9abc 77cb 1dbd 9796 963c c211 96bc
00000180: c501 33bc 648f 90bd 65ef 42bd f9d4 c9bd
00000190: 05a3 d5bd 7059 53bd 511e 8bbd 6512 8cbd
000001a0: 03f0 993c 51c2 3cbc a88e 8b3d 0698 78bd
000001b0: 6061 d0bc b8eb 1ebd 8aa7 5f3b 9105 9ebd
000001c0: 33ac 2a3d 5a76 743d a59e 64bd d8e9 49bd
000001d0: 76d3 d1bc 2375 0bbd 9c83 93bd 2688 063e
000001e0: 1e58 9e3d fb55 22bc 5c8a 26bd 97a9 aabc
000001f0: 2345 53bb c02d ef3c a0cf 80bd 37a5 ce3d
-0.09356528 -0.048414353 -0.04893381 -0.019006254 -0.09991836 -0.028120676 -0.06996784 -0.016690513
-0.068603046 -0.048155617 -0.058138113 0.004864431 -0.08395118 0.039650023 -0.044703763 0.0073268455
0.0155379325 -0.012832981 -0.02084388 0.029194215 -0.014541046 -0.09936578 -0.07791914 -0.008898851
-0.056306466 -0.07071528 0.020167368 -0.08081602 -0.06833414 -0.03069387 0.0048103277 -0.02587548
-0.06757627 -0.035570063 -0.04080152 0.028777964 -0.032542136 -0.09868452 -0.0280252 -0.013065956
-0.03772344 -0.008818039 -0.075121306 0.0024388626 -0.07688066 -0.03513774 0.013867211 -0.02047916
-0.048587825 0.009111997 -0.101513 0.0014598877 -0.06727225 -0.011617105 -0.030920126 -0.044097554
-0.03968297 -0.0372566 -0.0048452094 0.038611464 -0.09532611 -0.04086551 0.015430145 -0.015072049
-0.006877272 -0.044015914 -0.0537555 -0.023687549 0.007942354 -0.011053912 0.052250836 2.9943953e-05
0.014197254 -0.04344919 -0.06694248 -0.031523384 -0.038349457 -0.020598285 -0.059120215 -0.008849578
-0.0805589 -0.05819202 -0.00237833 -0.12757792 0.025669856 -0.010901446 0.05107526 -0.035737354
0.015783517 -0.050844643 -0.020654129 -0.04495446 -0.018901868 -0.038524117 0.018382354 -0.018319014
-0.010925715 -0.070585996 -0.047591586 -0.098550744 -0.10431484 -0.051598966 -0.06792892 -0.06839446
0.018791204 -0.011520938 0.06814319 -0.060691856 -0.025437057 -0.038799018 0.003412696 -0.077159055
0.04166813 0.05968318 -0.055815358 -0.049295276 -0.025613528 -0.034047257 -0.07202837 0.13137874
0.07731651 -0.009908195 -0.040659294 -0.02083282 -0.0032237254 0.02919662 -0.06289601 0.10090106

sequential/conv2d/Conv2D f4 [32, 3, 3, 1]
00000000: 1cc2 dd3d f213 51bd 043a 7bbe 1af2 9c3e
00000010: 74eb f1bd 695e afbe e4a3 b83e 7b68 4d3d
00000020: b859 6abd 1f8b a1be 7e89 293e 7ffb 2bbe
00000030: 31b2 44be d653 d73d 7c22 c8bb 9ed6 ba3d
00000040: 7df7 853e dae6 88be 021e 16be 29dc 6f3d
00000050: 45bb a9bd 484d 6d3e e7c2 793e 550a 2dbe
00000060: 0699 4e3e 135d 3abd 09fa 98be d8ee 693d
00000070: 68c8 9b3e b036 cc3e ae3f 80be 6828 48be
00000080: a1bc b93d 3c30 63bd 2695 9cbe 9423 c9bd
00000090: f573 1c3e f089 743c c887 9bbe 1638 aabd
000000a0: 2fde 19bd d45c 85be e32f 353e 75c0 6b3e
000000b0: 54ff 053e 9d1d 3b3d cf91 d5bc 1dcb dbbd
000000c0: 3722 7bbb eaf6 a53d 6028 153e 8cd9 e0bd
000000d0: fce6 97bd c826 323c dfbf 643e 974f c83c
000000e0: 67da bbbe 9a4d 723e 3f44 5fbe 3357 8fbe
000000f0: d655 2ebe b60d e1be d769 50bd b2af 613e
00000100: 271b e83d f28d 693e 4633 623e 61c7 123d
00000110: fb94 36be 6265 a3bd d574 98be 56ec 8abe
00000120: 4f19 51bd 8ae7 2ebd 4437 a83c bb2d 9d3d
00000130: f683 0fbd f8bf 0f3d e624 403d ca0b e63d
00000140: a7e9 113c 255a b83d 92c8 0bbe f49d 72be
00000150: 7938 583e 609f 10bd 3d67 92be f68e b23d
00000160: cba9 23bd f1b9 83be 9cba 3cbe 2002 493e
00000170: 56dd 773e 18de 593d 2a3b 253c b0b5 f73d
00000180: 6aed 0dbe d1bc 94be d5ef 12be 58b4 dcbc
00000190: 54bb 52be 7de0 35be 13d7 0f3e 4ab5 3c3e
000001a0: 1e48 ad3d 257a aabd 9e4e 573d 2a37 94bd
000001b0: dd78 bdbd 7670 063e 6d47 dfbd f561 10be
000001c0: 46e6 1d3e 11bd 08be cdd1 76be 8eca 5f3e
000001d0: 9a17 873d 8e91 b3bd 6827 dc3d aa2a a93e
000001e0: 6aaf b5be 5898 5cbe 6e30 4fbc 8549 16be
000001f0: 2d15 dfbe f899 55be 5074 62be f54b 663e
00000200: 761e 133e c5e1 b4be 8612 113d 97b6 443e
00000210: 98bf 4cbe f3b9 633e 43a2 96bd 3230 e33d
00000220: e0a8 49be 49a6 a3be 1568 85bd daa0 1ebe
00000230: 861f 6abd ecd9 f03d 113e 953e e9d7 6a3e
00000240: 6a31 a73d 2dbd 9c3d 5ec9 8a3d 41a6 17be
00000250: 4b04 8e3d 2734 8dbd 431e b63d 109b b53a
00000260: ac25 7c3c 8b3a 9f3d f6c7 c6bd 8850 6e3d
00000270: 49bd 1fbe 774a ecbd 10f7 ed3d 0636 1fbe
00000280: 6f7a 503d f843 f33d 5036 03bb 8a6c a73c
00000290: c9d1 c13d 41d5 9e3d 75ad fc3d faf3 083c
000002a0: 8a27 a23d 7135 713d 8f84 0e3e ec22 35be
000002b0: 62c7 ddbd e388 533e c188 8dbe 7ddf 723d
000002c0: f078 453e 4018 18be 86e6 2c3e e950 a03d
000002d0: 6aa8 cabc 2dcb 913b d032 25bd f585 d63d
000002e0: b423 e93d a4fc 7c3d a7ce 79bd 3f7e 29bd
000002f0: 5b3f 38bd ac13 443d 866e df3d 4a86 893d
00000300: 0fe0 dc3d a68c 313d 225a 043e a9e2 dfbd
00000310: 370a 2fbd cab5 5a3d 1327 8ebe f981 91be
00000320: d6e2 38bd 9908 85be 5a79 75bd fbe0 e9bc
00000330: 5ce5 b33c da62 5a3e 44bf 503e 58a2 673e
00000340: d334 503e fb45 6ebe cffe 913d f644 02bf
00000350: ede1 28bd 8adb 4fbe 03b2 8a3d 2413 b83e
00000360: 436d 64be bb69 a2be c11e 3abe 6451 4d3c
00000370: 921d b7bc 6d03 543d 5859 5e3e ab57 9e3e
00000380: cedd c13d ca95 d03d 93a0 87be b403 2b3e
00000390: 2a57 53be 997f 06bd 369e 193e 8534 73be
000003a0: 19c4 98bd e429 b93e 8884 a13e 7552 643e
000003b0: d9dd cabd 7db2 393e e93a a93d eb38 aebe
000003c0: 09d9 ac3d 71ee a4be fad3 44be aa29 de3d
000003d0: f1b1 a73c 1274 c13d 3631 63be d257 1cbd
000003e0: 778f ac3e c627 a7be fd9d 0ebe 5958 313e
000003f0: d539 1bbe 3de6 0bbc 6155 2f3e ac6b 84be
0.10828039 -0.051044412 -0.2453385 0.3065346 -0.11812487 -0.34251717 0.3606254 0.05014847
-0.05721447 -0.31551453 0.16556355 -0.16795157 -0.192086 0.10514037 -0.0061076265 0.09122966
0.2616538 -0.26738626 -0.14659885 0.05855957 -0.08287672 0.23174012 0.24390756 -0.16898473
0.20175561 -0.04549892 -0.29878262 0.057112545 0.30426335 0.39885473 -0.25048584 -0.19546664
0.09069181 -0.05546592 -0.3058254 -0.09821239 0.15278609 0.014925465 -0.3037703 -0.08311479
-0.037565406 -0.26047385 0.17694049 0.23022635 0.13085681 0.04568254 -0.026070504 -0.107321
-0.0038319954 0.08103736 0.14566183 -0.10978994 -0.07417104 0.010873504 0.22338818 0.024452014
-0.36690065 0.23662415 -0.21803378 -0.27996215 -0.17024931 -0.43955773 -0.050882187 0.22039679
0.11333304 0.22808054 0.22089872 0.035834674 -0.17830269 -0.079783216 -0.29776636 -0.27133435
-0.051049527 -0.04270128 0.020534165 0.07674738 -0.035037957 0.035095185 0.04691019 0.11232717
0.008905805 0.09001569 -0.1365073 -0.23693067 0.21115293 -0.03530824 -0.2859439 0.08718674
-0.03995685 -0.257278 -0.18430561 0.19629717 0.24205527 0.05319032 0.010084907 0.12095201
-0.13860098 -0.29050305 -0.14349301 -0.026941463 -0.20579273 -0.17761417 0.14046888 0.18428531
0.08461021 -0.083240785 0.05256521 -0.07237084 -0.092515685 0.13128838 -0.10902295 -0.14099868
0.15419874 -0.13353373 -0.2410347 0.21854612 0.065962985 -0.08767997 0.10749704 0.33040363
-0.35485393 -0.2154249 -0.012645824 -0.14676483 -0.43570843 -0.20859516 -0.22114682 0.22489913
0.14367089 -0.35328498 0.035418056 0.19210277 -0.19994962 0.22238903 -0.07355168 0.11093177
-0.19693327 -0.31962803 -0.06513993 -0.15491048 -0.05715897 0.11760315 0.29148915 0.22933926
0.08163722 0.0765327 0.06776689 -0.14809515 0.069344126 -0.06894713 0.08892491 0.0013855416
0.015389841 0.07774838 -0.09706108 0.05818227 -0.1559955 -0.115376405 0.11619389 -0.15547952
0.05089801 0.118781984 -0.0020021386 0.020437498 0.094638415 0.07755519 0.12337772 0.00835895
0.07917698 0.058888856 0.13917755 -0.17689103 -0.10829045 0.20657687 -0.27643397 0.059295166
0.19284415 -0.14853 0.16884813 0.078279324 -0.02473851 0.0044492693 -0.04033166 0.10474769
0.11383763 0.061764374 -0.060988095 -0.041380163 -0.044982295 0.047870323 0.109097525 0.06715067
0.10784923 0.043347023 0.12925008 -0.10931904 -0.04273435 0.053396024 -0.27764186 -0.28419474
-0.045138203 -0.25983122 -0.059930183 -0.028549662 0.021959953 0.21326771 0.20385462 0.22620523
0.20332651 -0.23268883 0.07128679 -0.50886476 -0.041231085 -0.20298591 0.06772234 0.35952103
-0.22307305 -0.3172129 -0.18175794 0.012531612 -0.022352967 0.05176108 0.2171377 0.3092626
0.09466134 0.1018482 -0.26489696 0.16700631 -0.20638719 -0.03283653 0.15001759 -0.23750503
-0.07459278 0.36164773 0.31546426 0.2229708 -0.09905595 0.18134494 0.08263189 -0.340278
0.08439834 -0.32213166 -0.19221488 0.108477905 0.020470591 0.09445967 -0.22186741 -0.03816969
0.33703205 -0.32647532 -0.13927455 0.17318858 -0.1515878 -0.00853878 0.17122413 -0.25863397

sequential/conv2d_1/Conv2D f4 [64, 3, 3, 32]
00000000: 8a48 a0bc aed3 ed3d eab5 80be 7541 b9be
00000010: 1d43 313c 91b5 363d 19c8 6bbe c0ec 66be
00000020: 1b89 843d 47d1 19be 04f2 3abe 4cb5 6d3d
00000030: 96b2 343d 5eb2 cabe 2e38 0d39 8441 123e
00000040: e10a 80bc f8a2 babc 6d50 af3c 5590 2d3b
00000050: 8150 b5bc f2c0 b7bd 557c d13d 5c3d 47be
00000060: 4912 063e 8be7 b53b 9861 debe 60db 72bd
00000070: 44ae b63d c882 f6ba f8c2 123e 5708 08bd
00000080: e96f b1bd e512 ae3c 0f40 85bd 9511 4ebe
00000090: d73a 2bbd 685f 83bd 96c6 41be 7cf0 21be
000000a0: 3f9e c63d 3a65 63be c517 843a 11c4 b83d
000000b0: 06d9 dc3b 89f3 7bbe 9540 e13d b1c6 0b3d
000000c0: 2817 453d 0543 e63d 7114 da3c b342 5c3c
000000d0: 0b8c fb3a 6c49 27bd 4991 f8bc 8ff4 47be
000000e0: 67e4 c2bb ef55 a23c 7de5 9ebd 5671 58bc
000000f0: 0aa0 e03c 7f4b 943d 969c d23d 569f cbbc
00000100: 6e6b 9f3c 67ad ad3d fecd 3e3d dc4d 34be
00000110: 6e77 f8bd bc1a 7f3d 96ca 1bbe a6e3 87bc
00000120: 41e5 123d 202d 03be 1ce2 9b3d 2bbd 00bc
00000130: 9de7 253d 6820 6cbe c17e 243d 48a9 93bd
00000140: 90fb fb3d 04b8 c03d f279 283e 8bd6 b3bd
00000150: 385c 0dbd c054 93bc 4ecb e03c 8d63 08be
00000160: 7f44 003d 1788 ddbd 4b0d 033d 7a82 bdbd
00000170: cb50 04be d16b c43d b4f4 853b f298 1dbe
00000180: 454d f3bd 6cd4 d2bb 9a1a 7d3b cb41 95bd
00000190: 86d8 90be a6a9 b73d 395f 1bbe 1df5 423c
000001a0: d0f7 0c3e 3019 68be 0ca6 9abd 9810 bf3d
000001b0: 6e9d e03d 4ca0 66be 4f22 873d 9546 d839
000001c0: 64c0 b93c bb25 af3d ae5f 9b3b 1a24 55bd
000001d0: 15ad 9c3d 365a 003e fcd6 863c a457 3dbe
000001e0: 88e7 8d3c 6efb 65be 5b64 e63d 341c acbd
000001f0: c291 413d 57fe 06bc 7680 2c3d c3c5 d7bd
00000200: 9e31 c8bd 0925 f3bc ad10 cbba 8783 08bd
00000210: 4a6c 1bbe 8f01 873d 46e0 df3c a75f 233d
00000220: 5c42 9cbb e42c 16be 8de9 893d b5d6 39bc
00000230: ea8c de3a 29f6 74be 556c 5a3c b0a6 7ebc
00000240: e289 273d 57b0 193c 3c6a 1a3d 9a9a 13be
00000250: 4f66 c73d 8f26 903d cc84 eabd f5d6 973d
00000260: ad8e 75bc 0bd9 02bf c04f 0a3d 7e43 25be
00000270: c81d 76be 96f9 06be 79cd 363d 3dd2 cebe
00000280: b2b5 91bd eda7 4f3d 62c3 5f3c 8031 3cbd
00000290: 2ddd 85be a941 3d3d ea9d 8f3b 4e50 963d
000002a0: a49d 2c3d f139 bfbd 8e90 ab3d 7a4a 1c3d
000002b0: 838a 84bd a78d 59be 906f 77be 1055 43be
000002c0: c7bb 643b ab3c 74bd 1f8a 533d d8aa 78be
000002d0: d60b 4cbc 9843 0f3e ea9c 9bbe 82b9 ebbd
000002e0: 508a fe3c 7847 e0be 4a1d fe3d 1489 c3bd
000002f0: 4752 a7be ce5d 65bd 1664 763c d042 80be
00000300: 4338 e73d 9bce b93b 90bb e33d bc03 1dbd
00000310: 87ad de3c 6553 fa3b c960 083c 7028 ae3d
00000320: 1821 d13d cec1 edba c0b4 743d 7708 dc3c
00000330: 3875 d93d bcf9 d43c 1e41 8b3d a9a0 fbbd
00000340: 82e6 e73d 9b41 52bd dfd3 f13d a489 0cbe
00000350: f697 51bd f762 dc3d f921 a0bd f12a 76be
00000360: 7eda b1be f1f6 2abe 2ca3 103e 0d7c 98bd
00000370: 0f7b 11be 04c0 e33d 9cae eebd 8268 543e
00000380: 57dd 0c3d 92c6 a8bd 0b51 043d a45c 3c3e
00000390: 536b 21be e28e 18bd 07b0 f8bc a785 813d
000003a0: 74ce b8bd 7e49 683d 3097 0b3e d5f9 84bd
000003b0: 30f8 7ebe a760 153e 5034 89be fcd4 6dbe
000003c0: 5bef ba3d 3908 01be d8a1 9abd 6dde 45bf
000003d0: b8b0 11bd 0798 e53c 1fcc c7be e2ca 80bd
000003e0: b891 65be 799d 22bf 8d8a 0e3d 17e5 f1bd
000003f0: 75f4 13bf bfcf 2fbd 549c 3a3d c06b d2bc
-0.01956584 0.1161264 -0.2513879 -0.36182752 0.010819224 0.04460675 -0.2302555 -0.2255125
0.06471463 -0.15021239 -0.18256384 0.058034226 0.044115625 -0.39589208 0.00013467736 0.14282805
-0.015630187 -0.022782788 0.021400655 0.0026483734 -0.022133114 -0.08972348 0.102287926 -0.19457
0.13092913 0.0055512837 -0.43433833 -0.059291244 0.08919957 -0.0018807286 0.14332187 -0.03321108
-0.08663923 0.021249244 -0.06506359 -0.20123895 -0.04180416 -0.06414682 -0.18923411 -0.15814394
0.09698152 -0.22206584 0.0010077885 0.09021772 0.0067397384 -0.2460462 0.10998646 0.034125034
0.048117787 0.11243252 0.026621075 0.013443637 0.0019191516 -0.040841505 -0.030342715 -0.19526885
-0.005947638 0.019816367 -0.07758615 -0.013210615 0.027420063 0.07240962 0.10283773 -0.02485625
0.019460406 0.084803395 0.04658317 -0.17607826 -0.121321544 0.062281355 -0.15213999 -0.016588043
0.035863165 -0.12810183 0.07611486 -0.007857601 0.040504087 -0.23059237 0.040159944 -0.07210022
0.12303841 0.09410098 0.16452768 -0.08781155 -0.034511775 -0.017984748 0.027440693 -0.13319226
0.031315323 -0.10816973 0.0319951 -0.09253402 -0.12921445 0.09590877 0.004088009 -0.15390375
-0.11879972 -0.006434014 0.0038620592 -0.0728794 -0.28290194 0.08967905 -0.15173043 0.01189926
0.13766408 -0.22665858 -0.07551202 0.09329337 0.10967527 -0.22522086 0.06598341 0.00041251318
0.022674747 0.085521184 0.0047416305 -0.052036382 0.076502 0.12534413 0.016459934 -0.18490463
0.017322317 -0.22459194 0.1124961 -0.08403817 0.047258146 -0.00823935 0.042114697 -0.10535767
-0.09775089 -0.029680746 -0.0015492641 -0.03332856 -0.15178028 0.06592094 0.027328622 0.039886143
-0.004768653 -0.14665562 0.067339994 -0.011342694 0.0016979252 -0.23922028 0.013331492 -0.015542671
0.04090298 0.009380422 0.03769897 -0.14414445 0.09736311 0.070386045 -0.1145111 0.07414047
-0.01498763 -0.5111243 0.03376746 -0.16139027 -0.24034798 -0.13181147 0.044629548 -0.40394774
-0.07114734 0.050697256 0.013657423 -0.045945644 -0.26145306 0.046205197 0.0043828385 0.07339536
0.042142525 -0.09337223 0.08377181 0.038156964 -0.064717315 -0.21245442 -0.24163651 -0.19075418
0.0034901963 -0.05962817 0.051645394 -0.24283922 -0.012453994 0.13990629 -0.30393153 -0.11509992
0.031071812 -0.43804526 0.1240793 -0.0954763 -0.3267996 -0.055997662 0.015038511 -0.25050974
0.11290028 0.0056703812 0.11119759 -0.03833364 0.027182354 0.007639336 0.008323857 0.085038066
0.1021139 -0.0018139423 0.05974269 0.026859505 0.10618061 0.025997989 0.067995295 -0.12286503
0.11323263 -0.051332098 0.11807989 -0.1372438 -0.051170312 0.107610635 -0.0781898 -0.24039818
-0.3473701 -0.16695763 0.14124745 -0.07445536 -0.142071 0.111206084 -0.11654398 0.20742992
0.034390774 -0.08240999 0.03230385 0.18394715 -0.15763597 -0.03724564 -0.030357374 0.0632432
-0.09023753 0.056710713 0.13631892 -0.06492964 -0.24899364 0.14587651 -0.26797724 -0.23225778
0.09127685 -0.12600793 -0.075504005 -0.7729252 -0.035568923 0.028026594 -0.3902292 -0.06288697
-0.22418869 -0.63521534 0.0348001 -0.118112735 -0.57794887 -0.04292273 0.045559242 -0.025686145

sequential/conv2d_2/Conv2D f4 [128, 3, 3, 64]
00000000: 12ca f23c 0195 44bd 0abb 5b3d 57a2 ce3d
00000010: eaad e53d 516e e33c d721 a5bd 11ea 3e3d
00000020: 9b34 fdbd 2dc1 44bd 611d c7bd ce5e 4ebe
00000030: 44ac d4ba ea11 b0bc fb8c db3c 52ac 05bd
00000040: aad4 96bd bd9c 8cbd 1890 953c af09 013d
00000050: b3e4 5abd a855 dcbc 7ec9 03bc 460e 963d
00000060: 62a9 9e3c 898b 9ebc 5f9f ec3d 535f adbd
00000070: 59d2 f13c 1d11 6bbd 0b8f 8f3d f134 363d
00000080: 998b fcbd 8a97 5b3d 4b91 81be 8e92 c3bd
00000090: ef16 72bd 38a8 b23c 6aee 22bd 6736 853d
000000a0: 12e1 a1bc 628e e23b 24e8 00bd 9560 12bd
000000b0: 4985 f03d e860 0bbe 76e8 0f3e 5689 c73a
000000c0: df05 4e3e 99c8 6b3d 5882 60bd 2317 5fbe
000000d0: f895 eb3d d39d 74bc 7f4d a93d b03b 7d3d
000000e0: 6d7b 8d3d e45f d63d f5a0 0d3d e6dd 1d3d
000000f0: 41a1 e73d cc19 6ebe a1a6 fabd 898a d8bc
00000100: e667 563d fa5a 153e 4aff 6b39 24ce 943e
00000110: 888c b03d 127f e23d 9087 c2bd 13df 523e
00000120: 61d3 573d ddb2 173e 107e 4b3b d38c 8f3c
00000130: 542c 5a3c dc42 9f3d fd0e 9abd 701e 3dbb
00000140: be91 983d 7637 b73d 8170 973d 18e7 10be
00000150: 3699 18be 7c49 2bbe caab 4ebd 1897 11bc
00000160: 654a 1a3e 86a9 d2bc d940 8ebd 0175 5cbd
00000170: 29d4 7cbd 7a9d 11bd ce5f 04bb 1e66 84be
00000180: 1608 62bc eded abbc 8a67 88bd e8e3 06be
00000190: 2d7f 70bd 3db7 4e3e c399 5bbb 2b53 e43b
000001a0: 478f 33bd 3e08 373e 1780 263d 35fa 323d
000001b0: a389 24be 8817 94bd 032f b8bd 6ac4 afbc
000001c0: e94e 403d a288 d53c 14d7 14be 973d 39bc
000001d0: 5111 9e3d d206 3cbd 981a f5bb 7276 5c3e
000001e0: 5106 293c eef4 b53d 2b3f 35be 2245 2bbe
000001f0: 5296 5c3d 04ff 06be f00e a83d 2ffd 2bbd
00000200: b05c bfbc 24e4 88bd 6354 dd3d 86bd 783e
00000210: 9dfa 163d 03d3 6ebb 1e13 f8bd f847 573d
00000220: 8751 13bd 1e7f f23c 507a 79bd 2082 d63d
00000230: 7167 bd3d 6dec d3bc 187a cebe f741 5dbd
00000240: c66f 11be 9c76 f8bc af96 2fbd 70e9 223e
00000250: 2ee2 a13d dbd1 263d 23a3 7ebe c4d8 02bc
00000260: dde2 133e 3d9e 67bd 7256 69bd 6e4e 8dbd
00000270: 552c b4bd 4469 57bd 006c 14be 0da6 203a
00000280: a609 d93d ad49 8c3d 3e2e 433e db05 b03b
00000290: d628 d0bd 56f6 40bd 340d 053e 7f0c e9bd
000002a0: c3a7 8bbc 83cc be3d 76e9 73bc aec3 313d
000002b0: e134 223e 50a4 a1bd 8c55 87bd a46b 023e
000002c0: 9e5e 263e ed07 df3d 576a 553d 9449 fd3d
000002d0: 09ad 1abe fd38 0b3d 5db2 fe3d 1c7d 153d
000002e0: 6695 c9bd 59c6 4a3b 7f30 7fbe d562 a6bb
000002f0: f6cc dc3d 4e00 8b3d 200b 0c3e add4 5e3d
00000300: 2c27 b93c d8a3 843d e6fe aebc 0d38 793d
00000310: e09c 553d 2e06 973d 4fd4 d6bd 5a56 d93d
00000320: 7ec8 e5bb 09a1 39bc 2c0f ffbc a91a c93d
00000330: bd0f cabd 9fff cdbd 2f2b 343b 52d8 1c3e
00000340: 7c09 323c 2f39 f33b 8dcf 7fbd ec0d 0d3d
00000350: 9ed7 18bd 4e42 dcbc 7e4c 75bc cec1 88bc
00000360: b111 5bbb b9dc 6c3d b56b c63d b821 963d
00000370: 64a6 fdbd 4296 f0bc 04c9 7dbd 3f56 cebb
00000380: 38cd 2abe 3e3c be3d 4190 4f3d 5e9f 42bd
00000390: f8e8 1fbd 25aa 033e e3af 063e dfaf 48bd
000003a0: 3199 7cbd 89b2 853d 990b 44be ab8d 90bd
000003b0: fff8 9abd 213d 17bc 7738 85bc 7b2a 0d3e
000003c0: 451b 863d 589d 8b3d 0d8e 26be bee1 2cbd
000003d0: 4c7e 293e 8cec 31bd 0c35 293e c663 f9bc
000003e0: 8bfc 9bba a95b 363e 1339 363d 1d58 7cbd
000003f0: 2a4b a83d 4db6 86bc a239 c1bd 74a8 cc3c
0.02963737 -0.047993664 0.05364517 0.100895576 0.11214812 0.027762564 -0.08063095 0.046609942
-0.12363549 -0.04803579 -0.097224005 -0.20153353 -0.0016225656 -0.021492917 0.026800623 -0.03263504
-0.07364781 -0.06865833 0.018257186 0.031503376 -0.05344076 -0.026896313 -0.008043645 0.07326941
0.019367877 -0.019353645 0.11553835 -0.08465447 0.029519247 -0.057389367 0.07009705 0.044484083
-0.12331314 0.053611316 -0.25306162 -0.095494375 -0.059103902 0.021808729 -0.03977815 0.06504517
-0.019760642 0.006913946 -0.031471387 -0.03573664 0.11744172 -0.13611186 0.1405352 0.0015223424
0.20119427 0.05756435 -0.054811805 -0.2178617 0.11503214 -0.014930206 0.08266734 0.0618245
0.06908307 0.104675084 0.03457733 0.038541697 0.113100536 -0.23252028 -0.12238813 -0.026433246
0.05234518 0.14585486 0.00022506449 0.29063523 0.08620554 0.11059393 -0.09498513 0.20592909
0.05269182 0.14814325 0.003105048 0.017523205 0.013316233 0.07776424 -0.0752239 -0.0028857253
0.07449673 0.08946125 0.07394505 -0.14150655 -0.14902195 -0.16727251 -0.0504568 -0.008886121
0.15067442 -0.0257156 -0.069459625 -0.05382252 -0.06172577 -0.035550572 -0.0020198706 -0.2585916
-0.013795873 -0.020987475 -0.066603735 -0.13172877 -0.058715034 0.20187087 -0.0033508397 0.006967922
-0.04383781 0.17874238 0.0406495 0.043695647 -0.16068129 -0.07231051 -0.08993342 -0.021455962
0.046950255 0.026066128 -0.14535171 -0.011306188 0.077181466 -0.04590494 -0.007479977 0.21529558
0.010316447 0.08884607 -0.17699878 -0.16725591 0.053854294 -0.13183218 0.08205974 -0.0419895
-0.023359627 -0.06684139 0.10807111 0.24291047 0.036860097 -0.003644169 -0.12113021 0.05255887
-0.035966422 0.02960163 -0.060907662 0.10474038 0.092482455 -0.025869573 -0.40327525 -0.054017987
-0.14202794 -0.030329995 -0.042868312 0.15909362 0.079044685 0.040727478 -0.24866919 -0.007986251
0.1444201 -0.056547392 -0.056967206 -0.06899725 -0.08797518 -0.052590623 -0.14494324 0.0006128259
0.105975434 0.0684999 0.19060609 0.005371792 -0.10164039 -0.047109924 0.12993318 -0.113793366
-0.017047768 0.09316351 -0.014887204 0.043399505 0.15840484 -0.07892668 -0.06608114 0.12736374
0.16247031 0.108901836 0.052103367 0.123675495 -0.1510507 0.033989895 0.12436364 0.036496267
-0.098429486 0.0030940978 -0.24920844 -0.0050776997 0.10781281 0.067871675 0.13676119 0.054402042
0.022601686 0.06476563 -0.02136178 0.06084447 0.05215156 0.073742256 -0.104897134 0.106121734
-0.007012426 -0.011329898 -0.031135164 0.09819538 -0.09866283 -0.100585215 0.002749156 0.15316895
0.010866519 0.0074225883 -0.062453795 0.034437105 -0.037315004 -0.026887085 -0.01497185 -0.016693976
-0.0033427293 0.057827685 0.09688512 0.0733065 -0.12385252 -0.029368524 -0.06195928 -0.0062969024
-0.16679847 0.09288834 0.05067468 -0.047515266 -0.039040536 0.12857874 0.13153033 -0.04899585
-0.061669532 0.065281935 -0.19145049 -0.07058271 -0.075670235 -0.009230883 -0.016262276 0.13785736
0.0654817 0.0681712 -0.16265126 -0.042207472 0.16552085 -0.04343848 0.16524142 -0.030443083
-0.0011900825 0.17808403 0.044488024 -0.06160747 0.082174614 -0.01644435 -0.09434821 0.024982668

sequential/dense/BiasAdd/ReadVariableOp f4 [128]
00000000: f32a ecbc 2241 b6bd eab7 ae3c 6503 9b3d
00000010: 25c1 e1ba 9445 86bd fe14 66bd 26b8 4dbd
00000020: 6f61 70bd 3b39 27bd e8c4 80bc 23da 853b
00000030: e6cb 823d cfe4 55bd df2a 533c 471e 6c3c
00000040: e90f 15bd b7e7 06bd 488d 1f3c eb86 8dbc
00000050: 1bb4 39bd f443 d53c 0d7f bdbd e8c4 14bd
00000060: 2058 cf3c 5c8f d63c 0c86 cf3c 01e5 32bd
00000070: ec94 b9bc 8dd1 42bc 732e 14bc fc32 07bd
00000080: d5e3 20bd 4dd8 30bd 0214 a2bd 1390 93bd
00000090: 83c8 15bd 1f0b 403c b351 a5bc af31 063d
000000a0: 5e8b 7cbd 5381 9cbd 7271 22bc 12b0 803d
000000b0: 862b f6bc f24e 003d b7b8 bb3b 87e2 f73c
000000c0: 0932 2ebc 0d9d 6e3d e0cf 703b e7f4 023a
000000d0: 9d7f 9fbb dd1b 313d 5083 83bd ac97 81bc
000000e0: 4be7 67bd 9730 51bd 95c7 72bd 66c6 083d
000000f0: feed 69bd 158a 86bc a8be a5bc 6d4b 5bbd
00000100: 6015 80bd ba68 20bc ce1a b6bb d5c4 34bd
00000110: cdb4 243d 92f0 78bd bace 19bc 954e c53b
00000120: b212 8fbc 4edb 1c3d d23b 2d3c 8f8c b7bb
00000130: b182 8cbc 265d 513c 81f1 74bc fa4c e1bd
00000140: 0b6f 2d3d 4252 a8bd e157 073c 2e77 7fbc
00000150: e1a1 85bc b897 333b 3846 c13c 22af e13c
00000160: ae23 59bd b2d5 913c d257 e5b9 0df8 183d
00000170: 551c 39bb 019d 74ba 6221 593c 3408 303d
00000180: 8428 33bd a818 0c3c 8602 49bd 206d 453c
00000190: a474 223c 4698 b33d cb95 043b c6d5 6dbd
000001a0: c05b 6cbd 4cbd 8b3d 6627 b93c c53e d2bc
000001b0: d49d 4dbd 3f5b 073d c731 00be e24f 38bd
000001c0: 100c 8e3b d882 7fbd 490f 91b9 9669 8d3d
000001d0: e9ed 883d c6b1 813d 44e8 573b 58d9 343c
000001e0: 98d0 a03d 2f80 593c 13f5 37bd e948 6cbd
000001f0: 3692 46bd 2794 24bd 8fc9 41bd baab 78bc
-0.028829074 -0.08899142 0.021327931 0.07569007 -0.0017223699 -0.0655624 -0.056172363 -0.050224446
-0.05868667 -0.040826064 -0.015718892 0.004084842 0.06386547 -0.052220162 0.012888639 0.014411516
-0.036392126 -0.032935824 0.009738274 -0.017276248 -0.045337778 0.02603338 -0.09252749 -0.036320597
0.025310576 0.026191406 0.025332473 -0.043675426 -0.02265402 -0.011890781 -0.0090442775 -0.033007607
-0.039279778 -0.04317503 -0.079139724 -0.07205214 -0.036568176 0.0117214015 -0.020180559 0.032762226
-0.06165635 -0.07641854 -0.009914743 0.06283583 -0.03005005 0.031325288 0.005728807 0.030259384
-0.0106320465 0.058255244 0.0036744997 0.00049956 -0.0048675076 0.043239463 -0.0642153 -0.015819393
-0.056617063 -0.05107173 -0.059272368 0.033392332 -0.057111733 -0.016423265 -0.020232514 -0.05353873
-0.06254077 -0.009790594 -0.0055573946 -0.044133026 0.040211488 -0.0607763 -0.009387666 0.0060213306
-0.01746497 0.038295083 0.010573344 -0.0056014727 -0.017152162 0.012778556 -0.014950157 -0.1100101
0.042342227 -0.082188144 0.008260698 -0.0155923795 -0.016312541 0.0027403664 0.023593053 0.02754933
-0.053012542 0.017802093 -0.00043743715 0.037345935 -0.0028245647 -0.0009331257 0.013252588 0.042976573
-0.04373981 0.0085508 -0.049074672 0.012049943 0.009915505 0.08769278 0.0020230885 -0.0580652
-0.057704687 0.06823215 0.022601794 -0.025664696 -0.050199345 0.033046003 -0.12518989 -0.044998057
0.004334934 -0.06238064 -0.00027667944 0.069049045 0.06686003 0.06332736 0.0032944838 0.011038147
0.07852286 0.01327519 -0.044911455 -0.05768672 -0.04847928 -0.04018035 -0.047311362 -0.015177662

sequential/dense_1/BiasAdd/ReadVariableOp f4 [26]
00000000: c683 383e 56a4 843d 3170 0f3d 5731 2abe
00000010: c04b f73d a6d0 bf3d 6423 ebbd 9cce a23d
00000020: 0290 853d f743 43bd da0d 12be b21c 353d
00000030: 6bed 67be 3913 503e 5dbb 9c3d 1d16 f4bc
00000040: 8d92 5d3d da10 94be 664f da3d efe3 bcbc
00000050: db1b 5e3e bca9 15bd b0d0 cebe c3e6 1d3e
00000060: ba2f 2fbe 75df 6b3c
0.18019018 0.06476657 0.035019103 -0.16620384 0.12074995 0.093659684 -0.114813596 0.07949564
0.06521608 -0.04767224 -0.14263096 0.04421682 -0.22649162 0.20319833 0.07652924 -0.0297957
0.05409484 -0.28919107 0.10659675 -0.023057906 0.21690314 -0.036538824 -0.4039359 0.1542006
-0.1710805 0.014396538

sequential/dense/MatMul f4 [128, 1152]
00000000: b2d0 39bd c3d0 f13c 426b f23c 5d7b 92bd
00000010: b10b 74ba ae03 3f3d f694 cd3d 4459 603e
00000020: f4a1 c5bd 1fdf eabc 47aa 1abc 4cb8 84be
00000030: 29eb 89bc cb0a 09bd 4383 9b3e 287f 35bd
00000040: cc2a 0ebe 7267 273d 3cab 11be b9a5 43bd
00000050: 1be9 5abd 1d81 313d e232 8abd 7046 9c3c
00000060: 1d75 6c3b ab68 993d e96a 22bc e4d3 493d
00000070: ba08 4a3e 9dff 383d b2b1 fe3c bfe0 423d
00000080: 2f53 f53c fdeb 5e3d 6815 f93c 8164 dabc
00000090: 1029 ea3c c968 fb3d 4145 3fbd 6e1f e73c
000000a0: c70e 373c f986 1bbd f8aa 183e 9aae 8ebd
000000b0: 1bdc 83bd e2c0 223d 52ce 4d3d d568 6abd
000000c0: 6001 00bb 0fcf 013c 79da 23bc 3394 00bb
000000d0: 4e64 463e 9c2a efbc b183 cebc bfee 033c
000000e0: 6653 143c 997a 26bd 6356 1ebd e3c9 d43c
000000f0: 866c a8bc 0439 283c 5100 97bd f7cf 4ebd
00000100: ec79 47bd f682 cbbc 7982 983d 0a4a fa3c
00000110: ebe4 383e ee21 f2bc 03a3 323d 3717 b0bd
00000120: c746 2fbe 7093 143e ddf6 1a3e 3539 91bd
00000130: 6c17 99be 3f5a a63c 99dd 09be 4376 603d
00000140: 2d6a 40bd 1a58 b53d 3fc5 69be 453b f43d
00000150: ae4e 81bc c32e c93b e877 03bd 2e85 483d
00000160: b585 593d a6ad 1e3e 2569 5f3e f21f 2b3d
00000170: 787c 443d 0ca2 fdbc ae24 12be 6dd5 7f3d
00000180: 1172 4dbd fc4f ecbb 25a7 c23d 68c2 78bc
00000190: c645 0dbc 2a5f 4f3d d92b 5e3d ef02 89bc
000001a0: 7858 65be 48b7 473e f94e 5a3d 7afa 8a3d
000001b0: d810 b53c a048 fb3c e801 483d 12fe ad3d
000001c0: b84b 21bd 5779 ffbc 03ea 2f3d 1c98 593e
000001d0: 0b70 f33d 271f 6fbd 0617 353b cda9 103e
000001e0: 359f 03be aeb3 3b3d 4fe4 9a3d 9b7c a73c
000001f0: ff75 47bb 6915 94bd 5ad7 b73d b24c 853d
00000200: 0bb5 683e bff9 b8bd 2e53 9dbd 5200 473d
00000210: 70a4 1a3e 362b 8dbc 4f4c 453c d0aa d63d
00000220: 5d35 b4bc caee 9d3d 5f15 823d 2ace 63bc
00000230: a36e 3e3d 2183 fcbd 2dea c0bc a022 a1bd
00000240: a63e 803d 6211 47bc cb74 3cbd cb8e 23be
00000250: f1e1 05be 66be ddbd 7edf bebc 3092 433d
00000260: 1da7 7ebc f0cc 0bbe f01c 503d 4bae bc3d
00000270: 3e44 653e 97a4 e93b a070 34bb c3fe d4b9
00000280: eaef d33d e852 05bc 7f2d 9b3d fcb8 963d
00000290: c5c4 f9bc 11ea 9f3d d356 b4bd f75e 953c
000002a0: 0052 3bbd b200 acba deb2 babd ab5a f33b
000002b0: c1ed 2cbc ec41 c2bb 21b7 0d3e 06f9 433d
000002c0: 625a 9dbd 6c13 a5bc 1b8b f43d cf24 bf3c
000002d0: 36d2 353c f1dc ef3b 38b1 2ebe fce9 efbd
000002e0: 2026 253d 193d 403e 0bb9 7abb b786 e9bc
000002f0: 398f 843c 49b4 133e 8c3a 14be 116d 15bc
00000300: bfb9 0b3d 318a 973d 8774 b6bc ddb1 373d
00000310: df75 563d 52ba cebb 683b 3dbd df3c 9dbc
00000320: 7a2e eabb d7c4 dc3c 1823 84be 0ebc 4dbe
00000330: 8686 36bd b372 84bd dc20 62bd 6b59 2f3d
00000340: edf2 d6bd 9972 863d 4abd 2cbe c190 873d
00000350: 6f4c 12be 9996 c83c ba0c 4fbd 6802 7c3c
00000360: 43c0 403d 87b2 3d3e 93b0 fb3d 43ea a13d
00000370: fdef 2bbd 4c0f 76bd b30a be3b c67d 3f3d
00000380: 7fac ea3b 4a13 b03d d0e5 b73d 5a20 fd3d
00000390: 322f 3bbc 931d 933d 1606 7d3d a75c 8b3d
000003a0: 60ee fc3b 2566 333c 60b6 e2bc 003d f0bc
000003b0: 1900 053d 58bc 513e bf87 333d f7f0 483c
000003c0: 880e 02bd 5fb3 97be a3f4 94bd 0296 69bd
000003d0: fb58 283e 573e 9b3d 0b63 183d 86a2 3d3e
000003e0: 9eab 8bbd 2bc6 3cbc 7a4d 3dbe f973 113e
000003f0: f2fc 1f3c ce50 53bd 19a5 7b3d 6667 1bbe
-0.045365043 0.02951849 0.02959216 -0.07152436 -0.00093096035 0.04663437 0.10038178 0.21909052
-0.09650031 -0.028670846 -0.009440011 -0.25921857 -0.016835766 -0.03345756 0.30373582 -0.04431072
-0.13883513 0.040870138 -0.14225477 -0.047765467 -0.053444963 0.043336023 -0.067479864 0.019076556
0.0036080547 0.07490667 -0.009913185 0.04927434 0.19729891 0.045165647 0.031090591 0.047577616
0.029946892 0.054424275 0.030405715 -0.026659252 0.028584033 0.122758456 -0.046696905 0.028213229
0.011172957 -0.037970517 0.1490897 -0.06966896 -0.06438466 0.03973473 0.05024559 -0.057228882
-0.001953207 0.007922902 -0.010000818 -0.0019619584 0.193742 -0.029195122 -0.02520928 0.008052527
0.009053087 -0.040644262 -0.038656604 0.025975173 -0.02055956 0.0102675 -0.07373107 -0.0504913
-0.048700258 -0.02484272 0.07446761 0.030552883 0.18056075 -0.029557195 0.04361249 -0.08598178
-0.17116843 0.14509368 0.15133233 -0.070909895 -0.29900682 0.020306705 -0.13463439 0.054800283
-0.046976257 0.08854695 -0.2282915 0.11925367 -0.015784588 0.0061396076 -0.032096773 0.048955135
0.05310603 0.15495929 0.21817453 0.041778512 0.047970265 -0.030961059 -0.14271805 0.062459398
-0.05015761 -0.0072116833 0.095045365 -0.015183069 -0.008622592 0.050627865 0.054241035 -0.016725032
-0.2239703 0.1950351 0.05329797 0.06786056 0.022102758 0.030674279 0.048829943 0.08495726
-0.03937885 -0.031185789 0.04294778 0.21249431 0.11886605 -0.05837932 0.0027632131 0.14127274
-0.12853701 0.045825653 0.07563078 0.020445159 -0.0030435321 -0.07230646 0.08976622 0.06508769
0.22725312 -0.0903201 -0.07681881 0.04858429 0.1510179 -0.017232519 0.012042119 0.10481799
-0.021998102 0.07711561 0.063517325 -0.013904134 0.04649223 -0.12329698 -0.023549164 -0.07867932
0.06261949 -0.0121501405 -0.04600982 -0.1597244 -0.13074471 -0.10827331 -0.023299929 0.047746837
-0.015542773 -0.13652396 0.050808847 0.09212931 0.22389314 0.0071302163 -0.002753295 -0.00040625603
0.10348494 -0.008137442 0.07577037 0.07359502 -0.030489335 0.078083165 -0.08805623 0.01823376
-0.0457325 -0.0013122766 -0.091161475 0.00742658 -0.010554732 -0.0059282687 0.1383939 0.04784491
-0.07683255 -0.020150863 0.11940595 0.023332981 0.0110974815 0.0073200394 -0.17059791 -0.11714551
0.040319562 0.18773307 -0.0038257267 -0.02850662 0.016181575 0.14424242 -0.14475459 -0.009120242
0.03411269 0.07399405 -0.022272361 0.044847358 0.052358504 -0.006308832 -0.046199232 -0.019194065
-0.0071466537 0.02694933 -0.25808024 -0.20091268 -0.044561885 -0.0646719 -0.05520712 0.042809885
-0.10495553 0.065648265 -0.16869083 0.066194065 -0.1428697 0.024485873 -0.050549246 0.015381433
0.047058355 0.18525134 0.12289538 0.0790601 -0.041976918 -0.060073182 0.0057996153 0.046750806
0.0071616764 0.08597429 0.0897938 0.12359686 -0.011424826 0.07183375 0.061773382 0.068047814
0.007718846 0.010949646 -0.027674854 -0.029325962 0.032470796 0.20482004 0.04383063 0.012264482
-0.03175214 -0.29629037 -0.07273223 -0.057027824 0.16440193 0.0758025 0.03720383 0.18519029
-0.06819843 -0.011521856 -0.18486586 0.14204396 0.009764897 -0.051590733 0.061436746 -0.15176162

sequential/dense_1/MatMul f4 [26, 128]
00000000: 7b9d e1bd c5ab f6bd 4e22 81be f657 eb3d
00000010: 6189 0b3d 3877 dfbd aab3 59be 6c72 b7be
00000020: 420c 5dbe 5541 59be 49f3 413e bb1a 473e
00000030: 10ba 053e c6d4 95be 65ad 213e 288b 9cbe
00000040: 1b22 e6bd c3e6 91be 0197 eabe 9269 33be
00000050: 05fb a7bd 7f38 64be 181f 81be f954 3dbe
00000060: 1f0a 333e 94f6 de3d a8d3 703e 90d2 f63d
00000070: 2b0a 9abd b492 d7bd ae99 49be 076c edbd
00000080: 3e50 563e 35f1 21bd 802d 9f3d a62c 02be
00000090: 55b3 5ebe 7865 823d dece 1cbe 9313 99be
000000a0: 8223 11be d09a f5bd 23df 93be a545 0b3e
000000b0: 3152 df3d 0097 0a3d ca7a 033d ab17 21bd
000000c0: 5144 583e 6999 0a3e ffac 383e fc80 cd3d
000000d0: e397 c2bd b307 afbe 80b5 34bd 7980 8fbe
000000e0: 8211 a4bd 5c60 8f3d 8f76 cabe 8904 f63d
000000f0: 7d46 1bbd 4d76 263e 12dc 983e 13f4 4c3d
00000100: fb29 4c3d 36e2 b0be 6430 233e c073 2cbe
00000110: b111 e7bd 5fd6 74be 7eb0 043e e013 473e
00000120: dcf8 8ebe c932 2a3e a2c3 7bbe 131b 96be
00000130: f6df 093e 34c9 7ebe 2104 de3d bb68 cbbe
00000140: c100 0dbe d04d 283c 8d4a c2bd 4780 4ebe
00000150: c090 39be 828b d4bd c4fb 7cbe 20ad d53d
00000160: 8866 b8be 2dbb 0c3e 0c73 29be 179c de3d
00000170: 37c7 6bbe 00ed 943d 1b61 07bf 5179 163e
00000180: cc40 65be 1430 213e fb09 a9bd 76ca cc3d
00000190: 8292 83be 6d53 303e ed95 803d f6ea aebc
000001a0: 4740 25be 6a5f 5abe cf76 103e 8ea2 2b3e
000001b0: 985b 8bbe 1af9 703d a1be 0cbf 4d8c a9be
000001c0: 3a15 c3bd 8796 003e ab39 423e fe09 093e
000001d0: 2596 173e c905 203e 8385 98be 1c4e 89be
000001e0: ebcf 35be bf2d 29be 118c 38be e511 333e
000001f0: 156b a4be 59f7 cebd 5fd0 ecbd a79a c33d
00000200: 5d6b 88be 7916 893c e010 183e b8b8 293e
00000210: cf12 69be 7e79 2d3e a28d 02bc 0165 62be
00000220: 472c 63be 2067 67be 633c 35be 5d48 a8be
00000230: c668 0d3e 54cf 8dbe 136f f1bd f6a7 613e
00000240: a02d afbd cb6a f33d d14f 283e 02cf 5fbe
00000250: 2970 37be 1e61 a8bd cfb0 75be 083a f1bd
00000260: df9a 7cbd b08a 7abe 79e8 663d 36a3 d23d
00000270: e151 a83d b0b8 90be 9519 263e 2107 0dbe
00000280: a13a 46bd eedd 8a3c bc23 efbe 3497 24be
00000290: 3311 87be 443e 1b3e feb3 493e ebd1 0f3e
000002a0: d331 94be 7040 37be 950b 0e3d 405c 5e3e
000002b0: 4040 44be 042e 31bd 9460 023e 13bd 213e
000002c0: 0a15 78be ec64 95be b5b8 ad3d 2cae 92be
000002d0: 20bb 883d f4ba 143e 76eb 91be a881 9fbe
000002e0: 3d60 95bd 8ec5 403d 1511 d8be ec5c d93c
000002f0: 82e4 8ebe e4ff 6fbc 2e28 72be b02a 5ebe
00000300: 1970 9bbe d56a cf3c 5165 323e e078 2fbe
00000310: 476d 8c3d cf57 8b3d 0a13 68be 9eca dbbe
00000320: 358f a7be 0d10 3f3e f6d4 5dbe 748e 9e3d
00000330: c658 1d3e 2837 a6bd d836 07be 417b 11be
00000340: 6c21 0bbe 4539 47be d1da 483e a005 da3d
00000350: dcdd e7be ecd0 ea3d 864e 053e 9ab2 7bbe
00000360: 195c a4be b988 0d3e 1ae4 30be c0d9 203e
00000370: 57ea 8fbd 2caa a6be 5837 143e 1012 6dbe
00000380: 38cc b7be cb6c adbe d022 29be a3f8 96be
00000390: 2a70 c33d bc8c 2b3e 2740 ff3d b273 9ebe
000003a0: b55b 86bd 6198 4a3e 6c65 2b3e 0278 83bd
000003b0: b895 b6be c5c0 bc3d 795b cbbc 7ad4 3e3e
000003c0: fa1c 403e 2214 9ebe 0da9 79be 4635 133e
000003d0: 3ef1 85be 9cf5 2d3e 8530 8dbe 9331 88be
000003e0: 67a3 f43d 260a 0b3e 103e 8abe 2730 ffbd
000003f0: c2b7 d7be bf36 153d 6290 4bbe fc37 63be
-0.11016365 -0.12044481 -0.25221485 0.114913866 0.03406656 -0.10911411 -0.21259943 -0.35829484
-0.21586707 -0.21216328 0.18940462 0.1944379 0.13059258 -0.29263896 0.15788801 -0.30574918
-0.11236974 -0.2849637 -0.45818332 -0.1752074 -0.08202175 -0.22287177 -0.25219035 -0.18489446
0.1748433 0.10886875 0.2351824 0.1205188 -0.07521471 -0.10526028 -0.1968753 -0.1159287
0.20929047 -0.039536674 0.0777235 -0.12712345 -0.21748097 0.0636701 -0.15313289 -0.29897746
-0.14173701 -0.11992419 -0.28881177 0.13600786 0.10904349 0.03383541 0.032099523 -0.039329212
0.2111981 0.13535084 0.18034743 0.100343674 -0.09501626 -0.34185562 -0.044118404 -0.28027704
-0.08011152 0.07000801 -0.39543578 0.12012584 -0.03790902 0.16256066 0.298554 0.050037455
0.049844723 -0.34547585 0.15936428 -0.1684103 -0.11282671 -0.23909901 0.12957951 0.19441175
-0.2792424 0.16620935 -0.24586347 -0.2931753 0.1346434 -0.2488144 0.10840631 -0.3972834
-0.13769819 0.010272458 -0.09486876 -0.20166121 -0.18121624 -0.103781715 -0.24705416 0.104334116
-0.36015725 0.13743277 -0.16547793 0.108696155 -0.23025213 0.07271767 -0.52882546 0.14694716
-0.22388 0.15740997 -0.08253857 0.09999554 -0.25697714 0.17219324 0.06278596 -0.021352272
-0.16137801 -0.2132546 0.14107822 0.16761228 -0.27218318 0.05883131 -0.54978377 -0.33114854
-0.09525533 0.12557422 0.18967311 0.13382718 0.1480337 0.15627207 -0.2978936 -0.26817405
-0.17755096 -0.16521357 -0.18022181 0.17487295 -0.32112947 -0.101057716 -0.11563181 0.09550982
-0.26644412 0.016734349 0.14850187 0.16574371 -0.22761081 0.16940877 -0.007968338 -0.22108842
-0.22184859 -0.22597933 -0.17698817 -0.3286771 0.13809499 -0.2769724 -0.11788764 0.22036728
-0.08553624 0.118856035 0.16436698 -0.21856311 -0.1791388 -0.08221649 -0.23993228 -0.11778647
-0.061671134 -0.24466968 0.056374047 0.10285036 0.08218742 -0.28265905 0.16220696 -0.1377225
-0.048395757 0.016951527 -0.4670695 -0.16073304 -0.2638031 0.15160471 0.19697568 0.14044921
-0.28944263 -0.17895675 0.034679014 0.21714878 -0.19165134 -0.043256775 0.12732154 0.15794782
-0.24226776 -0.2917856 0.08482496 -0.28648508 0.06676316 0.14524442 -0.28499955 -0.31153607
-0.072937466 0.047063403 -0.42200533 0.026533566 -0.27908713 -0.014648411 -0.2364814 -0.21695971
-0.3035896 0.025319496 0.17421462 -0.17135954 0.068567805 0.068038575 -0.22663513 -0.42928022
-0.32726446 0.18658467 -0.2166327 0.077420145 0.15365896 -0.08115989 -0.13204515 -0.14207174
-0.13586968 -0.1945544 0.19614722 0.10645604 -0.45286453 0.1146563 0.13018236 -0.2457985
-0.32101515 0.13821687 -0.17274514 0.15708065 -0.07027119 -0.32551706 0.14474237 -0.23151422
-0.35897994 -0.33872065 -0.16517186 -0.2948657 0.09542878 0.16752905 0.12463408 -0.30947644
-0.065604605 0.1978469 0.16737908 -0.06419374 -0.356611 0.09216455 -0.024823891 0.18635741
0.18761054 -0.30874735 -0.24380894 0.14375791 -0.26160616 0.16988224 -0.2757608 -0.26600322
0.11945229 0.1357809 -0.27000475 -0.12460356 -0.42132384 0.036429163 -0.19879296 -0.22189325
