data/processed/converted_model.tflite (tflite, 978324 bytes, 10 tensors)

sequential/conv2d/BiasAdd/ReadVariableOp f4 [32]
000000 1c d9 11 bc 69 11 34 bc 1d 21 5a bc 4b de d0 3d
       -0.008901861 -0.010990479 -0.013313559 0.10198649
000010 06 03 8e bb 36 bf 28 3c 56 16 d9 bc 6e 67 f6 bb
       -0.0043338565 0.0102994945 -0.026499908 -0.007519654
000020 00 e2 0e bd fe 08 87 bc fd 8d 9d bc 72 fa d1 bc
       -0.0348835 -0.01648378 -0.019232744 -0.025632117
000030 85 b2 15 3e b0 af a9 ba 4c d2 df bb e0 1b a8 bd
       0.14618881 -0.0012946036 -0.0068304893 -0.08208442
000040 d9 a0 cd bb a2 c2 9a bd 02 52 95 bd 95 fe b1 bd
       -0.006275278 -0.075566545 -0.072910324 -0.08691136
000050 4b c2 80 bc 68 15 9c bb fc 34 4e bd 7f 00 98 bd
       -0.015717646 -0.004763294 -0.0503435 -0.074219696
000060 aa 52 77 ba 9a 6a 7e 3b 32 3f e9 bc 5c ef 59 bc
       -0.000943462 0.0038820864 -0.028472517 -0.013301697
000070 65 c5 9c bb c1 05 70 bd 8e 81 8a 3d 08 06 03 bc
       -0.0047842734 -0.058599237 0.06762992 -0.007997043

sequential/conv2d_1/BiasAdd/ReadVariableOp f4 [64]
000000 6a c6 29 be a1 e2 26 be 5f e4 12 3d 98 ba b3 3d
       -0.16579595 -0.1629739 0.035862323 0.08775824
000010 40 66 30 bc 03 88 10 be 5a 00 ee bd 76 18 8e bd
       -0.010766566 -0.14114384 -0.11621161 -0.06938259
000020 63 a8 9b 3d ba 34 67 bd f0 8d 08 3e 8e ac 05 3d
       0.076004766 -0.05644677 0.13335395 0.032635264
000030 26 58 b5 3c 6d 9f 5c 3d 2f d6 61 bc 0e 2e d1 3d
       0.022136759 0.053862978 -0.0137839755 0.10213862
000040 52 a3 aa bd f1 f9 bb bd d8 e1 9e 3d cf 93 fd bd
       -0.08331932 -0.09178532 0.0775792 -0.12381708
000050 db 79 b6 3c 8c aa 28 be f1 b7 19 3d d5 b9 46 be
       0.022274902 -0.16471308 0.037528936 -0.19406827
000060 d2 0e fb bd a9 0d a8 3c 66 0e bc bd 7b 10 08 be
       -0.12258686 0.020514326 -0.09182434 -0.13287537
000070 c3 2c be bd d6 0d 2b be bc 06 16 bc e6 b6 ff bd
       -0.09285881 -0.16704497 -0.009156879 -0.12486057
000080 c2 63 c3 bc 07 44 71 3d 4d b5 44 bd 54 9a da bd
       -0.02385128 0.058902767 -0.048024464 -0.10673967
000090 24 1a 47 ba 6d 55 bc bb a4 bf 7f be 11 22 3f be
       -0.0007595143 -0.0057474882 -0.24975449 -0.18665339
0000a0 09 64 9f bd 38 1a 24 be b5 f5 be 3d d5 ab 19 be
       -0.07782752 -0.16025627 0.09324209 -0.15006955
0000b0 df fa aa bd 59 ba 48 be 40 36 c6 bc d4 11 ab bd
       -0.08348631 -0.19602336 -0.02419579 -0.0835301
0000c0 a7 3b b5 3d c6 52 20 bd 0b d3 4a be 64 34 4a 3d
       0.088492684 -0.03914144 -0.19807069 0.04936637
0000d0 2c 88 0a 3d 3c 04 98 bc b3 a5 1b be 96 a0 e5 3c
       0.03382127 -0.018556707 -0.15199928 0.028030675
0000e0 94 9c a4 bd fc a6 c3 bd 90 fd 10 bd 93 6e 96 bd
       -0.080376774 -0.09553334 -0.035398066 -0.07345309
0000f0 a5 87 f6 bd a9 24 f1 bb 85 e1 d4 bd ea 7a ec bd
       -0.12037591 -0.0073591066 -0.10394577 -0.115468815

sequential/conv2d_2/BiasAdd/ReadVariableOp f4 [128]
000000 3c 5b 35 3c 19 b6 32 bd 87 29 f1 3c f1 d1 17 3d
       0.011069115 -0.043630693 0.029438747 0.03706545
000010 65 72 a7 3d f4 ef fc bd 03 a5 80 bc bd be 0a 3c
       0.08176116 -0.12350455 -0.015703684 0.008468327
000020 42 d0 e6 bb 0c 01 cc bc 96 d1 44 bd a8 ba 92 bd
       -0.0070438692 -0.024902843 -0.04805144 -0.07164508
000030 34 2d 09 bd e3 22 ae bc 70 e9 27 bc 6c 65 9d bc
       -0.033490375 -0.02125687 -0.010248527 -0.0192134
000040 11 4d 8f bd 18 31 64 bd 66 47 40 bc 1a 32 d4 bd
       -0.06997121 -0.055710882 -0.011735773 -0.103611186
000050 a5 2d f0 3c 1b 87 1c bd f6 e3 6f 3b 95 88 cf bd
       0.02931864 -0.038214784 0.0036604381 -0.10133473
000060 5b c7 34 bd 66 81 95 bd f8 d9 37 3c e4 d7 e5 bd
       -0.044135433 -0.073000714 0.011221401 -0.112228185
000070 46 89 e9 bc ad 8f 97 bd 03 6d 94 bd f6 76 3c bd
       -0.02850784 -0.07400451 -0.07247355 -0.046011887
000080 74 91 a1 bb c1 3d b0 bd ef fa 90 bd 12 ff cc bc
       -0.0049306694 -0.086055286 -0.07079112 -0.02502397
000090 4c da 2a bc 52 4f 50 bd 31 50 3a bc e6 ba 92 bd
       -0.010428023 -0.050856896 -0.011371658 -0.07164554
0000a0 40 45 5e 3d 97 09 23 bd 3b 2d 22 bd 82 1b 95 3c
       0.05426526 -0.039804067 -0.039593916 0.018201593
0000b0 b1 67 26 bd 35 d4 95 bd 8c 12 43 bc 4b 33 97 bc
       -0.04062623 -0.07315866 -0.011906277 -0.018457076
0000c0 4c 47 f8 3b 15 d9 82 3c 7a b3 98 bc ac a6 0e 3d
       0.0075768586 0.015972653 -0.018640269 0.03482692
0000d0 50 46 14 bd e0 df 3d bd ff a9 71 bd fa 8e ad bd
       -0.036199868 -0.046356082 -0.05900001 -0.08474536
0000e0 54 73 d2 3b 3e 5a 93 bb 31 07 b7 3d 9c cd 99 3d
       0.0064224396 -0.0044968417 0.089369185 0.0750992
0000f0 ab 83 64 3d 1b e6 50 bc 79 24 bb bc d7 c9 00 3d
       0.05578963 -0.012750174 -0.02284454 0.03144249
000100 45 c2 93 bd 8e 13 72 bb e4 e7 0f bc b7 0d b4 3c
       -0.07214788 -0.0036937925 -0.008783314 0.021979196
000110 a3 44 53 bc 5c df e7 bc 12 8e bc 3d 6a bd b0 3b
       -0.012894782 -0.028304748 0.09206785 0.0053936737
000120 d8 8c 64 3c f2 24 ef 3c d1 bc cd bc f9 21 90 bd
       0.013949595 0.029192422 -0.025114449 -0.0703773
000130 f5 27 0a bd f2 f6 8e bd d6 e9 e3 bd dd 97 e7 3c
       -0.033729512 -0.06980695 -0.11128585 0.028270656
000140 75 c3 c6 3b d0 9f 7b bd e3 53 1c bd 21 33 4c bd
       0.0060657808 -0.061431706 -0.038165938 -0.049853448
000150 fe ed 9f ba b7 4a 8e bd 1b 98 2e be 2d c6 a7 bc
       -0.0012201665 -0.069478445 -0.17050211 -0.02048024
000160 13 ab d1 bd 00 65 c2 bc 01 c2 a6 bd ef 42 86 bd
       -0.10237708 -0.023729801 -0.08142472 -0.06555735
000170 03 92 01 3b d8 14 e5 bc d9 07 08 bd a1 82 8d 3d
       0.0019770868 -0.02796404 -0.03321061 0.06909681
000180 99 eb d0 bc 70 0b 0a 3e 1c a2 8e bd 18 26 5c bc
       -0.025502967 0.13480926 -0.06964514 -0.013436817
000190 2d 70 b5 bd bc 91 77 bd 14 08 26 3d 4b 12 07 be
       -0.088592865 -0.060441718 0.040535048 -0.13190572
0001a0 e2 4f 1a 3d d9 14 ba bd c2 52 15 be 01 1b cc bd
       0.03767384 -0.090860076 -0.14582351 -0.09966088
0001b0 32 8f bd bb ab c6 0e 3b e3 19 49 bd 80 05 72 bd
       -0.0057848925 0.0021785896 -0.049096953 -0.059087276
0001c0 eb 60 9b bd c1 b4 a5 bc 57 ed 02 be 5f 32 91 bd
       -0.07586845 -0.020227792 -0.1278585 -0.07089686
0001d0 69 4d eb 3d 5e 07 e6 bc 3f 96 35 bd 1e 9d b2 bc
       0.11489374 -0.028079685 -0.04433274 -0.021803435
0001e0 e7 ff 9b bc 89 2e ba bd e2 20 f9 3c 72 4a 7f bb
       -0.019042922 -0.09090907 0.030411188 -0.0038954285
0001f0 08 46 87 bd ca 2a a0 ba 36 55 e4 bd a3 49 08 3d
       -0.06605154 -0.0012219783 -0.11149065 0.03327335

sequential/conv2d/Conv2D f4 [32, 3, 3, 1]
000000 3e cb 89 3e 6d d5 58 3b 92 19 9d be e7 2e 21 3e
       0.26912874 0.0033086196 -0.3068357 0.15740548
000010 01 9f a0 bc 13 dc 18 be 2d 8a 6f 3e 01 12 86 bc
       -0.019607069 -0.14927702 0.23392554 -0.016366007
000020 63 88 15 be 4f 9f a6 bd c4 81 9e 3d d0 6f 1f be
       -0.14602809 -0.081358545 0.077395946 -0.15569997
000030 09 fc 9e bd 1f 8c 00 be 5d d8 00 3e 15 87 ce bc
       -0.07762916 -0.12553452 0.12582536 -0.025210897
000040 8f 5c 39 bd ea 7b 67 3d 6a 86 f2 3d 42 15 33 3e
       -0.045254286 0.056514658 0.11842044 0.17488578
000050 dc b0 1b bd b9 76 2b be 28 6f 35 3e a6 76 54 bd
       -0.038010463 -0.16744508 0.17718184 -0.051870964
000060 fd e2 4b 3d 18 79 3a 3e 31 65 fe 3c 78 d0 8a 3e
       0.04977702 0.18210256 0.031054111 0.27112174
000070 0c 1e 27 bd 5c 59 61 be 10 08 72 3e 2c a9 20 be
       -0.04080014 -0.22006744 0.23635888 -0.15689534
000080 9a 78 35 be f6 6b 01 3e fd ee c5 bd 9b 23 68 be
       -0.17721787 0.1263884 -0.09664724 -0.22669832
000090 30 26 98 be fc 47 58 3e ad 4e 2a 3e ea 96 2f 3d
       -0.29716635 0.2112121 0.16631575 0.042868532
0000a0 4f 4e 85 3e cb de 45 bd a7 52 21 3d 6b ca 80 bd
       0.26036307 -0.048308175 0.039385464 -0.06288608
0000b0 01 a6 c5 be 54 d0 de bd 16 1a 38 be 01 3c 8b be
       -0.38603213 -0.10879579 -0.17978701 -0.27194217
0000c0 d5 44 45 3b 6d d5 ea bd bc 54 46 bd 73 58 94 3e
       0.0030100842 -0.11466489 -0.048420653 0.2897373
0000d0 65 cc 8a 3e 8c 93 e8 3d 8e 1c c7 3e 2a 5e 65 be
       0.27109066 0.11356267 0.38888973 -0.22399202
0000e0 44 7a 2e be 9d 47 aa be 2b af 48 be 00 46 21 3e
       -0.17038828 -0.33257762 -0.19598071 0.15749359
0000f0 f4 a8 0c bd 3e 3c 47 3e 0d 06 3a 3e 8d b1 65 3d
       -0.034340814 0.19456574 0.1816637 0.05607753
000100 a9 95 04 3e 4c bc 32 3e 7f 40 9c be 33 0e 52 bd
       0.12947716 0.17454642 -0.30517957 -0.051283073
000110 c9 ee 77 3e 4d a3 ea be 62 57 1d bd 38 e7 95 3e
       0.24212183 -0.45827714 -0.038413413 0.29277968
000120 82 17 34 3d fb 91 ac 3d 7d 3a 0e 3d 11 18 5f bc
       0.04396773 0.08426281 0.034723748 -0.013616578
000130 4f 10 c2 bd 62 49 af bc ef 5c 31 3d 5f b9 91 3c
       -0.09475767 -0.021397296 0.04330152 0.017788587
000140 71 a0 35 bb 38 27 11 be a5 2d 2b 3d 00 07 9f 3d
       -0.0027714039 -0.14175117 0.041791577 0.07765007
000150 d7 99 13 3e e7 23 c9 3d 41 27 55 be 79 28 3b 3e
       0.14414154 0.09821301 -0.20815755 0.18277158
000160 a0 4a 0d 3e 71 98 bc be af 7e 88 be a7 5b 16 3e
       0.13797998 -0.36835054 -0.26659152 0.146834
000170 29 41 15 3e 51 be 9b be b0 e7 38 3e 41 14 08 3e
       0.14575638 -0.30418637 0.18057132 0.13288976
000180 70 fe db bc a3 b9 2c 3e 4d ba 0d bd 64 43 d5 3d
       -0.026854724 0.1686769 -0.0346015 0.10413244
000190 76 67 0b be 28 9f 10 3d 7a 97 e8 3d 91 02 0e 3e
       -0.13613686 0.035308033 0.11357017 0.13868167
0001a0 e3 c1 6e 3c 9c c9 b1 bd fb 8d 6c bd 51 e2 23 3e
       0.014572593 -0.08681032 -0.05775259 0.16004302
0001b0 a8 48 d6 be 75 71 5b be 78 14 0f 3e 7b 4f e5 be
       -0.41852307 -0.21429999 0.13972652 -0.447872
0001c0 84 83 c0 3d 7c 4d 8e 3e 88 77 95 be fe b0 f8 3c
       0.094000846 0.2779349 -0.29192758 0.030357834
0001d0 04 51 5e 3e 1a fe 3b 3e 24 c5 87 3e 59 15 83 3e
       0.21710593 0.18358651 0.26517594 0.25602224
0001e0 49 84 d0 bd 46 94 f0 3d fb ee 2f 3d 1a 17 1c be
       -0.101814814 0.11747031 0.04295252 -0.15243188
0001f0 14 21 cd be 03 e7 8d be 23 f9 98 3e a6 8c 84 3e
       -0.400643 -0.2771531 0.29877576 0.25888556
000200 06 d0 2d 3e 21 eb 24 3e 9f 41 c9 bc 6e 55 7b be
       0.16973886 0.1610532 -0.024567423 -0.24544308
000210 d4 26 2f bd 9e 32 94 be f3 26 e8 be 14 29 a2 3c
       -0.04276164 -0.28944868 -0.45342216 0.019794978
000220 da a7 e5 bd dc 0e 87 be 0b c1 44 3e e9 72 80 3e
       -0.11213656 -0.26378524 0.19214265 0.2508767
000230 ec 6b d5 bd ea 36 4f be 6a 46 60 3e c8 dc c2 3d
       -0.10420975 -0.20235792 0.21901861 0.09514767
000240 d7 db 32 3d 97 a5 33 be d4 0f f0 bd d1 39 01 be
       0.043666687 -0.17543636 -0.11721769 -0.12619711
000250 ff 66 0b be 9a 47 16 3e 49 a2 48 3d b0 5e 1c 3e
       -0.13613509 0.14675751 0.048982892 0.15270495
000260 bd cd 34 3e 15 72 aa 3d 74 39 84 bd cb b5 fe bd
       0.17656608 0.08322541 -0.06456271 -0.12437018
000270 31 b9 ab 3d d6 d8 4b 3d 17 4c f2 3d 50 b3 ab 3d
       0.08384932 0.049767338 0.11830919 0.083838105
000280 b8 fc 73 bd 86 31 61 3d f2 ba 80 bd 78 18 34 be
       -0.059567183 0.05497887 -0.06285657 -0.17587459
000290 62 f0 eb 3c 13 9e 13 3e 2d 0d 22 3e 11 1f 3e 3e
       0.028801147 0.1441577 0.15825339 0.18566538
0002a0 d7 8e 26 bd f7 f2 ac bd 04 7b b0 bd c8 34 ba be
       -0.040663566 -0.08444779 -0.08617213 -0.36368394
0002b0 4d 4d 68 be b7 0b f7 3d 63 14 3f bd 12 82 83 3e
       -0.22685738 0.12062781 -0.0466503 0.25685173
0002c0 5e 72 6f 3e 19 11 2d 3e 16 01 c7 bc 76 c4 4a bd
       0.23383471 0.16901053 -0.02429251 -0.049503766
0002d0 20 c0 be bd 8b 99 73 3e 77 7a 1c be 09 3b 56 3e
       -0.09313989 0.2378904 -0.15281092 0.20920958
0002e0 cb d3 46 bd db b0 a2 bd 7a 57 7d 3e 99 87 df bd
       -0.048541825 -0.07943889 0.24740401 -0.10914535
0002f0 95 23 8c be d1 10 6e be 72 a1 c2 be 09 ca 7a be
       -0.27370897 -0.23248602 -0.38013798 -0.24491133
000300 71 77 0f bd 5a af 1f 3e 43 2a 3c bb d0 1b fe 3d
       -0.035026018 0.15594235 -0.0028711713 0.124076486
000310 1d 94 87 3e 81 5b 23 3e 62 dc 6e 3d 6c 06 bd 3d
       0.2648019 0.15952875 0.058315642 0.092297405
000320 b6 a3 bc bd fa 21 c9 3d 48 d9 eb 3d db c2 0e 3e
       -0.09210913 0.09820934 0.115160525 0.13941519
000330 38 57 bf bd 56 fa b4 3c 6d 6c 5b bd 05 9e 97 3d
       -0.093428075 0.022092026 -0.0535702 0.07403187
000340 19 00 c0 3c 57 19 02 be 98 4c a6 bd 9d 60 fe 3d
       0.023437547 -0.12704979 -0.08120078 0.12420771
000350 45 8c d6 39 dd ff f6 3c f7 52 7b 3d 60 07 b2 3a
       0.0004092177 0.030151302 0.06135842 0.001358252
000360 38 ad 0f bd 90 45 9b be 08 9b 02 bd eb 68 44 3d
       -0.035077304 -0.3032651 -0.03188613 0.04795162
000370 7f b0 0a be 4f 59 21 be 1a 78 38 3e 0e 6c 4e 3e
       -0.1354389 -0.15756725 0.18014565 0.20158407
000380 cd 48 03 be 9e 5a 4c be 80 e0 ef bd a9 27 ac bb
       -0.1282074 -0.19956443 -0.11712742 -0.0052537513
000390 2d 8c 3b bd dc 12 30 bd 5a 84 b7 bc c5 d0 92 be
       -0.04578798 -0.042986736 -0.022401977 -0.28674904
0003a0 2a f9 34 3e c2 51 2a 3e bb 55 05 3e ee f6 cc bc
       0.17673174 0.1663275 0.13020985 -0.025020089
0003b0 78 bb 86 be 4b 31 2b 3c 80 24 8f 3d 60 f9 8e be
       -0.26314902 0.010448764 0.06989384 -0.27924633
0003c0 ff cd 87 3e a5 76 2a 3e 22 f1 bf bc d8 f1 ba 3d
       0.2652435 0.16646822 -0.02343041 0.09128159
0003d0 cd 83 bc 3c 01 f3 e1 3d 5e d5 2f be f7 50 b1 3d
       0.023012066 0.110326774 -0.17171237 0.08658021
0003e0 02 26 dd 3d e5 e3 1a be ae 3f 58 bd ad 25 e1 3d
       0.10798265 -0.15125997 -0.052795105 0.10993514
0003f0 64 ee 58 be a4 aa b4 bd 20 86 a3 3e 13 d4 db 3d
       -0.21184689 -0.088216096 0.31938267 0.10733809

sequential/conv2d_1/Conv2D f4 [64, 3, 3, 32]
000000 8d 56 71 be 31 98 64 3d 10 03 27 3b 13 53 92 be
       -0.23568173 0.055809204 0.0025484003 -0.28579006
000010 fc f0 a8 3c e7 0a 44 3e 60 b2 cf 3d c9 19 10 3e
       0.020622723 0.19144784 0.10141444 0.14072336
000020 36 51 a7 bd 3c fa 12 be f8 25 f5 bc f5 07 19 3d
       -0.08169787 -0.1435327 -0.029925331 0.037361104
000030 78 47 36 3b e1 62 4a 3d 08 3f 0b be 3c 45 bf 3c
       0.0027813595 0.049410705 -0.13598263 0.023348443
000040 3a f6 2a 3e 31 e1 fa ba c7 80 bb ba 89 85 91 3d
       0.1669549 -0.0019140599 -0.0014305346 0.07105548
000050 a5 15 11 be 82 76 46 3e 5f 03 a9 bd f7 47 7f bd
       -0.14168413 0.19381145 -0.08252596 -0.06232449
000060 85 70 52 3d 81 e3 13 3e 24 10 00 be e1 e1 8a bd
       0.05137684 0.14442255 -0.12506157 -0.06781364
000070 27 af 8a 3d 24 ca b1 bc 61 ae a2 be 68 8d da 3c
       0.06771689 -0.021702833 -0.31773666 0.026678756
000080 0c 51 ce bd 17 90 c3 3d 16 ff 7b 3b dc 8b 2c be
       -0.10074052 0.09548967 0.0038451604 -0.16850227
000090 98 00 89 3c 56 04 50 3d b2 12 e4 3d 3e 27 8f bd
       0.016723916 0.050785385 0.11136378 -0.06989907
0000a0 4f 1b 05 3a c3 ac d5 bc 55 a5 1b 3d 16 3c a9 3d
       0.00050776167 -0.026083356 0.03799947 0.082634136
0000b0 79 87 f0 bd 6b c0 2e 3e 8a 0b 16 3e ea 09 2a 3d
       -0.11744589 0.17065589 0.1465284 0.04151336
0000c0 f0 3f 4c 3e 59 4e 99 3c 1b 17 f5 3d a3 d7 be 3d
       0.19946265 0.018714117 0.11967298 0.09318473
0000d0 49 73 e0 bb 55 9d 48 3d 9b 06 cb 3d 68 95 b6 bc
       -0.0068496806 0.04897817 0.09913369 -0.02228804
0000e0 c9 0b 9d 3d ad c8 99 3d 1b 78 2e bc f8 4b aa bc
       0.076682635 0.07508979 -0.010648753 -0.020788178
0000f0 00 df f8 3c ff 28 99 3d 51 2c 81 be d8 d1 37 3e
       0.030379772 0.074785225 -0.25229123 0.17951143
000100 8a 07 b5 bc de fb 67 3d ad 69 89 3d b3 3e 7c be
       -0.022098321 0.056636684 0.06709609 -0.24633293
000110 08 04 d3 3d 4e 76 fc 3c f0 69 19 be cf 68 31 3e
       0.10303503 0.03081813 -0.14981818 0.17325138
000120 53 f6 3f 3d c2 87 b2 bd 5a 5e 0b bd f0 31 01 bd
       0.046865772 -0.087173 -0.034025528 -0.031541765
000130 e3 05 2e be 8a a8 14 bd 1b b9 58 be f9 a0 f4 3c
       -0.16994433 -0.036293544 -0.21164362 0.029861914
000140 8a f2 5a 3d eb a0 5e 3d 89 f6 84 3d 03 82 6b 3c
       0.05345396 0.054352682 0.06492335 0.014374259
000150 f4 b4 2d be 7e 64 84 bd ba 42 e3 bb c1 06 99 3d
       -0.1696356 -0.0646448 -0.0069354447 0.07471991
000160 ea 12 03 3e 72 c9 34 bd 89 82 b5 3b c0 62 20 3c
       0.12800184 -0.044137426 0.0055392426 0.009789169
000170 c7 94 d3 3e 46 64 72 3d 3c 40 42 be 67 1c c2 3c
       0.41324446 0.05917766 -0.18969816 0.023695184
000180 e6 05 2f be a9 e7 dc 3d 12 2d 12 bd 5d 7c 81 be
       -0.17092094 0.10786373 -0.035687514 -0.25290194
000190 a5 e4 cb 3d c8 90 af 3d bd 6d 20 3e 3d ba 5f 3e
       0.0995572 0.08572537 0.15666862 0.21848388
0001a0 bf ac 24 3d 04 5b 12 3d 37 f0 b9 3d 19 3c c7 bc
       0.040203806 0.03573133 0.090790205 -0.024320649
0001b0 cc 57 85 3d 6f c4 3f 3c 83 a0 92 bc 16 d5 f0 bd
       0.065108865 0.011704548 -0.017898804 -0.11759393
0001c0 e8 d3 44 3e 22 2d e7 bc 73 45 8c bc ee 98 4e 3e
       0.19221461 -0.028219763 -0.01712296 0.20175526
0001d0 ac eb ea bd 89 c7 b5 3d 56 da 40 bd 2b cd ad bd
       -0.11470732 0.08875949 -0.04708322 -0.08486398
0001e0 4d 57 f4 bc a8 b2 2b 3d cb 51 1d be c7 c4 91 3d
       -0.029826785 0.041918427 -0.15363233 0.071176104
0001f0 cf f5 79 3e 86 06 22 bd 12 b5 9f be 6e c3 3b 3d
       0.24410175 -0.039557002 -0.31192833 0.045840673
000200 2b 59 00 be c2 9b 28 be 28 3a ae 3c 59 a3 ab bd
       -0.12534015 -0.16465667 0.021267965 -0.083807655
000210 af 95 14 bd e2 54 fa bd 06 f9 69 3c 40 82 10 bc
       -0.036275562 -0.12223221 0.014280563 -0.0088201165
000220 fc 74 32 3d ba 84 15 be 65 cf af 3c a2 35 98 bd
       0.043568596 -0.14601412 0.021461198 -0.07432105
000230 85 94 56 be 65 95 91 bd 20 99 a2 bd 57 fc 94 3d
       -0.20955093 -0.07108573 -0.079393625 0.072746925
000240 5e 32 16 be b9 69 60 3d 48 a8 62 bd 8f b7 51 3d
       -0.14667651 0.054788325 -0.055336267 0.051200446
000250 9f b8 b8 bd 6c 31 a6 bb f4 1f 0d 3d f1 fc 2b bc
       -0.09019589 -0.0050718095 0.0344543 -0.010497318
000260 69 7e 7d bc f0 52 01 be 52 30 9d 3d ff 7f 90 3c
       -0.015472033 -0.12629294 0.07675232 0.017639158
000270 d0 c8 75 bd 19 13 bd bd 06 0f c3 bd ba 2a a7 bc
       -0.060005963 -0.09232158 -0.0952435 -0.020406116
000280 67 fb 8b bc ad 21 87 3d 8b 40 99 3d 88 be 4e be
       -0.017087651 0.0659822 0.07483014 -0.2018987
000290 28 c5 a9 bd 81 85 39 be bd c8 bc bd 7e 3b c1 3d
       -0.08289558 -0.18117334 -0.09217975 0.09435175
0002a0 84 89 0f 3d 27 19 52 3c ec d8 b1 3b 18 f5 07 3d
       0.035043254 0.01282338 0.0054274704 0.033192724
0002b0 79 0b 42 bd 99 39 54 be 41 15 6c be 04 1c 45 3d
       -0.047374222 -0.20725097 -0.23054983 0.04812242
0002c0 5d e0 09 be 2b e2 67 bd d3 ae ef bd 46 93 04 be
       -0.13464494 -0.056612175 -0.11703267 -0.12946805
0002d0 ff fe 22 be 73 28 6a be 4c 22 ed bb dd af 8f 3d
       -0.15917586 -0.22866993 -0.0072367545 0.07015965
0002e0 3d 12 85 bb e7 e4 32 3d 8f c0 5f bc 51 9e a9 ba
       -0.004061012 0.04367533 -0.013656749 -0.0012940859
0002f0 3d 88 86 3e 4d ad b7 3c f6 cd 49 be 02 ad ff bd
       0.26275817 0.022421503 -0.19707474 -0.124841705
000300 a2 47 f4 bc 13 25 4d 3c 99 e4 6b bd 79 b0 61 be
       -0.029819313 0.012521046 -0.057591055 -0.22039975
000310 86 1d 23 3e ca 5c 86 3d 47 d7 9a 3c ef 34 5b 3e
       0.15929231 0.06560667 0.01890148 0.21406911
000320 b6 35 8f bc 24 f4 af bd 20 ff d2 3d e7 d6 81 bd
       -0.017481666 -0.08591488 0.103025675 -0.063398175
000330 aa a3 e4 3d 49 02 1f bd 27 d8 4d be da c1 e0 bc
       0.11164029 -0.03882054 -0.20101987 -0.027436186
000340 f9 65 e5 bc 27 9b 0d 3d 9d 4e ae 3b 17 99 5b 3e
       -0.028002726 0.034571793 0.00531943 0.21445118
000350 74 66 af bc 11 5f 0a 3e 6e 36 10 3d 13 fe 28 bc
       -0.021411158 0.13512827 0.03520816 -0.010314482
000360 38 e3 fd 3c 9a 2b 9d 3d b4 23 dd 3c a4 f3 1f 3d
       0.030992135 0.07674332 0.026994564 0.039050713
000370 72 07 45 3e 0f c6 7f 3c 8d a9 ad bd 5b a1 6c 3d
       0.19241121 0.015611186 -0.08479605 0.057771068
000380 87 bf 14 be 6d 76 37 3d 75 9a a4 bc 0d 8e b3 bd
       -0.14526187 0.044790674 -0.020093182 -0.087673284
000390 1a 2f 77 b9 b7 51 17 3d df 5a a0 3d b3 2d ed 3d
       -0.00023573302 0.036943164 0.07829832 0.11580982
0003a0 5e 30 24 3c af d4 8f bd 85 7f c6 bb 90 80 77 bc
       0.010021297 -0.07022988 -0.006057682 -0.015106335
0003b0 bd fb 5f be 00 df 43 be 90 0c 0b be 81 de 08 3e
       -0.21873374 -0.19128036 -0.13579011 0.13366129
0003c0 bd 2e 89 bd 98 5f 88 3d 72 a8 ad 3d 5e 5a b8 bd
       -0.06698368 0.06658858 0.08479394 -0.09001611
0003d0 7d 77 92 3c 16 85 d1 bd 8c fd 1b 3c 4f fb 8a 3d
       0.017879242 -0.10230462 0.0095208995 0.067862146
0003e0 b5 31 3f bd 36 d9 f2 3c 4f cd 9b bd 87 d2 85 3d
       -0.046678264 0.02964459 -0.07607519 0.065342955
0003f0 3d f8 54 be 82 26 e3 bb c0 79 70 bd 57 1e 1d bd
       -0.2079782 -0.0069320807 -0.05870986 -0.038359012

sequential/conv2d_2/Conv2D f4 [128, 3, 3, 64]
000000 79 f9 70 3d 03 18 2b 3d 48 19 e1 bd 24 50 aa bd
       0.058831666 0.041770946 -0.1099115 -0.08316067
000010 28 a1 08 bd 85 a7 32 3a 94 3d 29 3d 8e 96 1a 3e
       -0.033356816 0.00068151235 0.04131849 0.15096495
000020 01 0b a9 3d ef 87 9d 3d d8 55 08 3c cd ae fa bd
       0.08254052 0.07691943 0.008321248 -0.12240372
000030 7f 28 9d 3d ca aa d7 3c e2 36 1c 3e df 6d 1f be
       0.0767374 0.026326556 0.15255311 -0.15569256
000040 d6 e2 aa bc 7d 41 69 3d af 7b 3f 3d f9 5e a0 3d
       -0.020860117 0.05694722 0.046748813 0.078306146
000050 77 b7 0d be ef bb f2 bc 7e 22 ed 3c ac a1 a1 3c
       -0.13839518 -0.02963063 0.028947111 0.019730411
000060 c4 27 a9 bd 1a 0f 86 bd 3b 16 8d 3b c0 9c 85 3d
       -0.08259538 -0.06545849 0.0043056286 0.06524038
000070 53 0d 44 3d 78 76 7c 3d 5b 0d 6b bc 78 48 97 bd
       0.04786427 0.061636418 -0.014346446 -0.07386869
000080 1d 14 82 bd af 59 89 bd 14 a7 69 3d fa 66 d1 bc
       -0.063514926 -0.06706559 0.057044104 -0.025561798
000090 b3 28 07 bd c2 a8 15 3d 41 78 3b be 86 37 d2 bd
       -0.0329978 0.036537893 -0.18307592 -0.102644965
0000a0 91 a5 b5 bc a1 5d 02 3d c0 6d 01 3e 9a 76 5b bd
       -0.022173675 0.031827573 0.12639523 -0.053579904
0000b0 10 48 85 3d cd 95 b9 3d 69 5b 3c 3c c0 6e 23 bd
       0.065078855 0.09061775 0.011496403 -0.03990054
0000c0 d1 79 82 bd ba ed e3 bc 7a 92 c8 bc 17 0c 0e be
       -0.06370891 -0.027823318 -0.024483908 -0.138718
0000d0 5e 17 ce 3d 5d 7b 6d bc ee 56 0b 3d 22 fd 50 3d
       0.10063051 -0.014494744 0.03401845 0.051022656
0000e0 ca 79 f3 bc 7c e0 20 be 47 83 a3 bb ed a0 8c 3d
       -0.02972116 -0.15710634 -0.0049900147 0.06866632
0000f0 3d 8e b0 bc 9b 27 eb 3d 99 5c 49 3d b6 a0 ab 3d
       -0.0215522 0.114821635 0.049160574 0.083802626
000100 69 f3 d3 3c cd f0 42 3c 6f b8 1c 3d d0 04 4a 39
       0.025872903 0.011898232 0.038261827 0.00019266014
000110 23 c1 01 3d 47 c2 e2 3b 61 a2 1e bb 40 67 cf bc
       0.03167833 0.0069201323 -0.0024205672 -0.025317788
000120 a6 ca 8a bc ec 1e 8b bd 31 0c 36 bd d3 97 ac 3d
       -0.016942333 -0.06793007 -0.04444522 0.08427396
000130 ab 99 c9 bd 0e 13 2e 3e 9f 83 f5 bc e1 8a a6 ba
       -0.09843763 0.16999456 -0.029969988 -0.0012706184
000140 70 6c d6 3c 5a 76 9a bd 7c 5f a1 3d d3 4d e9 3c
       0.026174754 -0.07542105 0.0787954 0.028479492
000150 7a ce cb 3c 18 11 2c bd 62 dd 11 3e 3a 02 2a bc
       0.02487873 -0.04200849 0.14244607 -0.010376507
000160 22 0b 50 3d 94 69 12 bb ed a3 72 3d d4 b8 14 be
       0.050791867 -0.0022340761 0.059238363 -0.14523631
000170 04 dd b6 3c 9a cf 57 bd 34 3e 06 3d 0a 1a 30 3c
       0.022322185 -0.05268822 0.032774165 0.010748396
000180 8f af 97 3d ed 35 43 3c 92 8c f1 bc 8e db c4 3b
       0.07406532 0.011914712 -0.029485974 0.0060076183
000190 69 47 d7 bd 79 19 70 3d 0b 34 6d 3c 1e 85 1c be
       -0.10511667 0.058618043 0.01447774 -0.15285155
0001a0 2c aa be bb cd bb 04 be 6c 76 c1 3b 80 fc 32 3d
       -0.005818626 -0.12962265 0.0059040096 0.043697834
0001b0 80 25 3a bd 6b 4e c8 bd 5c c3 44 bd 0d 48 a0 3d
       -0.04544592 -0.09780582 -0.04803787 0.078262426
0001c0 e0 fe e4 bd fa 3d 09 3d ed 3c d1 3a e3 01 c2 bd
       -0.11181426 0.03350637 0.0015963592 -0.09473016
0001d0 b6 20 aa 3d cf cd 13 3d 61 cb 01 3d 0b a9 7a bd
       0.0830702 0.036084946 0.031688098 -0.06119637
0001e0 53 4f 0c 3d 3d 7d ff 3d 93 08 03 be 6c ef 0c be
       0.034255337 0.12475059 -0.1279624 -0.13763207
0001f0 b5 22 81 bc ee 14 9c 3d b3 cb bd bd 5e b7 a1 bd
       -0.01576362 0.076211795 -0.09267368 -0.07896303
000200 d1 11 27 be 54 4d cd bd 56 20 1f 3d da 34 e2 3d
       -0.1631539 -0.10024515 0.038849197 0.11045237
000210 91 50 d4 bd b0 08 8e bd ca 4a 24 be 82 67 50 be
       -0.10366929 -0.06935251 -0.16044155 -0.20351985
000220 e9 08 58 be 16 aa 37 be 6c 85 16 3e 3e bf 83 bd
       -0.21097149 -0.17935976 0.14699334 -0.06432961
000230 05 d3 29 be cb ac c3 ba 35 d4 c6 bd 1d 18 d1 3d
       -0.16584404 -0.0014928816 -0.09708444 0.10209677
000240 a9 3f 88 bb 77 28 65 be dd 9e d1 bc 04 39 96 bd
       -0.0041579795 -0.22378717 -0.025588447 -0.073350936
000250 2b 6a 93 3d ac cb 01 bd 7e 45 80 bd 39 3d 39 bd
       0.07197984 -0.031688377 -0.062632546 -0.045224402
000260 8a d2 40 3d d3 6b 45 be d1 bb 6b 3d df e0 d5 ba
       0.047075786 -0.19279413 0.057552163 -0.0016317627
000270 80 6d 10 bd 78 e1 85 be ea 8b 92 bd 72 b6 a8 bd
       -0.035260677 -0.26148582 -0.07155593 -0.08237924
000280 ec 55 c2 bd 39 8b 29 bd 66 c9 34 bd d0 ef 45 be
       -0.094890445 -0.04139254 -0.04413738 -0.19329762
000290 82 6c 34 bb b1 b8 90 3d e9 b5 4a bd 4e 24 ad be
       -0.0027530496 0.07066477 -0.04948989 -0.3381676
0002a0 9e 62 e2 be ba 14 39 be 21 82 28 be 76 69 ac 3c
       -0.44215864 -0.18074313 -0.1645589 0.021046381
0002b0 dc df 0c be 5b 4b 51 be c2 b2 09 bd 16 e2 c7 bd
       -0.1375727 -0.20438902 -0.033617742 -0.09759919
0002c0 a1 a4 5b be 30 ff 37 bd 38 05 27 be 66 be ac 3b
       -0.2144952 -0.0449211 -0.16310585 0.0052717207
0002d0 6c b5 5d 3c 70 d1 ad bd c9 ad 9d bd 26 34 30 be
       0.013532024 -0.08487213 -0.076991625 -0.17207393
0002e0 4f 98 93 bd 0c ac 64 bd c0 64 f3 3a 12 2b da be
       -0.07206785 -0.05582814 0.0018569455 -0.42610985
0002f0 82 81 37 be b4 4b 8a be 33 40 28 be 94 a2 b7 bc
       -0.17920497 -0.27010882 -0.1643074 -0.02241639
000300 5b 82 b4 ba 1e 0a b4 bd ab a8 09 be c5 d1 dc 3c
       -0.0013771759 -0.08790992 -0.13443248 0.026955495
000310 00 1a 77 3e 96 f8 02 bd 23 67 a1 bd 18 6a 05 3e
       0.24131012 -0.03197535 -0.07881 0.13028753
000320 34 c1 c0 3d b2 41 76 bd 38 2b f2 bc 84 1b 78 bc
       0.094118506 -0.060121246 -0.029561624 -0.015143279
000330 82 e3 f4 3c 6a f6 c6 3d 09 46 43 3d 2f 6e ad bd
       0.02989364 0.097149685 0.047674213 -0.084682815
000340 ce 95 ee bd f8 b5 3f 3d 5c 79 46 bd c1 4d b9 3a
       -0.11649667 0.0468044 -0.04845558 0.0014137552
000350 ce ef d6 bd ff 8d 0e 3c 22 94 0c 3d b3 ff 01 3b
       -0.10494958 0.008700847 0.034320958 0.0019836247
000360 c1 93 4e bd 1d 9a 67 3e 8b b4 67 3c 57 62 7f 3d
       -0.050433878 0.22617383 0.014142166 0.062349644
000370 0e 50 b8 3d 62 37 0f 3e 40 5d 22 3e 75 ed eb bd
       0.08999644 0.1398597 0.15855885 -0.11519901
000380 31 4e 78 bd 22 4c 26 bd a5 e3 27 bd 4b 2d 86 3d
       -0.060621444 -0.04059995 -0.040988583 0.06551608
000390 a3 63 4b be ed b9 2d 3e 46 05 8b bd 12 2e 80 3d
       -0.19862227 0.16965456 -0.06788115 0.06258787
0003a0 c0 da d1 bd bb 8a ad 3d 52 0f 40 3d 23 a9 80 3d
       -0.102468014 0.08473726 0.04688961 0.0628226
0003b0 41 20 d1 bd 0a b5 b1 3d 25 0e 08 bd 3c fc 22 3d
       -0.1021123 0.086771086 -0.033216614 0.03979133
0003c0 36 d7 08 3e 4e 35 06 be ba 2d 97 3d af 36 9b bc
       0.13363346 -0.13106272 0.073817685 -0.018946974
0003d0 fb dc 93 3d 45 12 5c bd 3a a5 85 bc 70 58 1e 3e
       0.07219883 -0.05372836 -0.016314138 0.15463424
0003e0 c9 42 01 bd a1 58 4e 3c 69 a6 6e 3d 93 12 13 3e
       -0.031557832 0.012594373 0.05826417 0.14362554
0003f0 10 51 08 3e c7 97 06 3d 73 27 02 bd d5 df 5c 3d
       0.13312173 0.03285959 -0.031775903 0.0539244

sequential/dense/BiasAdd/ReadVariableOp f4 [128]
000000 a9 41 26 bd 13 60 36 bd cd 1a db 3c a5 2a cf bc
       -0.040589962 -0.044525217 0.026746178 -0.02528889
000010 4b 3d 13 bd 14 8a 0e 3d 28 5d a4 3c 01 1f 91 3d
       -0.035947125 0.03479965 0.020063952 0.07085992
000020 b4 0c 4b bd 46 c4 07 3b de 36 b5 bb 83 79 44 bd
       -0.04957266 0.0020716353 -0.0055302223 -0.047967445
000030 80 97 15 bc d8 a5 70 3d 47 75 41 3c 94 61 34 bc
       -0.009130359 0.05875191 0.011807746 -0.011009593
000040 4e 62 94 3c 31 0e 2f 3d 4c 35 a8 bb 51 87 bf bd
       0.018113282 0.042738143 -0.0051333066 -0.093519814
000050 44 69 a3 ba 3e b1 a1 bd 07 d7 7d bd 83 6e 82 3b
       -0.0012467285 -0.078951344 -0.061972644 0.003980459
000060 bb 58 8c 3c e7 3d a5 3d 40 f2 77 3d 01 dc 01 3d
       0.017132154 0.080684476 0.060533762 0.031703953
000070 f4 18 c2 3c 59 d1 2a bd 56 e6 41 bd 31 7b a9 3c
       0.02369354 -0.041703556 -0.047338806 0.020688625
000080 3d 67 96 ba 43 07 b0 bd 7d 00 65 bd b7 ea 0b bd
       -0.0011474859 -0.08595135 -0.05590867 -0.03415939
000090 26 5f 9b bd 07 ba 90 bd 39 64 5e bb f7 49 44 3d
       -0.075865075 -0.07066732 -0.003393425 0.0479221
0000a0 d3 04 95 bd 19 7f dc bc 33 7d 32 bd cb ef 93 3a
       -0.07276311 -0.026916074 -0.04357643 0.0011286674
0000b0 65 d8 b2 bd 83 8b 23 3d 9e d3 ea bb 54 66 09 3d
       -0.0873268 0.03992797 -0.00716634 0.033544853
0000c0 df 3d e9 3c 67 d5 83 bc f2 5b c9 bb 87 01 4a ba
       0.028471885 -0.01609297 -0.006144994 -0.0007705916
0000d0 33 5d 4b 3d ec 9f 1a 3c ef 60 bd bd 7d 27 d1 bc
       0.04964943 0.009437542 -0.09247004 -0.025531525
0000e0 51 48 d0 bc e7 bf 1d bc e7 32 91 bd cd 8d 68 3d
       -0.025425108 -0.009628273 -0.07089787 0.056775857
0000f0 c4 67 3a 3c 0d f2 03 3d ae 94 11 bd 44 86 b6 bc
       0.011377279 0.03221326 -0.035542183 -0.02228082
000100 0c 9b 2c bd 4d bd 0c 3c 65 05 3f 3d 81 db e9 3c
       -0.04214005 0.008590055 0.046636004 0.02854705
000110 c6 bc 5a bd df 3e 7a bd c4 be fa bc 2c d8 b2 bc
       -0.053402685 -0.061095115 -0.030608542 -0.021831594
000120 59 29 24 bc 30 a5 85 bd e9 cc f1 bb 03 5d 1c 3d
       -0.010019624 -0.06525648 -0.0073791635 0.03817464
000130 0c d5 8c bd f6 3f 34 bd a1 bf 59 3c c8 c8 cd 3c
       -0.06876573 -0.04400631 0.013290317 0.025120154
000140 90 ec 39 3d 28 3c 6e bd c8 ba 6d bd f4 4b 40 3d
       0.04539162 -0.05816284 -0.058039457 0.046947435
000150 0a 6d d3 3c 3c 85 f5 ba 91 c1 ca bb 6b 0e 3d 3d
       0.02580883 -0.0018731724 -0.0061876257 0.04615633
000160 36 d5 77 bd 48 67 43 bc 6b 41 33 bd ec 08 9c 3d
       -0.06050607 -0.01192648 -0.04376356 0.07618889
000170 2a 2b 23 bd f1 74 be bc 49 f9 e8 3c d4 74 8c bd
       -0.039836086 -0.023249121 0.02843918 -0.06858221
000180 e2 5f 88 3c 71 a7 8a bd 07 29 20 bd 5b 1c 3b bc
       0.016647283 -0.06770218 -0.039101627 -0.011420335
000190 8d f7 3a bd cb 67 67 bd 38 4b 91 3d 49 02 d5 bd
       -0.04564624 -0.05649547 0.07094425 -0.104008265
0001a0 6f 36 7a bd 74 06 80 3c 55 78 4f 3b a9 00 1d 3d
       -0.06108707 0.015628077 0.0031657417 0.038330708
0001b0 be a7 eb 3c e2 c8 5f 3b ff b6 c8 3b 64 f1 66 3d
       0.02876651 0.0034146835 0.0061253305 0.05638255
0001c0 27 f5 4f bd 30 0e b8 bc f7 3d d9 bd aa 91 35 3c
       -0.050770905 -0.022467703 -0.10607522 0.011082092
0001d0 3e 43 58 bd 97 7a 9a bd b4 e3 09 bd f4 ff 49 3d
       -0.052798502 -0.075429134 -0.03366442 0.04931636
0001e0 09 45 82 3d 79 12 0d bd 91 49 80 3c 45 dd 53 bd
       0.06360824 -0.034441445 0.01566008 -0.05172469
0001f0 26 5f be 3d ff 92 cb 3d bd a7 8c bd bb 93 e1 bb
       0.09295492 0.09940147 -0.06867931 -0.006884066

sequential/dense_1/BiasAdd/ReadVariableOp f4 [26]
000000 5e bd c5 3d e2 de 7c ba 38 c0 a2 3c 18 80 b7 bd
       0.096552595 -0.0009646249 0.019867048 -0.08959979
000010 e7 ec 18 3e cf d7 37 3d 8b 27 cf bd f6 f7 45 3c
       0.14934121 0.044883545 -0.10114964 0.012083044
000020 a5 d2 79 3d e1 8d a5 bd 0d 9b 0a be 5e 2e b9 3c
       0.060991902 -0.08083702 -0.1353571 0.022605117
000030 8f f9 a4 bd ad 09 35 3e d5 9f 90 3c 56 c9 64 3d
       -0.08055412 0.17679472 0.017654339 0.05585607
000040 7c 28 39 3c 27 90 17 be 4c af ef bd f9 28 ff 3c
       0.011301156 -0.14801084 -0.11703357 0.031147467
000050 db a8 c4 3d 77 84 a4 bc a2 c5 66 be 35 ca 3f 3e
       0.09602519 -0.020082695 -0.22536328 0.1872948
000060 6c 8c 00 be 4c 7b 8f 3d
       -0.12553567 0.07005939

sequential/dense/MatMul f4 [128, 1152]
000000 85 b2 e0 3d ef 14 15 3c bf 59 0f 3d 3c d5 9e 3c
       0.1097155 0.009099229 0.034997698 0.019388787
000010 79 49 9e 3d 51 ef 03 bd de 1b 3b be c9 98 f3 3c
       0.077288575 -0.03221065 -0.18272349 0.02973594
000020 f3 29 42 bd a0 1f 89 3d 73 83 0c bd 6b 75 69 3d
       -0.047403287 0.06695485 -0.034305047 0.056996744
000030 ff 68 8d 3d 34 b4 34 3d 92 34 c1 3c aa da 51 3d
       0.06904792 0.044117168 0.023584638 0.051233925
000040 84 83 eb 3c 5b 06 92 bc 4e 60 e6 bc e8 0d 2d bd
       0.028749235 -0.017825296 -0.028122094 -0.04224959
000050 18 86 0c 3e e4 b5 b3 3c 15 cd b2 bc 99 10 06 be
       0.13723028 0.021937318 -0.021826306 -0.13092269
000060 88 1a 7b 3d a2 63 ba ba a3 71 df bd 53 8a 73 3e
       0.0613046 -0.0014220367 -0.10910346 0.23783235
000070 c7 f8 b2 3c 5d 94 01 3d 6f ab b0 3c fc c8 bd bd
       0.021847142 0.03163563 0.02156612 -0.0926685
000080 ac f9 d0 3d 6d fa 12 3e 75 91 bb bd 5f 60 64 bd
       0.10203871 0.14353342 -0.09158603 -0.05575597
000090 b5 65 ca 3d f2 dc 8e bc 6e 53 ad bd aa be c2 3d
       0.0988268 -0.01743934 -0.084631786 0.095090225
0000a0 32 53 5d 3d 58 da e8 3b 88 ef 74 bc 7b 5b 20 bc
       0.05403442 0.0071061067 -0.014949687 -0.009787436
0000b0 1d 0b d8 bb a7 08 ab 39 fc fc 75 3d 8d 81 75 bd
       -0.0065931217 0.00032622108 0.060055718 -0.059938002
0000c0 a6 95 1a bd f8 5b 17 3c a5 cc 1b be 14 3b 25 bd
       -0.037740372 0.009238236 -0.15214784 -0.040339544
0000d0 b3 72 d1 bb a6 39 0a 3e 14 86 ee 3b cf bb 98 3c
       -0.006391847 0.13498554 0.007279167 0.018644242
0000e0 ce 8e a3 bc 83 9a 04 be 11 59 02 3d 97 63 2b bd
       -0.019965556 -0.12949567 0.03182322 -0.041843023
0000f0 e8 c8 01 3e c0 ac a1 bc a8 68 db bc a3 21 a3 bd
       0.12674296 -0.019735694 -0.026783302 -0.079654
000100 72 e1 05 be e1 c3 9f 3d 88 d9 6d 3d 2a 35 0c bd
       -0.13074282 0.07801033 0.058068782 -0.03423039
000110 2c 30 d3 bd d3 93 99 bd 96 8b df 3c b2 8b 2d 3d
       -0.103119224 -0.07498898 0.02728824 0.042369552
000120 8a 6a b9 be 1d 48 1d 3e 49 84 96 3d f3 06 42 3e
       -0.36214095 0.1535954 0.0734945 0.18947963
000130 fd 01 28 be db e5 e8 bd 27 d5 95 bd 1f c2 da bd
       -0.16407008 -0.113719665 -0.07316046 -0.10681557
000140 d6 64 cc 3d 2b 92 0a bd af 55 15 3c 5e 7f 81 bc
       0.099801704 -0.033830803 0.009114667 -0.015807804
000150 32 25 a2 bd c2 61 10 be 04 bf 04 bb d1 8e 95 3d
       -0.07917251 -0.14099792 -0.0020255456 0.07302631
000160 ce e1 7a bc c4 eb be bd bc b3 bd bc d6 74 74 bd
       -0.015312625 -0.093223125 -0.023156993 -0.059681736
000170 6a 93 d8 bc 29 18 a0 3d 32 2c 8e bd 36 38 49 3a
       -0.02643748 0.07817108 -0.06942023 0.00076759176
000180 a8 58 27 bd 12 6f 28 3e 2d 81 4b bd 8c 67 31 be
       -0.040856034 0.1644862 -0.04968374 -0.17324656
000190 b0 28 87 3d c4 16 4a bd bb 81 d3 3d 52 ae 40 bd
       0.065995574 -0.049338117 0.103274785 -0.047041245
0001a0 81 a2 20 bd 5e da c4 bd d5 e4 d6 bd b9 a1 1d 3e
       -0.039217476 -0.09611963 -0.10492865 0.15393724
0001b0 1a e2 85 3e 33 e8 e0 3d 6e 78 02 be 87 a9 a4 bd
       0.26149064 0.109817885 -0.12741253 -0.08040147
0001c0 0b 94 b4 3c f7 69 9e bc cc 07 d0 3a 64 16 be bb
       0.022043249 -0.019337637 0.0015871464 -0.005801009
0001d0 96 8d a0 3c 07 03 24 3e 56 98 4c bd fe 02 30 3e
       0.019598763 0.1601678 -0.049949966 0.17188641
0001e0 5b 7f cc 3d 3e 10 13 3e 57 83 d2 3d e6 15 91 3d
       0.09985229 0.14361665 0.10278957 0.07084255
0001f0 3e 4e 16 3e e4 8b 32 3e c2 a8 ef bd 72 ca 2f bd
       0.14678285 0.17436177 -0.1170211 -0.042917676
000200 14 2d 4a be 75 0a 54 bb f8 f2 b3 3a cb ac d8 3d
       -0.19743758 -0.0032354866 0.0013729027 0.10579833
000210 ef ba 1a 3e 0d 94 7f 3d 7a b9 24 3e ae c5 d8 3d
       0.15110372 0.06239705 0.16086379 0.105845794
000220 56 81 01 bb be f7 b0 bd 09 0b 99 3d 9a db 0e 3b
       -0.0019760928 -0.08641003 0.07472808 0.0021798373
000230 15 db ce 3d 7a b8 ad bd 8f 1a a8 bc 8a f7 3d be
       0.1010038 -0.08482452 -0.020520477 -0.1855146
000240 56 d0 d8 bd 49 d0 0a 3e 1c e0 cb 3c b6 aa a0 3d
       -0.10586612 0.13556017 0.024887137 0.078450605
000250 62 3e 9c bd 7f 8f 3d 3d c9 1b 1c 3c f4 73 f3 bc
       -0.07629086 0.046279427 0.009528109 -0.029718377
000260 41 e1 97 bd 11 2d 00 bd e1 15 da bd 65 a0 66 3d
       -0.07416011 -0.03129298 -0.10648704 0.056305308
000270 18 d5 a7 bd 39 91 6d be f6 e1 06 3e 18 67 57 bc
       -0.08194941 -0.2319993 0.13172135 -0.013147138
000280 77 3d 1e 3d 7d 59 c6 3d 07 83 06 be 75 94 1b 3d
       0.038632836 0.09685037 -0.1313592 0.037983377
000290 e0 26 41 be 06 58 39 be f2 9c 0b 3e 39 ba fa 3c
       -0.18862486 -0.18099985 0.13634089 0.030606376
0002a0 9f 23 36 3d 83 b2 6a 3d 84 db ae 3c 9b f2 95 bd
       0.044467565 0.05729915 0.021344908 -0.07321664
0002b0 eb 77 06 3c 77 aa b7 bd 30 46 79 3d cd 1d d0 bd
       0.008207302 -0.089680605 0.06085795 -0.10161934
0002c0 c7 d4 dc 3d 20 5f e7 3d 15 c6 4b 3d 0d 74 e1 3d
       0.107827716 0.112974405 0.049749453 0.11008463
0002d0 87 d7 90 bd b2 8d f6 3d 9a 9a 17 be d2 34 fc bd
       -0.070723586 0.12038745 -0.1480507 -0.12314762
0002e0 8b 0f 56 3b 9d c2 59 3d 7b 39 92 bc 8b 7e 1d bc
       0.0032663073 0.053164113 -0.017849674 -0.00961269
0002f0 c0 4e cd 3a f8 50 4d 3d de 2f a4 bd 09 65 08 bc
       0.0015663728 0.050126046 -0.080169424 -0.00832487
000300 79 5c 0a be 00 42 e2 3d 04 58 da 3c 86 a1 03 be
       -0.13511838 0.11047745 0.026653297 -0.12854585
000310 cc 4b 24 be 3d eb ed bd 79 a1 a1 bc b2 21 dd bc
       -0.16044539 -0.11617134 -0.019730316 -0.026993606
000320 1c 1d 04 be e6 68 b5 bd a1 05 c1 3b b8 39 45 3e
       -0.1290173 -0.088578984 0.0058905636 0.19260299
000330 cb 50 3b be 78 58 da bc a3 d9 90 bd da 85 95 bd
       -0.18292539 -0.026653513 -0.07072761 -0.07300921
000340 4a 5d 89 bd b3 9c 4f 3c 41 89 0b be 69 9c 93 bc
       -0.067072466 0.012671637 -0.13626577 -0.018018918
000350 31 e3 2e bd 9a d4 6e bd cb 7f 86 bd e4 f8 0b 3b
       -0.042697135 -0.05830822 -0.06567343 0.0021358067
000360 c9 66 ec 3c 9d 10 0e bd aa 37 41 3d e4 5b ec ba
       0.028857606 -0.034683812 0.047172226 -0.0018032757
000370 dc 47 11 be 7c f8 74 bc 35 10 3f 3d b1 77 65 3d
       -0.14187568 -0.014951821 0.046646316 0.05602235
000380 7e d5 cc bc 26 ee c7 3d 85 21 f6 bd 88 44 4c be
       -0.025004145 0.0976222 -0.12018112 -0.19948018
000390 05 ce 34 be 68 70 14 3e 8f 46 08 3e 1c 51 8e bc
       -0.17656715 0.14496005 0.13308166 -0.01737266
0003a0 83 a2 41 bd 9b e0 3d be d5 af 7f bd 33 a7 b2 bd
       -0.047274124 -0.18542711 -0.062423546 -0.08723297
0003b0 d1 7f 83 bd 85 28 fb 3d 53 e3 66 bd be e1 78 bd
       -0.064208634 0.12263588 -0.056369137 -0.06076216
0003c0 35 b6 b9 3a 86 1e 33 3d 3a e2 9d 3d 1f 1a 6e bd
       0.0014168682 0.04373028 0.07709165 -0.05813038
0003d0 1f da 86 3d be c4 d1 3d a9 c6 68 bd 2f c8 f9 ba
       0.06584572 0.10242604 -0.056830082 -0.0019056852
0003e0 f2 3e fd bc 75 e0 ed 3c 23 a2 07 3d f1 5a 26 bc
       -0.030913804 0.029037694 0.03311361 -0.010153518
0003f0 16 1b c6 bc 61 80 25 3d c7 31 a7 3c cc 73 f6 3d
       -0.024182837 0.040405635 0.020409478 0.12033805

sequential/dense_1/MatMul f4 [26, 128]
000000 f2 c7 fa bd f4 90 28 3e 8d 81 44 be b1 a2 27 3e
       -0.12245168 0.16461545 -0.19190045 0.16370656
000010 e6 2c a3 3d 89 b5 ac 3d db 52 fd bd bf fb 33 3e
       0.07967548 0.084330626 -0.12369319 0.17576502
000020 05 46 1d 3e c2 67 8e be 94 b6 12 be 6c 92 cf bd
       0.15358742 -0.27813536 -0.1432746 -0.1013535
000030 7a 6d 32 3e 33 16 29 3e a2 8f 6c be 6b ef 0e be
       0.17424574 0.16512375 -0.23101667 -0.13958518
000040 ad 4b bd bc 2f 4e 96 bc b8 9a cf bd b7 0d 4c be
       -0.023107374 -0.018347828 -0.10136932 -0.19927107
000050 fb 38 d3 be 76 c2 10 be 01 ae 3b bc 2c 21 ca bd
       -0.4125441 -0.14136681 -0.01145506 -0.09869608
000060 9c 41 04 3e 78 c2 01 3e 21 6e 8f bd bd 35 1a 3e
       0.12915653 0.1267184 -0.07003427 0.15059562
000070 90 c4 28 3e 80 49 a4 bd 45 1d 92 be b3 ef 8c be
       0.16481233 -0.080218315 -0.28537956 -0.27526626
000080 6d c0 9f bc 6d 6a fa 3d 32 b1 36 3e e2 44 f1 3c
       -0.019500935 0.1222733 0.17841032 0.029451791
000090 19 c9 67 bd 2e 54 09 be cf 7d 87 be 7a dc 1d be
       -0.056588266 -0.13411018 -0.26463172 -0.15416136
0000a0 52 17 64 be 74 39 1d 3e 4b ff b8 be 75 33 4c 3e
       -0.22274521 0.15353948 -0.36132273 0.19941504
0000b0 5a 95 31 be 8f f7 7d be 2b f0 07 3e 02 7a 33 3e
       -0.1734213 -0.24801467 0.1327521 0.17527011
0000c0 cd 92 42 bd 68 94 93 3c 5b d1 b7 ba c7 ea 04 3e
       -0.04750328 0.018015102 -0.0014024185 0.12980185
0000d0 05 46 b5 be e8 ab 1b 3e e3 28 59 be 74 28 68 be
       -0.35404983 0.15202296 -0.21207003 -0.22671682
0000e0 d3 d3 35 3e f3 32 0f 3e 78 d3 23 be b2 43 93 bd
       0.17756586 0.1398428 -0.15998638 -0.07190646
0000f0 1f d7 07 3e 24 c5 10 3e 1a 5b 81 be b3 e4 67 3d
       0.13265656 0.14137703 -0.25264817 0.05661459
000100 eb cc a0 be 37 50 a9 be ab 14 e3 3d ff aa 20 3e
       -0.3140634 -0.33069012 0.110879265 0.1569023
000110 77 d3 f2 bd 9a d0 2c be d9 24 b9 bd fc 2a 4c 3e
       -0.1185674 -0.1687645 -0.09040231 0.19938272
000120 cb a6 44 be 8a 43 07 bf 7f b2 05 bc 9f 91 88 be
       -0.19204251 -0.5283743 -0.008160233 -0.266736
000130 66 44 f6 bd 3f 9f 83 be 44 5e 04 3e b2 0f 33 3e
       -0.12024765 -0.25707433 0.12926584 0.17486456
000140 bb 2e 16 bd df 90 82 be 13 45 c9 bd 13 9a cd 3d
       -0.03666566 -0.25501153 -0.09827628 0.10039153
000150 f9 96 43 be 2f 3e b0 be 37 76 9f 3d 82 22 0f 3e
       -0.1910056 -0.34422442 0.077862196 0.13978007
000160 4b 38 88 3c 2f ec b6 be 3e a8 df 3c c1 aa 26 3e
       0.016628405 -0.3572707 0.027301904 0.16276075
000170 c6 72 3c be 4e 3c 52 3e 98 6c 1d 3e f2 2f 74 3d
       -0.18403158 0.20530817 0.15373456 0.059616037
000180 80 fd dd 3d 81 77 b4 bd 1e 6e 3a bc 23 e6 3e be
       0.10839367 -0.08811856 -0.011378793 -0.18642478
000190 b5 c1 5b be b8 4d 5b be 02 17 19 be 24 28 02 be
       -0.21460612 -0.21416366 -0.14950183 -0.12710625
0001a0 11 ab 3a be cf 9a 0b 3e 2f 50 35 be 84 ef 0b 3e
       -0.18229319 0.13633274 -0.17706369 0.13665587
0001b0 52 aa c5 be bb 27 c1 be 3b 26 f5 bd 3e 36 18 3e
       -0.38606507 -0.37725624 -0.119701825 0.14864442
0001c0 ae e9 b0 bd de 9b dc be d7 cf cb be 17 42 f5 3d
       -0.08638321 -0.43087667 -0.39807007 0.11975496
0001d0 36 81 3b be 6b 21 0e 3e b8 58 97 be 40 68 33 3e
       -0.18311009 0.13879935 -0.29559875 0.17520237
0001e0 43 b2 d1 be 02 af 41 be ca 75 4a 3e 8f 9b b6 3d
       -0.40956315 -0.18914416 0.19771495 0.08916389
0001f0 69 47 24 3e 27 63 43 3d d5 5f 1c be a8 76 c1 be
       0.16042866 0.04770198 -0.15270932 -0.3778584
000200 76 88 21 3d 37 3e 45 3d 0d 3e 1d 3e 0c d0 1a 3d
       0.03943678 0.048155036 0.15355702 0.037796065
000210 1d 18 d2 3c 02 9d 14 bd 42 8b a2 bd f8 3b 18 3e
       0.025646264 -0.036282547 -0.079367176 0.14866626
000220 64 97 82 be a8 61 00 be fb c3 30 3e e0 93 fd 3d
       -0.25506127 -0.12537253 0.1726226 0.123817205
000230 59 06 59 3e 20 c1 c8 3d 61 5d b9 bd a6 ed 89 3d
       0.21193828 0.09802461 -0.09051014 0.06734781
000240 2a fc 27 be 42 e3 1f bd b7 b0 25 be b8 77 92 3c
       -0.16404787 -0.03903509 -0.16180693 0.017879352
000250 b6 18 3b be 8f cb ca be ad 6f 07 3e d9 fe b7 be
       -0.18271145 -0.39608428 0.13226195 -0.3593662
000260 8d 6f 42 3e a2 93 48 3e 1b f5 4b be 42 6d 2d 3e
       0.18987866 0.19587567 -0.19917719 0.1693621
000270 49 96 8a be ad 40 69 bc b1 86 32 bd e3 d1 11 3e
       -0.27067783 -0.014236611 -0.043585483 0.14240222
000280 e0 28 eb bb 28 0d 6f be 18 2c ce bd ce 6a a2 bd
       -0.0071765035 -0.23344862 -0.10067004 -0.079305276
000290 c0 f4 d5 be 52 7b b9 be 54 26 09 bd 36 e2 ed 3d
       -0.41788292 -0.36226898 -0.03348382 0.11615412
0002a0 b1 f0 3e be f7 b3 c5 3d 7a 21 5a be 20 6e 7f be
       -0.18646504 0.09653466 -0.21301833 -0.24944353
0002b0 ad c8 a1 bd 30 c2 d3 3d ba ee 39 be 5a d8 00 be
       -0.07899604 0.10339773 -0.18157473 -0.12582532
0002c0 be 0f 5a 3d 8b c1 93 bd 0d 00 49 be 95 7b 8e be
       0.05323767 -0.0721465 -0.19628926 -0.2782866
0002d0 2b 41 09 be e1 8d e5 be 4a 77 b2 bd 05 16 1f be
       -0.13403766 -0.44834808 -0.08714159 -0.15535744
0002e0 2b b4 cc be bb 38 32 be 70 25 46 be 20 94 9c 3d
       -0.39981207 -0.17404453 -0.19350219 0.0764544
0002f0 f4 83 fc 3d 1c 9b bb be 90 34 f3 36 36 6b 18 be
       0.123298556 -0.36641777 7.2480834e-06 -0.14884648
000300 9f 22 86 be 6c a5 f4 3d ed b7 ca 3d 49 01 1b 3e
       -0.2619829 0.11945614 0.09898362 0.15137209
000310 43 af 30 3d 70 05 23 be b5 3b f1 be 72 b2 c0 be
       0.043135893 -0.15920043 -0.47115865 -0.37636143
000320 13 f9 29 3e 1c 3e da bd 42 12 55 be 2b fa 84 3e
       0.1659892 -0.10656378 -0.20807746 0.25972113
000330 c0 6d 39 be 3f 12 08 3e c1 cd 71 be b4 cd 55 be
       -0.18108273 0.1328821 -0.23613645 -0.20879251
000340 88 78 bf 3d 91 93 3f 3e 2b ce 15 3e 03 26 a0 be
       0.093491614 0.18708636 0.14629428 -0.31279
000350 23 ab 64 be 58 81 92 bb 08 10 25 bb 51 42 25 3e
       -0.22330908 -0.0044709854 -0.0025186557 0.16138579
000360 fb c2 03 3c f6 4e 94 3d 3d b7 b6 bd f0 2b e7 3d
       0.008042092 0.07241623 -0.08921669 0.11287677
000370 e6 32 a6 3d 6d 73 75 be 34 4c cb 3d e0 9c d3 bd
       0.08115177 -0.23969813 0.09926644 -0.10332656
000380 75 53 b1 3d 58 48 92 3c 6c b7 15 be b6 4b fe be
       0.08658496 0.017856762 -0.14620751 -0.49667138
000390 50 5e b3 bd 2c 90 8e 3d 7f ec 53 be fc cb bc 3d
       -0.08758223 0.06961092 -0.20695685 0.092185944
0003a0 0a ba ce 3c a1 38 6d be 07 b9 ca be 2e 04 27 3e
       0.025235195 -0.23166133 -0.3959429 0.16310188
0003b0 32 15 6c 3d da a9 07 3e c9 89 4f 3d 67 84 27 3e
       0.0576374 0.13248387 0.05066851 0.16359101
0003c0 b2 b2 9e 3d 42 49 36 3e 76 1e 5b be 6d 35 bc be
       0.07748927 0.17801383 -0.21398339 -0.3675951
0003d0 5b 0c d7 bb cc 4b 8c be 92 7b 64 bd 89 14 a4 be
       -0.006562752 -0.27401578 -0.05578191 -0.32046917
0003e0 32 cf 19 3e 6e 9e 2e be 37 c6 21 be f5 94 5a be
       0.15020445 -0.17052624 -0.15798269 -0.21345885
0003f0 b6 2d 39 3e 50 dc 2b 3e bd c8 5b 3e d4 38 59 be
       0.18083844 0.16783261 0.21463294 -0.21213084
