data/az-models/az_handwritten_model.tflite (tflite, 553204 bytes, 12 tensors)

sequential/conv2d/BiasAdd/ReadVariableOp f4 [32]
0.15236214 -0.21783571 0.050002698 -0.12882575 -0.016404932 -0.5590158 0.053165786 -0.2522384
-0.4609381 0.49937034 0.022636691 0.11948574 0.2042735 -0.34233072 -0.007850963 0.56624657
-0.2000899 -0.5250089 -0.42842215 -0.23694462 -0.14956485 0.039147012 -0.13391504 -0.30635667
-0.40515026 -0.014626625 -0.03924612 -0.0050283168 -0.11866221 -0.1315168 -0.005746354 -0.35490578
00000000: d204 1c3e 5310 5fbe a1cf 4c3d e6ea 03be
00000010: a363 86bc a91b 0fbf 5ec4 593d 6425 81be
00000020: 1400 ecbe 78ad ff3e 9570 b93c f1b4 f43d
00000030: 132d 513e f945 afbe 53a1 00bc 89f5 103f
00000040: 5ee4 4cbe fc66 06bf 265a dbbe 9ca1 72be
00000050: 8727 19be 9e58 203d 0621 09be c8da 9cbe
00000060: db6f cfbe 83a4 6fbc 8ac0 20bd 94c4 a4bb
00000070: 2c05 f3bd 57ac 06be e94b bcbb 36b6 b5be

sequential/conv2d_1/BiasAdd/ReadVariableOp f4 [64]
-0.47941703 -0.12230223 0.31035402 -0.2372492 -0.13176256 -0.46505696 -0.009656382 0.104754135
-0.27582246 0.113619685 -0.40458056 -0.21328491 0.41599903 -0.19079721 -0.17213924 -0.13375452
-0.013297914 -0.16994037 -0.1514819 -0.2554238 -0.31874555 0.051348653 -0.66375697 -0.07622082
-0.18036042 0.01950396 -0.1285006 -0.09603442 -0.03548095 -0.043411087 -0.11408157 -0.13755928
-0.5316714 -0.02905334 -0.091635704 -0.17788467 0.11502234 -0.26841563 -0.12902628 -0.08280129
-0.23652256 -0.45441306 -0.029737923 0.21431884 0.023697713 -0.40687913 -0.28245175 -0.023145169
-0.2809114 -0.13356961 -0.38968426 -0.16762458 -0.50554806 -0.14578463 0.06590468 -0.109583855
-0.050010808 -0.5020766 -0.37176454 -0.23009123 -0.38740253 -0.44026887 -0.05368055 -0.12969656
00000000: 2676 f5be 9779 fabd b9e6 9e3e 74f1 72be
00000010: c4ec 06be f21b eebe cd35 1ebc 5689 d63d
00000020: 9a38 8dbe 70b1 e83d 2f25 cfbe 5c67 5abe
00000030: d3fd d43e 5860 43be 4545 30be f2f6 08be
00000040: 7edf 59bc d904 2ebe 121e 1bbe e9c6 82be
00000050: 9e32 a3be f752 523d faeb 29bf a919 9cbd
00000060: 67b0 38be c5c6 9f3c a995 03be b2ad c4bd
00000070: 7954 11bd d3cf 31bd 99a3 e9bd 57dc 0cbe
00000080: 9e1b 08bf 4501 eebc 80ab bbbd 6627 36be
00000090: d590 eb3d c66d 89be 771f 04be b993 a9bd
000000a0: f832 72be d4a8 e8be f29c f3bc 6676 5b3e
000000b0: b521 c23c 7652 d0be 849d 90be f09a bdbc
000000c0: 9ed3 8fbe 79c6 08be b284 c7be c7a5 2bbe
000000d0: 996b 01bf 9148 15be 08f9 863d 806d e0bd
000000e0: 22d8 4cbd 1888 00bf ec57 bebe 099d 6bbe
000000f0: a059 c6be ec6a e1be 23e0 5bbd 2dcf 04be

sequential/conv2d_2/BiasAdd/ReadVariableOp f4 [128]
-0.1301321 0.0988806 -0.12961519 -0.14434749 -0.035028554 -0.3366985 0.08383275 -0.10444001
-0.1986692 0.04007759 -0.29214576 -0.38591897 -0.09057197 -0.29247594 0.1308205 -0.23930094
-0.36175022 -0.16419241 -0.19742537 -0.34691188 -0.3493362 -0.2999351 -0.5359349 -0.097833775
-0.033115722 -0.12772481 -0.6124748 -0.16085435 -0.19679771 -0.38574648 -0.21721892 -0.266608
-0.109769665 -0.24284627 -0.35810795 -0.06669618 -0.31940907 0.071850404 -0.034503736 -0.24994954
-0.32910448 -0.15398903 -0.5150834 -0.05033077 -0.42727885 -0.29991922 -0.07231323 -0.041522115
-0.19034265 0.10518984 -0.038905997 -0.30014667 -0.268905 -0.16813391 -0.21849267 -0.19566213
-0.18532495 -0.23818901 -0.08837329 -0.23363957 -0.3449707 -0.19101404 0.031021932 -0.107152544
-0.20463935 -0.19064482 0.06282113 -0.35321435 0.025302097 -0.2691528 -0.57004136 -0.29227743
-0.20274149 -0.27431554 -0.12345507 -0.3744236 -0.20912169 -0.15283282 -0.21659459 -0.011483847
-0.4094216 -0.27715728 -0.29168868 -0.19417416 -0.10233302 -0.2529214 -0.3296579 0.18612848
-0.17458993 -0.2950186 -0.22980624 -0.03821572 -0.29842845 -0.31414843 -0.42886794 -0.28175387
-0.35999602 -0.46039197 -0.25299305 -0.45376843 0.17293198 0.00080828805 0.069742434 -0.35111827
-0.088378 -0.21025546 -0.07604485 0.25117525 0.17789854 -0.37945658 -0.45932063 -0.1666923
-0.3445951 -0.36762956 -0.006999448 0.050720923 0.20438842 -0.13147837 -0.359692 -0.28248572
-0.4022885 -0.54422873 -0.22237776 -0.060615867 -0.2879982 0.12623586 -0.4087759 -0.25097257
00000000: 5941 05be e981 ca3d d8b9 04be d4cf 13be
00000010: 1a7a 0fbd bf63 acbe 81b0 ab3d a5e4 d5bd
00000020: f06f 4bbe 6628 243d 2194 95be 2c97 c5be
00000030: cc7d b9bd 68bf 95be cff5 053e 4e0b 75be
00000040: 5337 b9be 0e22 28be e029 4abe 6f9e b1be
00000050: 32dc b2be 1891 99be 0833 09bf 135d c8bd
00000060: 5aa4 07bd 4bca 02be 26cb 1cbf 01b7 24be
00000070: 5785 49be 9080 c5be a36e 5ebe d880 88be
00000080: ebce e0bd b1ac 78be ed59 b7be 0298 88bd
00000090: 9689 a3be 4e26 933d ca53 0dbd c6f2 7fbe
000000a0: 6280 a8be 4daf 1dbe 81dc 03bf a327 4ebd
000000b0: 4bc4 dabe 038f 99be f518 94bd 1813 2abd
000000c0: 2fe9 42be c56d d73d e55b 1fbd d3ac 99be
000000d0: ebad 89be 4c2b 2cbe 8bbc 5fbe a75b 48be
000000e0: d3c5 3dbe d2e7 73be 0efd b4bd 363f 6fbe
000000f0: 00a0 b0be 2f99 43be b521 fe3c cb72 dbbd
00000100: fa8c 51be 6538 43be 5da8 803d 83d8 b4be
00000110: 5846 cf3c 65ce 89be 3bee 11bf 63a5 95be
00000120: 779b 4fbe 1673 8cbe 03d6 fcbd 73b4 bfbe
00000130: ff23 56be 3580 1cbe f9ca 5dbe bf26 3cbc
00000140: b59f d1be 8fe7 8dbe 3858 95be 97d5 46be
00000150: f993 d1bd ea7e 81be ecc8 a8be 7798 3e3e
00000160: b4c7 32be ae0c 97be 5452 6bbe 1688 1cbd
00000170: 9dcb 98be 10d8 a0be 9494 dbbe 0b42 90be
00000180: 6651 b8be 7fb8 ebbe 4e88 81be 5654 e8be
00000190: 1515 313e 4be3 533a 1fd5 8e3d c6c5 b3be
000001a0: 86ff b4bd 354d 57be 67bd 9bbd 0b9a 803e
000001b0: 092b 363e 2248 c2be 132c ebbe 63b1 2abe
000001c0: c56e b0be f139 bcbe a05b e5bb bec0 4f3d
000001d0: 334b 513e 44a2 06be 8d29 b8be f8a1 90be
000001e0: c2f8 cdbe 9352 0bbf ffb6 63be 5848 78bd
000001f0: 8074 93be f943 013e 134b d1be 7a7f 80be

sequential/conv2d/Conv2D f4 [32, 3, 3, 1]
-0.09170124 -0.06901324 0.0006040756 -0.03472199 -0.023693435 -0.10226888 0.06950904 -0.0061504925
-0.09032942 -0.08727281 -0.12849693 -0.26867393 -0.5897867 0.07139143 -0.1484527 -0.19795133
-0.024545478 -0.23922272 0.08426604 -0.026449962 -0.104196504 0.0068201274 -0.15280408 0.012556414
-0.120195255 0.023504073 0.07665603 -0.26589695 -0.018079028 -0.23953108 -0.34350815 0.17173204
-0.27268046 -0.10012518 -0.09722707 -0.18992615 -0.05321037 -0.2875749 -0.1399368 -0.4772697
0.12072617 0.14811833 -0.717958 -0.355407 -0.11993991 0.050356865 0.038115222 0.029910736
-0.02922684 0.030010074 -0.018982131 -0.104069 -0.11184957 -0.015034341 -0.20232384 0.11962547
-0.11378475 -0.17203535 -0.047701046 -0.3363938 -0.0023902813 -0.008652407 -0.28173983 0.022880424
-0.048082523 -0.12347367 0.03826638 0.036761224 -0.12692985 0.027131759 -0.03713996 -0.124996915
-0.07245726 -0.0580918 -0.062426396 -0.039355785 -0.018504582 -0.0131436745 0.041410174 0.04291175
0.025449753 -0.61201555 -0.1083522 0.050334536 -0.4036256 -0.004266215 0.058000185 0.014169101
-0.25203645 -0.04028002 0.016129399 0.086158425 -0.13265817 -0.11533869 0.04912189 -0.24249983
-0.16581652 -0.36536384 -0.6739217 -0.0872206 -0.0012482766 0.054798152 -0.2912793 -0.05865408
-0.02841306 0.008169092 -0.07349498 -0.16054699 -0.121736 -0.2158572 -0.24793246 -0.27208495
-0.19547862 -0.1903277 -0.032594346 -0.22012104 -0.21365388 -0.1095861 -0.0072690793 -0.13722306
-0.021831572 0.00023628445 -0.017985476 -0.12312869 -0.030206056 -0.043352842 -0.03329552 -0.16787946
-0.072248496 -0.076496445 -0.012728187 -0.1682605 -0.0031643312 -0.077553645 -0.20524076 0.03413013
-0.45436943 -0.41282994 -0.3494315 -0.3658883 -0.32474333 -0.20114873 -0.060445283 -0.5074816
-0.011417507 -0.5250375 -0.2914161 -0.23569795 0.019736921 0.07173182 -0.058715478 -0.1747534
-0.2640282 -0.0020628697 -0.16775164 -0.078245655 -0.16079319 -0.09502522 -0.057185214 -0.18128121
-0.0155728 -0.18134968 -0.04978687 -0.0122950645 0.05797669 -0.12511908 -0.0029255524 0.04823427
-0.06745281 -0.024068626 0.02624239 -0.13916078 -0.024586027 -0.037651118 0.00044018173 -0.060239773
-0.105920054 -0.15342885 -0.034919485 -0.03151823 -0.026747702 -0.0033909967 -0.21702895 -0.0018045141
-0.116177775 -0.061538626 -0.089264825 -0.031342458 -0.17247652 -0.017440604 -0.21634035 -0.009920336
-0.2351869 0.09322664 -0.2621635 -0.08957209 0.095464684 -0.039510284 -0.019825162 -0.06477094
-0.010096103 -0.13596274 -0.06658804 -0.02627758 -0.012382713 -0.00010561377 -0.0005493741 -0.094276
-0.09077845 -0.02825031 -0.099520616 -0.003907695 -0.03682085 -0.046626456 -0.030474175 -0.100423545
-0.16974215 -0.064357206 -0.16570294 -0.11320187 -0.0013463789 -0.16355655 -0.013872711 -0.11542116
-0.026053756 -0.0991122 -0.0928108 -0.0001445821 -0.10694974 -0.11797299 -0.04232301 -0.032756176
-0.002591189 -0.0774562 -0.00028327043 -0.33523887 -0.12993346 -0.04221645 -0.093134195 -0.16130422
-0.0025951164 -0.035067674 -0.23721096 -0.14251736 -0.019774044 -0.023805069 -0.029353922 -0.047195192
-0.0022501133 -0.14830774 -0.08905194 -0.041155614 -0.0077239443 -0.017140714 -0.012228042 -0.012768361
00000000: dccd bbbd d056 8dbd d45a 1e3a a538 0ebd
00000010: bc18 c2bc 5972 d1bd c15a 8e3d 128a c9bb
00000020: a2fe b8bd 16bc b2bd b394 03be a18f 89be
00000030: 43fc 16bf ac35 923d fc03 18be c1b3 4abe
00000040: 9913 c9bc cdf6 74be ac93 ac3d 97ad d8bc
00000050: fa64 d5bd 607b df3b ac78 1cbe 6bb9 4d3c
00000060: ee28 f6bd 9d8b c03c d6fd 9c3d a523 88be
00000070: 781a 94bc a347 75be 4de0 afbe 86da 2f3e
00000080: c69c 8bbe 6e0e cdbd fc1e c7bd 007c 42be
00000090: 1ef3 59bd 043d 93be 984b 0fbe b25c f4be
000000a0: 483f f73d 55ac 173e 18cc 37bf e8f7 b5be
000000b0: 0ea3 f5bd 0043 4e3d b51e 1c3d 5c07 f53c
000000c0: 206d efbc b0d7 f53c 6a80 9bbc 2122 d5bd
000000d0: 6311 e5bd 9952 76bc fb2d 4fbe 33fe f43d
000000e0: fb07 e9bd 092a 30be 2c62 43bd cf3b acbe
000000f0: 44a6 1cbb d3c2 0dbc 3440 90be ba6f bb3c
00000100: 2ef2 44bd c3df fcbd 35bd 1c3d f092 163d
00000110: e6f9 01be 6c43 de3c 1220 18bd 62fe ffbd
00000120: 7964 94bd abf1 6dbd d2b2 7fbd 8833 21bd
00000130: ec96 97bc 9158 57bc b79d 293d 3bc4 2f3d
00000140: 007c d03c 0dad 1cbf c2e7 ddbd 962b 4e3d
00000150: 04a8 cebe 9bcb 8bbb 9a91 6d3d 8425 683c
00000160: ec0a 81be aafc 24bd cd21 843c d473 b03d
00000170: 8bd7 07be b136 ecbd 0934 493d e051 78be
00000180: cecb 29be f810 bbbe 2286 2cbf b7a0 b2bd
00000190: 369d a3ba 0774 603d 8f22 95be 433f 70bd
000001a0: 81c2 e8bc a8d7 053c 8984 96bd 6e66 24be
000001b0: b950 f9bd ab09 5dbe 02e2 7dbe b84e 8bbe
000001c0: 8c2b 48be 44e5 42be a681 05bd 6967 61be
000001d0: 15c8 5abe ad6e e0bd 7531 eebb 3484 0cbe
000001e0: 20d8 b2bc 20c3 7739 4756 93bc e52a fcbd
000001f0: b172 f7bc c092 31bd e260 08bd 98e8 2bbe
00000200: 05f7 93bd 2baa 9cbd e389 50bc 7b4c 2cbe
00000210: ab60 4fbb 72d4 9ebd a22a 52be 09cc 0b3d
00000220: 1ca3 e8be 725e d3be b0e8 b2be b655 bbbe
00000230: c244 a6be eff9 4dbe 7995 77bd 50ea 01bf
00000240: 7f10 3bbc dc68 06bf 7e34 95be ce5a 71be
00000250: 53af a13c 22e8 923d a47f 70bd 8ef2 32be
00000260: b42e 87be 3631 07bb 16c7 2bbe 423f a0bd
00000270: f8a6 24be 959c c2bd 0b3b 6abd c8a1 39be
00000280: 0f25 7fbc bbb3 39be 51ed 4bbd 3d71 49bc
00000290: f778 6d3d 371f 00be a0ba 3fbb 4c91 453d
000002a0: b324 8abd 912b c5bc 48fa d63c 2a80 0ebe
000002b0: a368 c9bc 0f38 1abd 31c8 e639 fbbd 76bd
000002c0: 9dec d8bd 741c 1dbe bc07 0fbd 4219 01bd
000002d0: ff1d dbbc 7c3b 5ebb d63c 5ebe 7285 ecba
000002e0: 9dee edbd ed0f 7cbd 7ad0 b6bd f360 00bd
000002f0: af9d 30be 99df 8ebc 5388 5dbe e888 22bc
00000300: d6d4 70be 9ced be3d 4b3a 86be 9271 b7bd
00000310: fd82 c33d 89d5 21bd 6168 a2bc a0a6 84bd
00000320: 206a 25bc d139 0bbe 4f5f 88bd 1444 d7bc
00000330: dde0 4abc f67c ddb8 df03 10ba c713 c1bd
00000340: 0dea b9bd 326d e7bc 77d1 cbbd 1f0c 80bb
00000350: 76d1 16bd 62fb 3ebd faa4 f9bc dcaa cdbd
00000360: e3d0 2dbe b6cd 83bd 08ae 29be 62d6 e7bd
00000370: fb78 b0ba 5e7b 27be 5e4a 63bc ee61 ecbd
00000380: b06e d5bc 56fb cabd 9713 bebd f69a 17b9
00000390: 7708 dbbd d39b f1bd e45a 2dbd 572b 06bd
000003a0: f0d0 29bb 5ba1 9ebd ea83 94b9 6ea4 abbe
000003b0: 470d 05be 28eb 2cbd 24bd bebd ef2c 25be
000003c0: d412 2abb 1fa3 0fbd 6ee7 72be 12f0 11be
000003d0: 2dfd a1bc d902 c3bc a377 f0bc bf4f 41bd
000003e0: a376 13bb fcdd 17be dd60 b6bd ca92 28bd
000003f0: 2419 fdbb af6a 8cbc 2058 48bc 6332 51bc

sequential/conv2d_1/Conv2D f4 [64, 3, 3, 32]
-0.7381028 0.056110267 -0.2504293 -0.30749157 0.079108685 -0.11791501 0.17864528 -0.6834728
-0.22529435 -0.15550207 -0.051325772 -0.18542162 -0.9431821 -0.10775953 -0.06543887 -0.6868536
0.36904436 0.017095994 -0.18430485 0.016850533 0.04936879 -0.20437373 -0.026394827 0.03856345
-0.018919257 -0.15819113 0.10280567 -0.017038403 0.01002597 -0.06043605 -0.040495746 0.026965268
-0.16345945 -0.034987774 -0.14456783 0.03873784 -0.11277655 -0.042995013 -0.4067528 0.062797494
-0.1183139 -0.667036 0.3611731 -0.12596545 -1.122583 0.018012239 -0.011196284 -0.15575312
0.086831175 0.027383015 -0.81495446 -0.029201362 0.07289885 -0.38184068 -0.00922574 -0.00018715694
0.042689055 -0.17370173 -0.015425672 -0.22666532 0.06335467 -0.04279881 -0.14206669 0.026637087
-0.06937606 0.031260815 0.24233979 -0.12547617 -0.12534988 0.2158823 0.13141146 0.17295039
-0.044598322 -0.21768625 0.09024255 0.036616415 0.015987292 -0.051605344 0.105440065 0.15122749
-0.077600375 0.07628002 -0.20653798 0.06345582 0.11361396 -0.33710647 -0.050024655 -0.105262086
-0.07381354 -0.031696852 -0.008004776 -0.03006743 0.007856555 -0.006798232 -0.29953063 0.02458217
-0.42100638 -0.1144787 -0.5420094 -0.06401056 -0.20110637 0.13256778 -0.08649571 -0.08492687
-0.8526129 -0.13265426 -0.23975414 0.14762041 -0.9707904 -0.14480785 -0.0303824 -0.6473533
-0.05374352 0.034424517 -0.24610497 -0.09802428 -0.11366438 -0.18847138 0.00867657 -0.12282093
-0.1012573 0.0056874827 -0.15599309 -0.07292968 -0.056451924 0.042160414 -0.21048076 -0.12558384
-0.1468122 -0.19975151 -0.8692582 -0.037465274 -0.28077418 0.078923136 0.056943834 -0.08234418
-0.16549104 -0.44251806 -0.51651466 0.40102884 -0.8611106 0.041476145 0.043758668 -0.8863894
-0.062277056 -0.15066244 -0.10338819 -0.06857418 -0.08053686 -0.33836013 -0.078551896 -0.00617284
0.008621462 0.033876915 -0.08415897 -0.2571386 -0.05648954 -0.056277446 -0.26690534 -0.040902756
0.21347529 -0.25552467 -0.15726198 -0.26605025 0.20862906 -0.2059848 -0.37051973 -0.058603078
0.35955238 0.07672202 -0.1016935 -0.5591156 -0.644928 -0.07374087 0.0013918874 -0.25082973
-0.17565508 -0.2531065 0.0057220347 -0.04494546 -0.035264283 -0.3359798 -0.08841793 -0.0069144703
-0.0031255083 -0.013980094 0.004048316 -0.0352881 -0.090952404 -0.07624365 0.0135079725 -0.10427157
0.043668363 -0.22181165 -0.08996692 -0.23245497 -0.36703306 0.09779478 0.29960132 0.2020322
-0.135455 0.035307884 -0.12087012 0.03358767 -0.2844921 0.03586302 -0.12633008 0.5333247
0.10085853 0.14043307 0.049184572 -0.0061420123 -0.052515175 -0.07956248 0.059004676 -0.0018426781
-0.091208436 0.06960268 -0.036769476 -0.16852526 -0.05509125 0.014455189 -0.78438586 0.058852483
-0.6338442 0.21052563 -0.37064004 0.01966079 -0.4666651 0.08088155 0.27833533 -0.25592005
-0.06748391 0.1301055 -0.061518554 0.22053154 -0.560431 0.023514368 -0.10593741 -0.2758504
0.20637171 -0.10116091 -0.0146288555 -0.022317573 -0.19467555 -0.06846674 -0.070696615 -0.08829849
-0.010525755 0.044432018 -0.26321995 0.09475642 0.07384027 0.019716462 0.19672142 0.006434362
00000000: 4ef4 3cbf e1d3 653d 4538 80be 896f 9dbe
00000010: bc03 a23d 6d7d f1bd caee 363e 13f8 2ebf
00000020: 90b3 66be ef3b 1fbe f93a 52bd 2adf 3dbe
00000030: 6274 71bf 07b1 dcbd d004 86bd a3d5 2fbf
00000040: 62f3 bc3e e60c 8c3c 69ba 3cbe 210a 8a3c
00000050: ee36 4a3d 5947 51be f739 d8bc b5f4 1d3d
00000060: 8ffc 9abc dbfc 21be c78b d23d 1f94 8bbc
00000070: f743 243c cb8b 77bd dede 25bd 44e6 dc3c
00000080: ea61 27be 574f 0fbd 9709 14be 92ab 1e3d
00000090: 64f7 e6bd 8a1b 30bd e741 d0be f99b 803d
000000a0: 8f4e f2bd dfc2 2abf aeeb b83e 16fd 00be
000000b0: cdb0 8fbf 678e 933c 9e70 37bc bf7d 1fbe
000000c0: 8bd4 b13d 5852 e03c dba0 50bf b237 efbc
000000d0: fe4b 953d 9f80 c3be 8f27 17bc 8f3f 44b9
000000e0: b8da 2e3d dede 31be f5bb 7cbc f41a 68be
000000f0: 18c0 813d ce4d 2fbd ee79 11be 0536 da3c
00000100: 0915 8ebd 570b 003d ec27 783e d37c 00be
00000110: b85b 00be 4010 5d3e ba90 063e e819 313e
00000120: bbac 36bd 25e9 5ebe 16d1 b83d 18fb 153d
00000130: c8f7 823c 2060 53bd f6f0 d73d 61db 1a3e
00000140: f2ec 9ebd b338 9c3d b17e 53be 20f5 813d
00000150: 70ae e83d 3899 acbe a7e6 4cbd a693 d7bd
00000160: 8e2b 97bd 8fd4 01bd 7726 03bc f94f f6bc
00000170: c8b8 003c b4c3 debb 145c 99be 8c60 c93c
00000180: 268e d7be cf73 eabd 21c1 0abf f817 83bd
00000190: d4ee 4dbe d9bf 073e aa24 b1bd 24ee adbd
000001a0: d744 5abf 85d6 07be 1c82 75be ce29 173e
000001b0: b885 78bf 8248 14be 83e4 f8bc f2b8 25bf
000001c0: 2a22 5cbd b900 0d3d f102 7cbe f4c0 c8bd
000001d0: dfc8 e8bd a4fe 40be 2c28 0e3c 8a89 fbbd
000001e0: fd5f cfbd 105e ba3b a7bc 1fbe 285c 95bd
000001f0: 223a 67bd 66b0 2c3d 4588 57be 0d99 00be
00000200: f055 16be a98b 4cbe b587 5ebf 3075 19bd
00000210: a2c1 8fbe 74a2 a13d f03d 693d 11a4 a8bd
00000220: 7c76 29be ba91 e2be 4e3a 04bf a753 cd3e
00000230: bf71 5cbf e4e2 293d 4a3c 333d 6aea 62bf
00000240: 3a16 7fbd 4147 1abe 30bd d3bd 9f70 8cbd
00000250: 82f0 a4bd 8a3d adbe d1df a0bd 8945 cabb
00000260: 0841 0d3c 85c2 0a3d 8a5b acbd aca7 83be
00000270: 9361 67bd 2e83 66bd d1a7 88be a689 27bd
00000280: 4499 5a3e 21d4 82be 4909 21be bd37 88be
00000290: dba2 553e aeed 52be c3b4 bdbe c809 70bd
000002a0: 4017 b83e 6f20 9d3d af44 d0bd 3322 0fbf
000002b0: 001a 25bf 7405 97bd fe6f b63a c16c 80be
000002c0: edde 33be 2d97 81be e87f bb3b bb18 38bd
000002d0: 4871 10bd 8b05 acbe 7614 b5bd c892 e2bb
000002e0: 54d5 4cbb c40c 65bc bca7 843b 418a 10bd
000002f0: 4145 babd a125 9cbd 8b50 5d3c 558c d5bd
00000300: 99dd 323d 9822 63be 9440 b8bd ad08 6ebe
00000310: c2eb bbbe a148 c83d 5865 993e 87e1 4e3e
00000320: b7b4 0abe 009f 103d c18a f7bd 3a93 093d
00000330: f3a8 91be 1ae5 123d ac5c 01be f887 083f
00000340: eb8e ce3d b0cd 0f3e c375 493d ef42 c9bb
00000350: 271a 57bd a7f1 a2bd e3ae 713d 0486 f1ba
00000360: 7dcb babd da8b 8e3d 979b 16bd e391 2cbe
00000370: 5da7 61bd 75d5 6c3c 83cd 48bf 4d0f 713d
00000380: 9d43 22bf 0894 573e 88c4 bdbe aa0f a13c
00000390: baee eebe 3aa5 a53d f881 8e3e f407 83be
000003a0: 0135 8abd 603a 053e e1fa 7bbd 05d3 613e
000003b0: 6878 0fbf 34a1 c03c b6f5 d8bd 433c 8dbe
000003c0: 1b53 533e 742d cfbd dead 6fbc 58d3 b6bc
000003d0: 0759 47be 4a38 8cbd 63c9 90bd d7d5 b4bd
000003e0: 3774 2cbc 59fe 353d c4c4 86be a70f c23d
000003f0: 9139 973d 6b84 a13c 5771 493e 57d7 d23b

sequential/conv2d_2/Conv2D f4 [128, 3, 3, 64]
0.30781314 -0.091304146 -0.5537373 -0.7207037 -0.009431882 -0.073147945 -0.32287744 -0.34261355
0.11537624 -0.32334197 0.30528373 0.17576936 -0.8400507 -0.05218903 -0.054663446 -0.20994185
-0.14800838 0.048516955 -0.48599127 0.011363351 -0.22064309 -0.23755828 -0.26180723 -0.3313015
0.16429415 -0.4322373 -0.1994604 0.11021502 -0.12201982 -0.45936513 -0.06818731 0.39703903
-0.13704644 0.37145332 0.115352474 0.09788374 -0.18264282 -0.42215472 -0.04621641 -0.25401095
0.10568483 0.13944353 -0.0022525564 -0.17926651 0.27657187 0.044794302 0.14202768 -0.07755687
0.04918386 0.15107717 0.19357656 0.17007303 0.18046336 -0.025641404 -0.029642977 -0.010965004
0.02575728 -0.3079921 0.26502353 0.18292876 -0.15811917 0.25943 0.26590592 -0.24854694
0.25869215 0.1254998 -0.21141985 -0.13593502 0.0025090089 0.019713894 -0.19509684 -0.11897367
0.37105295 0.0957634 0.12797451 0.051331963 -0.111159205 -0.044930343 0.07469736 0.19850779
-0.62571853 -0.03661277 -0.3198314 -0.29059985 -0.4110074 -0.58226496 -0.4299484 -0.119695075
-0.0378789 0.20964478 0.4372451 0.02827451 -0.42380792 0.25606668 -0.33667716 0.04730487
0.17269242 -0.054520223 0.19084318 -0.18966053 0.316574 -0.08243306 0.3331504 -0.14505528
0.12521608 -0.33388573 -0.4117214 0.15904464 0.24583484 0.03751061 -0.18610746 0.1447212
-0.060860172 0.008667601 -0.4704302 0.34899396 0.3257753 -0.41380516 0.25321072 -0.1233369
-0.1183567 0.0023244438 0.055313848 0.083560586 0.17271693 -0.11144738 0.1056278 -0.00028506058
-0.23946127 0.09318284 -0.23764665 0.17312798 -0.49823904 -0.16524212 0.20126735 0.27372622
0.1817537 -0.00014206956 -0.045035955 -0.23293233 0.27461332 0.03326755 0.13926855 0.13545479
-0.3507557 -0.38600844 -0.29660955 -0.40383247 -0.7354968 -0.22739017 -0.1343599 -0.20796183
-0.5061424 0.20274857 -0.19720992 -0.0060911053 0.09285579 0.17415825 0.031682372 0.004576732
-0.31258407 -0.39612204 -0.027419858 -0.44651186 0.08379273 -0.20192541 -0.12618797 -0.44210914
-0.07844041 -0.014001708 -0.52393824 0.031227803 -0.22384045 0.040852588 -0.5198568 0.011835028
0.0031204766 -0.27109635 0.016650876 0.07694035 -0.10224794 -0.3000967 -0.09920708 0.0163484
0.15335707 0.34994325 0.25890115 -0.1691632 0.52693295 0.18268293 -0.20235796 -0.5944295
-0.048400387 0.3001176 0.20857896 0.007780798 0.2909866 0.23138687 -0.23634644 -0.38302
-0.006576725 0.1001787 -0.12578557 0.24098252 -0.3068377 -0.17635538 0.034839373 -0.08712242
-0.37507996 0.007824704 -0.10554213 0.012851104 0.19231725 -0.64882094 -0.12582976 0.15474057
0.042936735 0.015552512 -0.015397567 -0.04263788 -0.15077873 0.07119934 -0.15836564 -0.058847122
0.0857559 0.23346567 0.18045428 -0.017093826 -0.0281863 -0.05609501 0.02374044 0.031053679
0.19847733 0.065504566 -0.15232706 0.20298225 -0.1529712 0.30115807 -0.0829662 0.060968235
0.11881958 -0.0132217705 0.028985346 -0.07628266 -0.1329017 0.14425619 0.13606218 0.16356176
0.018295864 -0.18923333 -0.16056702 0.20998219 -0.46287623 0.6151114 -0.15658146 0.062004972
00000000: af99 9d3e abfd babd bac1 0dbf 0a80 38bf
00000010: 2e88 1abc 97ce 95bd 3150 a5be 0b6b afbe
00000020: 614a ec3d 148d a5be 264e 9c3e e2fc 333e
00000030: 900d 57bf 2ac4 55bd c7e6 5fbd fffa 56be
00000040: 828f 17be b7b9 463d d9d3 f8be 592d 3a3c
00000050: 43f0 61be 7a42 73be 990b 86be 5aa0 a9be
00000060: ba3c 283e 354e ddbe 593f 4cbe 6ab8 e13d
00000070: 87e5 f9bd e831 ebbe caa5 8bbd b348 cb3e
00000080: e755 0cbe 212f be3e eb3d ec3d 4577 c83d
00000090: b806 3bbe aa24 d8be 6b4d 3dbd b90d 82be
000000a0: 4a71 d83d 49ca 0e3e a09f 13bb a491 37be
000000b0: d49a 8d3e 3b7a 373d b46f 113e 23d6 9ebd
000000c0: 0475 493d f9b3 1a3e ef38 463e a027 2e3e
000000d0: 63cb 383e ec0d d2bc d4d5 f2bc 8fa6 33bc
000000e0: ee00 d33c 24b1 9dbe 2ab1 873e ad51 3b3e
000000f0: fee9 21be 02d4 843e d224 883e 1783 7ebe
00000100: 4c73 843e 0583 003e 727e 58be 8d32 0bbe
00000110: 2f6e 243b 087f a13c 77c7 47be 78a8 f3bd
00000120: a7fa bd3e 9a1f c43d c00b 033e 7741 523d
00000130: 70a7 e3bd e108 38bd eefa 983d a045 4b3e
00000140: 172f 20bf 46f7 15bd f1c0 a3be 81c9 94be
00000150: 906f d2be 510f 15bf 3222 dcbe b122 f5bd
00000160: e826 1bbd 1fad 563e 97de df3e f29f e73c
00000170: 5afd d8be 2c1b 833e f360 acbe c0c2 413d
00000180: 48d6 303e 9950 5fbd 656c 433e 5f36 42be
00000190: fd15 a23e aad2 a8bd b092 aa3e 5f89 14be
000001a0: a538 003e 12f3 aabe 26cd d2be 99dc 223e
000001b0: 21bc 7b3e baa4 193d f492 3ebe cb31 143e
000001c0: 8448 79bd 8e02 0e3c 3adc f0be 56af b23e
000001d0: 05cc a63e 45de d3be d6a4 813e 0e98 fcbd
000001e0: ff64 f2bd b255 183b c690 623d d021 ab3d
000001f0: b5dc 303e 863e e4bd 6353 d83d 2f74 95b9
00000200: 5635 75be a5d6 be3d a559 73be 7648 313e
00000210: 3019 ffbe 3b35 29be 0719 4e3e d825 8c3e
00000220: a41d 3a3e 82f8 14b9 9f77 38bd d085 6ebe
00000230: 1e9a 8c3e 8e43 083d 6a9c 0e3e a9b4 0a3e
00000240: 4096 b3be e6a2 c5be 35dd 97be 21c3 cebe
00000250: 8549 3cbf f8d8 68be a495 09be f2f3 54be
00000260: 8c92 01bf 529d 4f3e 66f1 49be e597 c7bb
00000270: 2d2b be3d 8a56 323e 60c5 013d 69f8 953b
00000280: 050b a0be 82d0 cabe 9c9f e0bc 349d e4be
00000290: 869b ab3d 89c5 4ebe 6b37 01be 215c e2be
000002a0: 5ea5 a0bd 6b67 65bc d120 06bf 73d1 ff3c
000002b0: 6e36 65be 0b55 273d 5615 05bf b5e7 413c
000002c0: e980 4c3b 24cd 8abe 6b67 883c e792 9d3d
000002d0: 5e67 d1bd 46a6 99be 152d cbbd 14ed 853c
000002e0: a309 1d3e c32b b33e b18e 843e 1e39 2dbe
000002f0: 14e5 063f 3c11 3b3e ed36 4fbe 882c 18bf
00000300: 7c3f 46bd 04a9 993e b995 553e 10f6 fe3b
00000310: 32fc 943e aef0 6c3e cd04 72be 331b c4be
00000320: 9181 d7bb 7e2a cd3d efcd 00be 1fc4 763e
00000330: d519 9dbe 8196 34be bbb3 0e3d 3d6d b2bd
00000340: 7b0a c0be 3033 003c 7926 d8bd 708d 523c
00000350: d0ee 443e 2119 26bf 84d9 00be 5074 1e3e
00000360: 6ede 2f3d f7cf 7e3c 1446 7cbc 0fa5 2ebd
00000370: bd65 1abe f6d0 913d 9a2a 22be ae09 71bd
00000380: caa0 af3d a011 6f3e 02c9 383e 5a08 8cbc
00000390: f5e6 e6bc e2c3 65bd 507b c23c 4964 fe3c
000003a0: a43d 4b3e 4227 863d a0fb 1bbe 94da 4f3e
000003b0: 7ba4 1cbe 6431 9a3e 2fea a9bd d4b9 793d
000003c0: ae57 f33d 20a0 58bc ad72 ed3c 153a 9cbd
000003d0: 6217 08be e5b7 133e e253 0b3e bc7c 273e
000003e0: 35e1 953c 62c6 41be ae6b 24be 9205 573e
000003f0: 1dfe ecbe f177 1d3f e456 20be edf8 7d3d

sequential/dense/BiasAdd/ReadVariableOp f4 [64]
-0.4698875 -0.4317338 -0.44250134 -0.004303555 -0.35488054 -0.39481562 -0.37196085 -0.0798566
-0.48738554 -0.26722857 -0.5077939 -0.07229259 0.23175022 -0.46774286 0.06702801 0.2682106
0.08984906 -0.59291744 0.3254028 -0.42850482 -0.40240812 -0.28705576 -0.61573154 0.108143225
-0.51501656 0.04204986 0.017308882 -0.27016154 -0.4564689 -0.45562696 0.12776165 -0.07471734
0.046944633 0.025513906 -0.1046552 -0.46575907 -0.4864752 -0.43807626 -0.40006277 -0.07876134
-0.45326814 0.38254023 0.19589658 -0.5148971 -0.55601394 -0.04150078 0.07394411 0.09229964
-0.15838782 -0.64261276 0.14433773 -0.060201686 0.062073104 -0.11770049 0.16837992 -0.5089041
-0.20787801 0.122066356 -0.25527865 -0.63334364 -0.30567697 -0.10430966 -0.54727936 -0.40467396
00000000: 1895 f0be 360c ddbe 898f e2be d604 8dbb
00000010: e7b2 b5be 4625 cabe a771 bebe db8b a3bd
00000020: 998a f9be 2fd2 88be c8fe 01bf 230e 94bd
00000030: ee4f 6d3e fe7b efbe fb45 893d e652 893e
00000040: c902 b83d 70c9 17bf 329b a63e fc64 dbbe
00000050: 7008 cebe f9f8 92be 95a0 1dbf 327a dd3d
00000060: 20d8 03bf 793c 2c3d 5bcb 8d3c 9d52 8abe
00000070: 4bb6 e9be f047 e9be f3d3 023e 6805 99bd
00000080: 0449 403d 8a02 d13c 7755 d6bd f977 eebe
00000090: 4713 f9be 884b e0be 07d5 ccbe a04d a1bd
000000a0: c312 e8be 50dc c33e 1d99 483e 4cd0 03bf
000000b0: ee56 0ebf b9fc 29bd 0270 973d 9807 bd3d
000000c0: 6b30 22be 4582 24bf 45cd 133e 0b96 76bd
000000d0: 5e40 7e3d f40c f1bd c96b 2c3e 8a47 02bf
000000e0: f9dd 54be edfd f93d e2b3 82be cf22 22bf
000000f0: b181 9cbe 4ea0 d5bd 801a 0cbf 6d31 cfbe

sequential/dense_2/BiasAdd/ReadVariableOp f4 [26]
0.1275988 -0.027313944 0.18956745 -0.3336451 0.3864703 -0.042973865 0.1348028 0.00061504915
-0.20781793 -0.04113458 -0.24789576 -0.055952124 -0.52471614 0.27714264 0.21787773 0.08416673
0.15750597 -0.5501807 -0.13195485 0.29577518 -0.04403098 -0.5029737 -0.2596587 -0.22950287
0.13998349 0.082917765
00000000: 43a9 023e 7ec1 dfbc f81d 423e 88d3 aabe
00000010: 6fdf c53e 5d05 30bd bf09 0a3e 403b 213a
00000020: 39ce 54be bc7c 28bd 63d8 7dbe 0e2e 65bd
00000030: cc53 06bf a4e5 8d3e 571b 5f3e 9b5f ac3d
00000040: 3f49 213e a4d8 0cbf 2c1f 07be d86f 973e
00000050: d459 34bd e2c2 00bf fcf1 84be cd02 6bbe
00000060: d557 0f3e cad0 a93d

sequential/dense_1/BiasAdd/ReadVariableOp f4 [128]
-0.037823595 -0.18189785 -0.25866187 -0.1506596 -0.044863388 -0.14078565 -0.2622206 -0.37277833
-0.42987874 -0.30826038 0.13585289 -0.33873647 -0.27648923 -0.15635468 -0.1930988 -0.4409384
-0.09402907 -0.25330687 0.093121946 -0.23309375 -0.17405674 -0.06659383 -0.32625324 -0.21658294
-0.28856072 -0.07267018 -0.25065798 -0.34644458 -0.47335842 -0.4718328 -0.06901232 -0.23630022
-0.3111507 0.027895942 -0.287391 -0.109823816 -0.20841727 -0.3659593 -0.45420653 -0.42616466
-0.33125484 -0.19785671 -0.21061262 -0.3891146 -0.13231874 -0.25366664 -0.22496432 -0.32538974
-0.4139208 0.010969976 -0.28943035 -0.11615722 -0.25650704 -0.4384707 -0.12939282 -0.17948392
-0.28812623 -0.23863788 -0.21733698 -0.48721403 -0.017959742 -0.09071832 -0.19204411 -0.35727036
0.013730462 -0.28980765 -0.5776208 -0.4856392 -0.048224475 -0.27173772 -0.18903399 0.13205773
-0.105321005 -0.33770782 -0.3369677 -0.25653917 -0.3616195 -0.4146779 -0.3488461 -0.41400558
-0.2827593 -0.30088428 -0.23432851 -0.4258702 -0.20332596 -0.29901287 -0.4635709 0.052028
-0.19810921 -0.23231669 0.22961965 -0.25378954 -0.23108199 -0.27673137 -0.26030773 -0.41560683
-0.2681115 -0.070699684 -0.21520768 -0.24412745 -0.16374932 -0.23943123 -0.48155373 -0.33397034
-0.28457108 -0.42671317 -0.5675104 -0.18920965 -0.04562718 -0.591712 -0.28727856 -0.29195827
-0.2837885 -0.15356998 -0.2504944 -0.1726091 -0.43292075 -0.0713007 0.019714864 -0.54254603
-0.41148585 -0.4010106 -0.33776894 -0.1885578 -0.30399796 -0.18835892 0.01258416 -0.45061627
00000000: eaec 1abd 6e43 3abe 546f 84be 8346 1abe
00000010: acc2 37bd 1d2a 10be c741 86be cddc bebe
00000020: 1119 dcbe 4ed4 9dbe 051d 0b3e de6e adbe
00000030: ff8f 8dbe 711b 20be b1bb 45be aec2 e1be
00000040: 5092 c0bd 70b1 81be b8b6 be3d 21b0 6ebe
00000050: ee3b 32be 5962 88bd aa0a a7be ebc7 5dbe
00000060: 3bbe 93be 1ad4 94bd 3e56 80be 2f61 b1be
00000070: 095c f2be 1294 f1be 5556 8dbd aff8 71be
00000080: 254f 9fbe 0886 e43c ea24 93be 4feb e0bd
00000090: 566b 55be 045f bbbe c28d e8be 4132 dabe
000000a0: 3c9a a9be f39a 4abe d6aa 57be 073a c7be
000000b0: 907e 07be 98e0 81be 0c5d 66be 7c99 a6be
000000c0: 6ded d3be 6abb 333c 3730 94be d6e3 edbd
000000d0: e454 83be 3b7f e0be 8d7f 04be a2ca 37be
000000e0: 4885 93be 7d5d 74be 968d 5ebe 1e74 f9be
000000f0: 4f20 93bc 87ca b9bd 36a7 44be 24ec b6be
00000100: bbf5 603c ab61 94be f5de 13bf b4a5 f8be
00000110: 0787 45bd 3521 8bbe 2092 41be 243a 073e
00000120: 8ab2 d7bd 0ae8 acbe 0887 acbe 1a59 83be
00000130: 3126 b9be a950 d4be f59b b2be 8af8 d3be
00000140: d4c5 90be 810d 9abe d0f3 6fbe a90b dabe
00000150: ae34 50be 3718 99be 2a59 edbe 501b 553d
00000160: 24dd 4abe 6de4 6dbe 6a21 6b3e b4f0 81be
00000170: c2a0 6cbe bcaf 8dbe 0e47 85be 6bca d4be
00000180: e945 89be ffca 90bd 675f 5cbe 8cfc 79be
00000190: e7ad 27be 762d 75be 368e f6be 29fe aabe
000001a0: 4db3 91be 267a dabe 5d48 11bf 2dc0 41be
000001b0: 91e3 3abd 707a 17bf 2d16 93be 8e7b 95be
000001c0: ba4c 91be 7341 1dbe cd40 80be 71c0 30be
000001d0: caa7 ddbe 1a06 92bd 1181 a13c 4ce4 0abf
000001e0: 46ae d2be 4351 cdbe 0df0 acbe 4c15 41be
000001f0: 9fa5 9bbe 29e1 40be cb2d 4e3c 2db7 e6be

sequential/dense/MatMul f4 [64, 512]
-0.4015364 0.13927096 0.48962966 0.3710049 0.20401208 0.14720741 0.10658192 -0.11325447
-0.25833356 -0.1630248 0.0061287642 0.00599578 0.2845641 0.13800997 0.10670919 -0.11212919
0.4103971 0.01443464 0.0992895 0.14586753 -0.02579666 0.0746856 0.29090858 -0.16255483
0.15036823 0.0019476507 0.18668574 -0.08965015 0.19559884 -0.05776909 -0.086318485 0.45029446
0.15442319 0.14357147 0.29236135 -0.04714685 0.64110565 -0.14008382 0.011971283 0.2191634
-0.026189292 0.18428795 -0.062100884 0.27756196 0.32262862 0.17111596 -0.16214955 -0.07051106
-0.0567784 -0.13324142 -0.06464652 0.10120656 -0.19961567 -0.08552154 -0.08919628 0.159899
0.1375891 -0.33228993 -0.16732515 -0.12883726 0.4612212 0.044210143 -0.103992335 -0.13431302
0.12539117 0.2146599 -0.2633111 0.1227158 -0.23121877 0.038925547 0.30580086 0.3116101
-0.15985656 -0.09917772 -0.071886644 -0.1646066 -0.18058312 -0.21836889 -0.006185219 -0.38070628
0.104344055 0.3070122 -0.27247784 0.07373615 0.2157765 0.14584225 0.09347321 0.015775291
-0.16488175 0.69232005 0.2122898 0.4238042 0.05013656 -0.06066213 0.20834288 0.048543498
0.049027454 -0.16465689 0.056794137 -0.1300385 0.34411785 0.2718872 -0.2933787 -0.1094566
0.23868391 0.18194059 -0.15537852 0.025895054 -0.18107131 0.15411821 0.2610595 0.2031322
0.03319237 0.25832313 -0.18327694 -0.119385794 -0.20104572 0.45972556 -0.13174835 0.08414877
0.21853678 0.23040552 0.022984566 0.11095983 0.04083367 -0.14354719 0.06850452 0.016931783
0.09652727 0.44544736 0.4235838 0.102854535 0.073310874 0.10209953 0.040380962 0.29636133
-0.051661693 0.016407344 -0.33298272 0.019852338 -0.20386286 0.24085481 -0.094871394 0.016919151
-0.0038670886 -0.3561712 0.025444292 0.03602483 0.23661938 0.090392925 0.028772721 -0.08150687
0.05724678 -0.1935925 0.20578508 0.033098593 -0.011603606 -0.5330277 0.08518067 0.15868324
-0.08932389 0.16496705 0.11113404 0.598516 -0.06895814 0.11275944 0.08781919 -0.12716031
0.06195631 -0.19935475 0.305867 0.124841854 0.39767072 -0.084546596 -0.047428217 -0.29152453
0.14351578 0.1013642 -0.102623 -0.00083300215 -0.015491853 0.4414728 0.054127324 -0.083131365
-0.16354066 -0.20461026 0.1944331 -0.17699513 0.063723974 -0.20907184 -0.31730133 -0.1845717
0.06290455 -0.024460932 -0.09500544 0.8523623 -0.061198384 0.43774867 0.46338284 0.2652623
0.12025604 0.21817373 0.17227001 0.18415609 0.24494374 0.23501858 0.27135667 0.21545638
0.06569799 0.1792547 -0.043250646 0.23752235 -0.05879376 -0.011983271 0.25785774 0.13462348
-0.27711287 0.15080741 0.11759904 0.0598473 0.18270724 -0.12637335 -0.013072734 0.04692379
0.14078188 0.10775382 0.17051291 0.22491519 0.14002684 0.05654007 -0.05265057 -0.19964862
0.14120543 0.2786159 0.19052932 -0.23826614 0.19344641 -0.34557426 -0.056508668 0.37845156
0.14872022 0.20519228 -0.14007509 -0.11258755 0.1048441 0.39059275 -0.22262704 -0.39880785
-0.015597982 0.051558882 0.18304728 0.23046201 -0.047281742 0.17065483 0.12004705 0.028737467
00000000: 2e96 cdbe 0c9d 0e3e bdb0 fa3e 5bf4 bd3e
00000010: 8be8 503e 8abd 163e 9f47 da3d f6f1 e7bd
00000020: 4c44 84be f9ef 26be cdd3 c83b 4078 c43b
00000030: 63b2 913e 7c52 0d3e 598a da3d fda3 e5bd
00000040: 921f d23e 457f 6c3c 4b58 cb3d 4c5e 153e
00000050: 8453 d3bc c4f4 983d f8f1 943e c674 26be
00000060: 21fa 193e 5048 ff3a 8c2a 3f3e 7f9a b7bd
00000070: 104b 483e 489f 6cbd bfc7 b0bd ff8c e63e
00000080: 1d21 1e3e 6604 133e 63b0 953e 0e1d 41bd
00000090: 801f 243f 2272 0fbe 3323 443c 5f6c 603e
000000a0: ed8a d6bc fbb5 3c3e 7f5d 7ebd 9a1c 8e3e
000000b0: 942f a53e 0639 2f3e 880a 26be 1a68 90bd
000000c0: 7890 68bd 7070 08be 6565 84bd 6345 cf3d
000000d0: 0d68 4cbe eb25 afbd 8aac b6bd 90bc 233e
000000e0: 28e4 0c3e e821 aabe 4957 2bbe eaed 03be
000000f0: 2f25 ec3e b215 353d eff9 d4bd 5a89 09be
00000100: 8b66 003e cecf 5b3e b6d0 86be 6c52 fb3d
00000110: 9dc4 6cbe 6570 1f3d ee91 9c3e 5c8b 9f3e
00000120: 70b1 23be b01d cbbd 4e39 93bd a28e 28be
00000130: c8ea 38be 189c 5fbe 61ad cabb efeb c2be
00000140: 56b2 d53d b430 9d3e 3782 8bbe fb02 973d
00000150: 84f4 5c3e ac57 153e e26e bf3d 2f3b 813c
00000160: c3d6 28be e33b 313f 7f62 593e ddfc d83e
00000170: fe5b 4d3d db78 78bd d657 553e 8cd5 463d
00000180: 03d1 483d d19b 28be f8a0 683d d028 05be
00000190: 3730 b03e cd34 8b3e bc35 96be c82a e0bd
000001a0: 8e69 743e a24e 3a3e 8c1b 1fbe dd21 d43c
000001b0: c26a 39be 2ad1 1d3e 97a9 853e e301 503e
000001c0: b9f4 073d ee42 843e f3ac 3bbe 8a80 f4bd
000001d0: eede 4dbe 2661 eb3e 0ae9 06be 3156 ac3d
000001e0: 1bc8 5f3e 6def 6b3e 214a bc3c e83e e33d
000001f0: 3541 273d 09fe 12be 194c 8c3d 86b4 8a3c
00000200: 17b0 c53d ad11 e43e fadf d83e 66a5 d23d
00000210: 0324 963d 8f19 d13d 8266 253d acbc 973e
00000220: 369b 53bd b268 863c b67c aabe 5fa1 a23c
00000230: 6dc1 50be a5a2 763e ef4b c2bd 089a 8a3c
00000240: fb6e 7dbb 125c b6be 8c70 d03c c68e 133d
00000250: 5a4c 723e ed1f b93d c5b4 eb3c 13ed a6bd
00000260: 997b 6a3d 1d3d 46be 53b9 523e 6492 073d
00000270: 0d1d 3ebc 8174 08bf 3473 ae3d dc7d 223e
00000280: 72ef b6bd 1fed 283e 3e9a e33d 5838 193f
00000290: ed39 8dbd 6cee e63d 8cda b33d 5036 02be
000002a0: e6c5 7d3d a723 4cbe 999a 9c3e 16ad ff3d
000002b0: 7f9b cb3e c426 adbd 1744 42bd b442 95be
000002c0: cdf5 123e 0998 cf3d 022c d2bd d45d 5aba
000002d0: 8ad1 7dbc b908 e23e 9db4 5d3d c740 aabd
000002e0: 3477 27be 5a85 51be 7819 473e 363e 35be
000002f0: b781 823d ee16 56be 5275 a2be 5d00 3dbe
00000300: 1ad4 803d 4b62 c8bc 3692 c2bd 6a34 5a3f
00000310: 28ab 7abd 9820 e03e 8440 ed3e 76d0 873e
00000320: cc48 f63d ef68 5f3e 8d67 303e 6a93 3c3e
00000330: 88d2 7a3e b6a8 703e 43ef 8a3e 99a0 5c3e
00000340: ab8c 863d 8b8e 373e 9727 31bd 0f39 733e
00000350: bad1 70bd 7b55 44bc ee05 843e bdda 093e
00000360: bde1 8dbe 426d 1a3e c4d7 f03d 7122 753d
00000370: 9b17 3b3e 0468 01be 052f 56bc 2933 403d
00000380: 2029 103e 09ae dc3d f09a 2e3e 2b50 663e
00000390: 3263 0f3e 8f96 673d 20a8 57bd b070 4cbe
000003a0: 2898 103e bea6 8e3e 1e1a 433e 0afc 73be
000003b0: d116 463e 1cef b0be a275 67bd 67c4 c13e
000003c0: 1d4a 183e ed1d 523e d86f 0fbe 4d94 e6bd
000003d0: 81b8 d63d c6fb c73e 58f8 63be 8b30 ccbe
000003e0: ae8e 7fbc 682f 533d bf70 3b3e 3cfe 6b3e
000003f0: 80aa 41bd 24c0 2e3e 3adb f53d d66a eb3c

sequential/dense_1/MatMul f4 [128, 64]
0.08703655 -0.24092928 0.10278143 -0.20288232 -0.0737135 0.15780075 0.040448606 -0.03383725
-0.021159088 0.25804648 -0.0523899 -0.09151435 -0.35893032 0.20896836 -0.1734302 -0.16943988
-0.08820716 0.06309148 0.0075271223 -0.08584883 0.20385616 0.10517651 0.14054671 0.03145184
0.17515342 -0.35008883 0.066979416 0.053900704 0.10855218 0.14669433 -0.035273578 0.008086007
-0.05212861 0.15749823 0.21590476 0.09209116 0.3235938 -0.0045260047 0.28757703 -0.01667088
0.2542976 -0.015034937 0.09935294 -0.06616134 0.10282833 0.0725719 -0.29995108 0.025463838
-0.10482486 -0.10456921 -0.02148945 0.20026049 0.07872095 0.063972436 -0.27190435 0.22907262
-0.13858196 -0.041451667 -0.09923822 -0.0075546023 0.10359289 -0.13619184 -0.0541706 0.27008235
0.064538755 -0.1599253 0.09692927 -0.20114565 0.15349235 0.00868799 0.059265953 -0.10009128
0.19372709 0.09888673 0.058680557 -0.121238075 -0.27404004 0.113165446 0.006590734 -0.08506878
6.460546e-05 0.054640494 -0.14408354 0.2039159 -0.10997017 -0.08434899 -0.038535457 -0.4371136
0.17273457 -0.36079848 -0.008724982 0.14584973 0.20368022 -0.23534845 -0.38023308 -0.07664943
-0.153854 -0.28672385 0.028354755 0.17729963 0.1439182 -0.032167252 -0.017599765 -0.11431235
0.04766564 -0.02665984 0.1761047 0.087557524 0.18540457 -0.2446566 0.07948739 -0.30451915
0.08607768 0.020029621 0.11453525 -0.11664176 -0.06119363 0.21401882 -0.15345043 0.2838828
0.10965908 -0.057752784 0.29169148 0.19129327 0.059540443 -0.039780766 -0.023871567 0.15414746
-0.11135861 -0.1989473 0.12817812 -0.33703038 -0.3812952 -0.0006350946 -0.17251351 -0.083101
0.17784497 -0.13261533 -0.07696154 0.009661767 -0.5895793 -0.0070543434 -0.062362082 -0.19302061
0.16696413 0.28071794 -0.13785063 -0.10372808 0.19304663 0.12783441 -0.09542728 -0.12634377
0.17062971 -0.08726421 0.113418534 0.20398128 0.1646839 -0.02903822 0.12117997 0.17322901
0.022787757 -0.09157852 -0.15437451 0.24608748 -0.1779549 0.047541857 0.012071987 0.06782131
0.31382576 0.15820435 0.175101 -0.092769496 0.070270106 -0.1429911 -0.0222236 0.12118703
0.042875666 -0.2904987 -0.4776813 -0.17049377 0.07684598 -0.13428774 -0.069790184 0.023244964
-0.001870863 -0.04009258 -0.24016231 0.14201838 -0.111223094 0.054250255 0.11065081 0.053043928
0.28759092 -0.14516066 -0.070697024 -0.15170434 -0.11803455 0.11415793 0.14010331 -0.013843202
0.11531712 -0.18439241 0.14952524 0.16537744 -0.21337123 -0.036848176 -0.018503314 -0.12999515
-0.1760927 0.084831916 -0.040346976 -0.089139655 -0.087724 -0.08489228 -0.06974402 -0.06341801
0.06658967 -0.06822799 -0.07582352 0.09618106 0.016563619 -0.16228303 -0.099368855 -0.16737857
-0.17466252 -0.14087117 -0.07343434 0.090723425 0.04159723 0.16118573 -0.20967548 -0.01824172
-0.060477328 -0.2775361 0.06839658 -0.21503536 -0.036213093 0.010010617 -0.018399773 0.009719751
-0.2340762 0.16552849 -0.22036375 -0.07727927 0.0020558152 -0.07373385 -0.19812481 -0.21955131
0.013112979 -0.23806708 -0.2149917 -0.09999232 -0.009663148 0.020540662 0.041164447 0.06824271
00000000: 3840 b23d 2ab6 76be 127f d23d 62c0 4fbe
00000010: 1af7 96bd 8596 213e 70ad 253d ee98 0abd
00000020: d355 adbc ab1e 843e cb96 56bd e06b bbbd
00000030: b7c5 b7be cdfb 553e b097 31be a681 2dbe
00000040: f5a5 b4bd 1b36 813d 14a6 f63b 83d1 afbd
00000050: abbf 503e c866 d73d 7aeb 0f3e a5d3 003d
00000060: 6b5b 333e d83e b3be 812c 893d fcc6 5c3d
00000070: 9b50 de3d 0a37 163e 077b 10bd 2c7b 043c
00000080: cf84 55bd 3747 213e 2316 5d3e 4a9a bc3d
00000090: 16ae a53e e14e 94bb 4c3d 933e 5f91 88bc
000000a0: 4c33 823e 1955 76bc 8e79 cb3d 997f 87bd
000000b0: a997 d23d 94a0 943d 3093 99be 8a99 d03c
000000c0: 6bae d6bd 6228 d6bd a50a b0bc 1611 4d3e
000000d0: 7338 a13d fb03 833d 0c37 8bbe 0392 6a3e
000000e0: 6ee8 0dbe 39c9 29bd 683d cbbd 998c f7bb
000000f0: 8228 d43d e075 0bbe fee1 5dbd 3c48 8a3e
00000100: e52c 843d 75c3 23be da82 c63d 20f9 4dbe
00000110: 192d 1d3e 1258 0e3c dbc0 723d a8fc ccbd
00000120: 6560 463e 2085 ca3d 065b 703d ab4b f8bd
00000130: fa4e 8cbe 49c3 e73d 15f7 d73b 8a38 aebd
00000140: cb7c 8738 b6ce 5f3d a38a 13be 54cf 503e
00000150: 0a38 e1bd 2abf acbd 5bd7 1dbd 5bcd dfbe
00000160: 55e1 303e 94ba b8be 3af3 0ebc a259 153e
00000170: 8c91 503e 2fff 70be e9ad c2be 60fa 9cbd
00000180: e78b 1dbe 78cd 92be 3b48 e83c 098e 353e
00000190: 4b5f 133e cfc1 03bd 622d 90bc 981c eabd
000001a0: 0c3d 433d bd65 dabc ca54 343e 5c51 b33d
000001b0: b2da 3d3e 4287 7abe 49ca a23d efe9 9bbe
000001c0: 7f49 b03d 2915 a43c 7591 ea3d e0e1 eebd
000001d0: 2ca6 7abd c027 5b3e 1c22 1dbe 1659 913e
000001e0: f194 e03d 2f8e 6cbd 9658 953e 62e2 433e
000001f0: aee0 733d 28f1 22bd 4e8e c3bc d5d8 1d3e
00000200: fc0f e4bd d7b8 4bbe 2041 033e 3f8f acbe
00000210: 2039 c3be 7a7c 26ba 62a7 30be db30 aabd
00000220: fe1c 363e 50cc 07be 039e 9dbd 634c 1e3c
00000230: abee 16bf 1f28 e7bb 626f 7fbd 32a7 45be
00000240: a5f8 2a3e 43ba 8f3e b728 0dbe 636f d4bd
00000250: 04ae 453e 06e7 023e 616f c3bd 4360 01be
00000260: 8eb9 2e3e 94b7 b2bd fa47 e83d 78e0 503e
00000270: e5a2 283e 90e1 edbc 342d f83d f262 313e
00000280: 64ad ba3c 858d bbbd 5a14 1ebe 5bfe 7b3e
00000290: cf39 36be 40bb 423d 95c9 453c e6e5 8a3d
000002a0: c5ad a03e 5200 223e ad4d 333e effd bdbd
000002b0: c6e9 8f3d 426c 12be 440e b6bc e830 f83d
000002c0: 659e 2f3d 3fbc 94be a592 f4be eb95 2ebe
000002d0: 6d61 9d3d ba82 09be 28ee 8ebd 396c be3c
000002e0: bf37 f5ba 1e38 24bd 1ced 75be 446d 113e
000002f0: efc8 e3bd 8435 5e3d e49c e23d 9744 593d
00000300: 1e3f 933e ffa4 14be 9ac9 90bd 6258 1bbe
00000310: 19bc f1bd a2cb e93d 3e77 0f3e 99ce 62bc
00000320: 622b ec3d 5dd1 3cbe 251d 193e b458 293e
00000330: fd7d 5abe 1dee 16bd 4394 97bc 731d 05be
00000340: a551 34be 5bbc ad3d df42 25bd da8e b6bd
00000350: a4a8 b3bd 01dc adbd f4d5 8ebd 4de1 81bd
00000360: 2a60 883d 1ebb 8bbd 5d49 9bbd 93fa c43d
00000370: 6db0 873c 862d 26be e681 cbbd 4a65 2bbe
00000380: bbda 32be 8840 10be be64 96bd 34cd b93d
00000390: db61 2a3d df0d 253e 2bb5 56be a96f 95bc
000003a0: 13b7 77bd 3619 8ebe 8213 8c3d 3b32 5cbe
000003b0: 2e54 14bd 9203 243c 1fbb 96bc 973f 1f3c
000003c0: acb1 6fbe 4d80 293e 09a7 61be 9844 9ebd
000003d0: dbba 063b c601 97bd 3be1 4abe 0fd2 60be
000003e0: d2d7 563c dbc7 73be c926 5cbe c6c8 ccbd
000003f0: 2e52 1ebc e444 a83c 0d9c 283d d5c2 8b3d

sequential/dense_2/MatMul f4 [26, 128]
-0.68555075 -0.28482425 -0.29373956 -0.21006335 -0.4221841 -0.3608579 0.1004652 -1.6195687
-0.31449023 -0.5924714 -0.14691952 -0.21326496 -0.49037442 -0.3166689 -0.32070202 -0.7203685
-0.2332294 -0.15447144 -0.0607962 -0.09146804 -0.71450317 -0.6202773 -0.3205432 -0.5628808
-0.3971254 -0.36849117 -0.33085608 -0.5467833 -0.031558283 -0.055961493 -0.42770997 -0.4740264
-1.1329527 -0.22560084 -0.09242188 -0.18702054 -0.6231838 -0.32923013 -0.27087188 -0.34519517
-0.5548986 -0.5088747 -0.7679084 -0.53310686 -0.2238215 -0.380113 -0.21323517 -0.34738544
-0.24808128 -0.5483701 -0.07903869 -0.272686 0.12715955 -0.4164411 -0.44110274 -0.73046625
0.117309056 -0.18973964 -0.5526413 0.06372298 -0.09126955 -0.27862537 -1.1333206 -0.09345692
-0.109542504 -0.20002131 -0.56530255 -0.45363373 -0.61479217 -0.21906643 -0.49898732 -0.8935878
-0.32720557 -0.59244937 -0.042954955 -0.15184891 -0.16637248 -0.3066293 -0.51351625 -0.27763417
-0.47064245 -0.2624908 -0.113900594 -0.8847891 -0.6987519 -0.08146065 -0.35251194 -1.1017307
-0.058654785 -1.5637758 -0.047767986 -0.6197931 -0.6771855 -0.28106913 -0.09265173 -0.50020427
-0.00989827 -0.010609454 -0.1189999 -0.036181334 -0.18849544 -1.0246629 -0.43185717 0.004966706
-0.75861055 -0.7723871 -0.360733 -0.18267798 0.11296134 -0.31051973 -0.5076381 0.0023629745
-0.3713551 -0.21544236 0.20559017 -1.3781161 -0.26615086 0.008338739 -0.92705935 -1.0345758
-0.8022648 -0.11521177 0.058834635 0.0016067899 -0.20059125 -0.1463943 -0.18451895 -0.89547867
-0.86217123 0.07146285 -0.46071842 -0.21213403 -0.08663401 -0.18378846 -0.3529048 -0.2940039
-0.727875 -0.53156716 -0.35958043 -0.64499074 -0.54136354 -0.8591409 -0.12582052 -0.9349003
-0.49227044 -0.5813315 -0.32247537 -1.0182686 -0.49995375 -0.455172 -0.55587405 -0.34374648
-0.34510463 0.05822732 -0.38216528 -0.52103114 -1.6225108 -0.5207619 -0.26392606 -0.9574749
-0.60074615 -0.24610655 -0.4974384 -2.3416867 -1.2499433 -0.3845478 -0.56351036 -0.120989375
-0.25112385 -0.15007277 -0.43306348 -0.2688392 -1.378596 0.060693488 -0.28265005 -0.14637676
-0.15823136 -1.0620688 -0.22880854 -0.12782145 -0.18070194 -0.91994506 -1.2497959 -0.04934688
-0.21438469 -1.0825683 -0.45984498 -0.30248058 -0.33923388 -0.43986642 -0.101471774 -0.153774
-0.5042893 -0.25144252 -0.38212186 -0.47405693 -0.31890607 -0.3006078 -0.13042863 -0.09689477
0.24426433 -0.5240235 -0.4107722 -0.21933968 -0.5769974 -0.3739473 -0.49748376 -0.58626926
-0.5704669 -0.14282817 -0.55758667 -0.18850827 -0.313486 -0.50584245 -0.47330818 -0.96049243
-0.16165029 -0.4807409 -0.61368835 -0.42786458 -0.06918997 -0.63818437 -0.694013 -0.20330845
-0.24234481 -0.41295028 -1.0081664 -0.29069352 -0.10895667 -0.511083 -0.6195212 -0.4038557
-0.015140841 -0.7129796 -0.6582726 -0.46979183 0.11618997 -0.3851677 -0.14273192 -0.37934396
-0.8340112 -1.2426705 0.17176662 -1.4711791 -0.37320384 -0.2973892 -0.1689752 -0.8466688
-0.65868753 -0.3312311 -0.00749444 -0.9915172 0.10425573 -0.2418272 -0.45596778 -1.8857383
00000000: 4180 2fbf 7cd4 91be 0865 96be d91a 57be
00000010: 8428 d8be 5ec2 b8be b3c0 cd3d 074e cfbf
00000020: dd04 a1be 35ac 17bf 1272 16be 2162 5abe
00000030: 5b12 fbbe 6d22 a2be 0e33 a4be 126a 38bf
00000040: b0d3 6ebe c32d 1ebe 7005 79bd 9953 bbbd
00000050: aee9 36bf 7eca 1ebf 3d1e a4be f518 10bf
00000060: 0554 cbbe e0aa bcbe f865 a9be fef9 0bbf
00000070: 4243 01bd e137 65bd cdfc dabe 97b3 f2be
00000080: 9804 91bf e803 67be af47 bdbd 5082 3fbe
00000090: f988 1fbf da90 a8be b8af 8abe 6cbd b0be
000000a0: d60d 0ebf 9d45 02bf a595 44bf b179 08bf
000000b0: 7731 65be 2c9e c2be 525a 5abe 81dc b1be
000000c0: 0509 7ebe fc61 0cbf 09df a1bd 809d 8bbe
000000d0: 1d36 023e c537 d5be 38d8 e1be d6ff 3abf
000000e0: bb3f f03d 1c4b 42be e679 0dbf 3281 823d
000000f0: 88eb babd fca7 8ebe a610 91bf 5766 bfbd
00000100: d257 e0bd 63d2 4cbe abb7 10bf ae42 e8be
00000110: 0563 1dbf f352 60be 447b ffbe 2cc2 64bf
00000120: 7d87 a7be c3aa 17bf 89f1 2fbd 487e 1bbe
00000130: 8c5d 2abe 84fe 9cbe cd75 03bf 1126 8ebe
00000140: 0cf8 f0be 3265 86be b744 e9bd 8a81 62bf
00000150: 68e1 32bf d7d4 a6bd 727c b4be 8305 8dbf
00000160: 0040 70bd ce29 c8bf 5da8 43bd c3aa 1ebf
00000170: 075c 2dbf 4be8 8fbe 31c0 bdbd 630d 00bf
00000180: 5a2c 22bc 46d3 2dbc 38b6 f3bd e132 14bd
00000190: f304 41be 2728 83bf 621c ddbe c0bf a23b
000001a0: 4d34 42bf 29bb 45bf ffb1 b8be f00f 3bbe
000001b0: 4658 e73d 71fc 9ebe 92f4 01bf 22dc 1a3b
000001c0: 4122 bebe ec9c 5cbe 3b86 523e 1c66 b0bf
000001d0: ed44 88be 359f 083c c353 6dbf fb6c 84bf
000001e0: 3a61 4dbf 26f4 ebbd 96fc 703d ec9a d23a
000001f0: cb67 4dbe 63e8 15be 89f2 3cbe 173e 65bf
00000200: 41b7 5cbf 1d5b 923d 49e3 ebbe aa39 59be
00000210: 2c6d b1bd 0b33 3cbe f0af b4be ae87 96be
00000220: 0456 3abf c914 08bf ed1a b8be 1d1e 25bf
00000230: cd96 0abf a8f0 5bbf 18d7 00be a055 6fbf
00000240: df0a fcbe 24d2 14bf 7e1b a5be a056 82bf
00000250: f0f9 ffbe 4e0c e9be c34d 0ebf 8aff afbe
00000260: 8eb1 b0be c57f 6e3d 2bab c3be 4c62 05bf
00000270: 6fae cfbf a750 05bf 5121 87be 131d 75bf
00000280: 80ca 19bf 5b03 7cbe 3fb0 febe 32de 15c0
00000290: 24fe 9fbf 73e3 c4be 3742 10bf 47c9 f7bd
000002a0: 4e93 80be adac 19be 7fba ddbe 4ba5 89be
000002b0: d575 b0bf bc99 783d 82b7 90be cae3 15be
000002c0: 6707 22be dff1 87bf c94c 6abe a0e3 02be
000002d0: ee09 39be 8581 6bbf 50f9 9fbf f41f 4abd
000002e0: a987 5bbe 9991 8abf cd70 ebbe bcde 9abe
000002f0: 10b0 adbe 2c36 e1be 6fd0 cfbd ee76 1dbe
00000300: 1b19 01bf 13bd 80be 7aa5 c3be 97b7 f2be
00000310: a847 a3be 44e9 99be 158f 05be c470 c6bd
00000320: 6e20 7a3e 6726 06bf bc50 d2be 959a 60be
00000330: 1ab6 13bf 0576 bfbe 31b6 febe be15 16bf
00000340: 1e0a 12bf 8c41 12be 00be 0ebf 5008 41be
00000350: 3d81 a0be e47e 01bf 7355 f2be d5e2 75bf
00000360: a787 25be ac23 f6be ae1a 1dbf 1111 dbbe
00000370: 79b3 8dbd 0d60 23bf d6aa 31bf 1730 50be
00000380: 3d29 78be 386e d3be 990b 81bf c8d5 94be
00000390: ad24 dfbd 56d6 02bf f198 1ebf 2dc6 cebe
000003a0: 4a11 78bc d585 36bf 8e84 28bf 8e88 f0be
000003b0: 02f5 ed3d b334 c5be 5128 12be 5f39 c2be
000003c0: c281 55bf d40f 9fbf 97e3 2f3e 994f bcbf
000003d0: 9314 bfbe 6643 98be d607 2dbe 49bf 58bf
000003e0: bf9f 28bf 1f97 a9be eb93 f5bb 12d4 7dbf
000003f0: 0784 d53d 8da1 77be 9c74 e9be df5f f1bf
